dqn_agent_last.pth (torch, 22633 bytes, 6 tensors)

net.0.weight f4 [64, 5]
00000000: e17a d73f c312 ef3f e976 04bf 7e1e d1be
00000010: 80d9 2bbc 30c2 1fbe 90d6 b0bc ae24 33be
00000020: 6eea b3be 3541 73be 7ae0 1f40 5111 7f3f
00000030: 69bf 79be a727 953f 8fc0 c5be 41a5 933f
00000040: fa46 993f 96d6 ffbe ace5 13bf e4c9 543e
00000050: 3d2c c7be ea1c b0be 799f e4be cc30 eebd
00000060: 9cb3 7e3e e25d 09be 205d bebe d448 47be
00000070: b047 b4be 90f9 c1bc 6f5b a53f fc7a 20c1
00000080: be62 2ec0 15e4 1540 f43a c9be ec2c 77bf
00000090: 81d5 0d40 9fc7 c8be e605 87be 5033 d63e
000000a0: d5fe ee3f 4842 8dbf 2890 3e3f 35e1 5a3f
000000b0: 4007 63bc 0a20 7c3e 8e33 75be 1676 533f
000000c0: 4352 2b3f 5e10 aebe ba93 523f 6236 5c3f
000000d0: 05a8 04bf 5106 0fbf 0c1e 96be b615 72bf
000000e0: cba0 e5bd c179 c1be 23c7 bcbe 6418 7d3e
000000f0: bb41 243f 09e1 173f cc30 92be 98d0 1dbf
00000100: 5cea 273e 0bc2 d9be 1642 d4be ada3 5e3e
00000110: a1c7 83bf e69e bebe 8c00 123e c4ba a4bd
00000120: 6462 9bbd 2c5d 20be b404 df3e 1319 c23f
00000130: c6c7 a4bf d2a5 fa3f 4438 1cc0 b615 803e
00000140: 92c8 ab3f d700 37c0 626e ef3e 0291 3d3f
00000150: 2636 abbe f098 2c3d fb52 a1be c41f 243e
00000160: ec41 fbbd 903e 563e ce96 d53e 548d 0f3f
00000170: aa19 8bbe 63be 25bf e2ae b63e 4ca4 8cbd
00000180: 24ed aebd c8dd 9d3e 10ce 1a3d 608c 413c
00000190: 2def 313f 0a13 19c1 1daf 9b3f 9a5f 913f
000001a0: 402b ffbb 2825 b23f ee37 893f 0261 9dbe
000001b0: 3f08 67bf ae9c 38be 198c 693f 4f21 b53f
000001c0: d7e1 8b3f 1191 2b3f b06c 32be e796 59c1
000001d0: 9de8 4f3f df01 b83f 71f3 3cbf 205f 92bc
000001e0: e629 ba3f fc5b 943f 4615 e0be 0b2c d4be
000001f0: 02a4 2abe cb12 5f3f df91 143f c3e0 05bf
00000200: dac5 a4bd bc26 e43e 816f 0c40 2c98 3440
00000210: 0dda c6bf d660 43c0 4a69 94be a6fb 3440
00000220: 87e4 2b40 5a56 f4bf a66e abbf 3887 07be
00000230: 0509 eb3f ed16 f33f 7b5a ea3d a73d de3f
00000240: b873 923d 0346 223f 7f66 233f fa76 16bf
00000250: 3c2e f7be 1849 453e 6896 98c0 30e7 0740
00000260: ddb6 653f d928 c0bf 5f7d 8cbe ca77 b33a
00000270: baec 5b3e a47d b1be 97ff 3dbf 58d9 863e
00000280: a4b6 c83f 82f8 4c40 f635 d23c c1d8 aebd
00000290: c88b 923e 2654 e43f 5b62 7840 e1f6 b0bf
000002a0: a113 413f 8c93 97be 3e35 36be bae6 c03e
000002b0: 501a 6abd d08b a6bd fc6e 523e 6a65 b2c0
000002c0: e628 68c0 b7f7 153f c1f6 453f 3461 043e
000002d0: c32c c5be e799 2a3f de75 eb3e 2cc2 6bbe
000002e0: b982 80be 8a42 1bc0 f946 b23f 2c11 843e
000002f0: 5709 203f 2c0b c23e 9ef3 9240 aae2 bcc0
00000300: 4075 e83f 91e3 51c0 9a89 d23e c9be debf
00000310: f132 bfc0 ac1e 82be dc60 40bf 80de e2bc
00000320: 3046 ad3d d07e 56be 9911 5ebe c1ae abbe
00000330: 2039 d93e ed76 08bf ce11 5dc0 b193 673f
00000340: 1c9d b53f 068c a1be 6150 df3f c143 0040
00000350: 5c23 c2be 6bd4 c8bd 307b ddbd 15e3 783e
00000360: a623 6fbe 75e1 bc3e 559a 913e 68a4 47be
00000370: e6da 9cc0 3ea1 7d3e 657a 873f 76fe 903f
00000380: ebf1 68be 467b d43f 6712 6340 3b2c 1bbe
00000390: c9af b7bd b83c 69bd 0d6f 283f 083e e33e
000003a0: 1c3b d9be 302e e7be 104d b63d e02c 85bf
000003b0: a0ff b9c0 9137 85bf 9433 803f 2443 d73e
000003c0: 3fb1 8d3f 6d9f 35c0 4b36 86bf bca5 8fbf
000003d0: 481e a63d 872e a93f cc9d a63f b99b 17bf
000003e0: 495b 12bf 70fa 2f3d bfd9 0b3f 9d07 c8bf
000003f0: bb0d 523f cfcb 313f acab 683e 6e48 8a3e
1.6834375 1.8677601 -0.5174394 -0.40843576 -0.010488868 -0.1560142 -0.021586686 -0.17494461
-0.35139793 -0.23755343 2.498076 0.996358 -0.24389423 1.1652726 -0.38623473 1.1534806
1.1974785 -0.49968404 -0.57772326 0.2078014 -0.3890094 -0.3439706 -0.44652918 -0.11630401
0.24873203 -0.1341472 -0.37180424 -0.19461375 -0.35210943 -0.023678571 1.2918528 -10.0300255
-2.7247767 2.342046 -0.3930279 -0.9655292 2.2161562 -0.392148 -0.26371688 0.41836023
1.8671519 -1.1035852 0.74438715 0.8549989 -0.013856709 0.24621597 -0.23945448 0.8260206
0.66922396 -0.33996862 0.8225666 0.8602048 -0.5181888 -0.55869013 -0.293198 -0.9456438
-0.112123094 -0.37788203 -0.3687068 0.24716336 0.64162797 0.5932775 -0.28552854 -0.61646414
0.16397995 -0.42530856 -0.4145667 0.21742125 -1.0295297 -0.37230605 0.14258021 -0.08043435
-0.07587126 -0.15660542 0.43558276 1.5163902 -1.2873466 1.9581854 -2.4409342 0.25016564
1.3420584 -2.8594263 0.46763903 0.7404939 -0.3343975 0.04213804 -0.31508622 0.16027743
-0.12268433 0.20922303 0.41716617 0.56075025 -0.27168018 -0.6474363 0.356803 -0.06867275
-0.08541325 0.30833268 0.037794173 0.011813253 0.6950558 -9.567148 1.2162815 1.13573
-0.007787138 1.3917589 1.0720193 -0.30738074 -0.9024696 -0.18028519 0.912294 1.415079
1.0928296 0.6701823 -0.17424273 -13.599341 0.81214315 1.4375571 -0.7380896 -0.017867625
1.4544036 1.1590571 -0.4376623 -0.41439852 -0.16664127 0.8713805 0.5803508 -0.52296084
-0.0804555 0.44560802 2.1943057 2.8217878 -1.5535294 -3.0527854 -0.2898658 2.8278594
2.6858232 -1.9088852 -1.3393142 -0.13235176 1.8362128 1.8991371 0.11443039 1.7362565
0.07150978 0.6338808 0.6382827 -0.58775294 -0.48277462 0.19266164 -4.76836 2.1234856
0.8973215 -1.5012466 -0.274394 0.0013692316 0.21477023 -0.3466617 -0.74218124 0.26337695
1.5680737 3.2026677 0.025660496 -0.08537436 0.2862227 1.783818 3.8810031 -1.3825341
0.75420576 -0.29604757 -0.17793748 0.3767603 -0.057154 -0.08132136 0.2055015 -5.5748796
-3.6274962 0.5858111 0.7732964 0.12927705 -0.38510713 0.66641086 0.45988363 -0.2302329
-0.25099733 -2.4259362 1.3927909 0.2579435 0.6251425 0.37899148 4.5922384 -5.902669
1.8160782 -3.2795146 0.41120607 -1.7401973 -5.9749684 -0.25414026 -0.75147796 -0.027693987
0.08460653 -0.20946813 -0.216864 -0.33531764 0.42426395 -0.53306466 -3.4542117 0.90459734
1.4188571 -0.31552142 1.7446405 2.0041354 -0.37917602 -0.098061405 -0.10814512 0.24305375
-0.23353443 0.3689076 0.28438058 -0.1949631 -4.901721 0.2476854 1.0584227 1.1327655
-0.22748534 1.660012 3.5479982 -0.15153591 -0.08969075 -0.05694267 0.6579445 0.44383264
-0.4242791 -0.45152426 0.08901417 -1.040432 -5.812454 -1.0407583 1.001574 0.42043412
1.1069716 -2.8378556 -1.0485319 -1.1222453 0.081112444 1.3217324 1.3016906 -0.5922199
-0.5717054 0.042963445 0.5462913 -1.5627323 0.820522 0.6945161 0.22721738 0.27008384

net.0.bias f4 [64]
00000000: 92d2 543f 2f32 c9be d879 8abf 776d 973f
00000010: 7a59 c5be c82a 40be e38f 853c 7465 0ec0
00000020: 7771 cd3e 3660 e53e 8a82 933f 69b8 ce3f
00000030: 728c 893f 3e0b b33f 6aee cbbe ece3 f63d
00000040: 5e90 733f c8d2 83be e500 833f 08bd c6be
00000050: fbcd f83d 8563 953f 4b3d 97bf 10ec 33bf
00000060: f09b 873f 2a01 693f e3a7 113f 418f 643f
00000070: 14a4 dabf 98d5 7d3f 74b4 88bf 63e0 a23f
00000080: ae8e 22bf 8aae 3abf 4a31 c8be b64b 81bf
00000090: 2e6e f23e 8060 d83f 2e35 c3bf 3b90 3a3f
000000a0: b609 54be c98c 4a3f 666b 0f3f 3950 aa3e
000000b0: a9f6 643e e0b2 a1bf 8184 7b3f 1182 82bf
000000c0: d31d f73e b38a 953f 5650 743f fa9a 94be
000000d0: 20c9 61bd bc20 a63d 9229 bebe 7921 493f
000000e0: 1c78 943f 9d27 5fbf 450e 8abf 7efe 443f
000000f0: 82cc 9abe 9060 873f 5d6a 45bf 7362 9a3f
0.83133805 -0.392961 -1.0818434 1.1830281 -0.38544828 -0.1876632 0.016303962 -2.2249422
0.4012563 0.44799966 1.1524212 1.6150028 1.0745986 1.3987806 -0.39830333 0.120551914
0.9514216 -0.2574675 1.0234648 -0.38816094 0.12148663 1.1670996 -1.181558 -0.7028208
1.0594463 0.910174 0.568968 0.8928109 -1.7081323 0.99154043 -1.068007 1.2724727
-0.6349896 -0.72922575 -0.39100105 -1.010123 0.47349685 1.690445 -1.5250604 0.7287633
-0.2070683 0.7912107 0.5602325 0.3326433 0.22359718 -1.2632713 0.9824906 -1.0195943
0.48264942 1.1682953 0.9543508 -0.29024488 -0.05512345 0.08111712 -0.3714109 0.785667
1.1599154 -0.8716982 -1.0785605 0.76950824 -0.30234152 1.0576344 -0.7711542 1.2061294

net.2.weight f4 [64, 64]
00000000: 101d 05bc 0039 c3bd 643a 1ebe 1e9c 2fbc
00000010: c805 51bd ac5a 933d de84 6bbd 086e 883d
00000020: 0965 923d 2b68 93bc 5a46 29bd fa0a 493c
00000030: 01f5 bdbd eb93 413d 0a33 a0bd 1644 55bd
00000040: 487a 313d f0ef 483c f2ba dcbd 8c0c ed3d
00000050: d823 963d 8026 28bd fb60 eabc f261 27bd
00000060: 8016 b0bd 93c3 c3bd d040 d3bd 739b 4cbb
00000070: 2877 163d 3ed4 d3bd 26b6 9fbd f375 2c3c
00000080: 04ee 1cbd e2bd 84bd 1093 e73c 2d8e d6bd
00000090: 98dc c6bd aacd 68bd 0e04 babc fe62 acbd
000000a0: 0a17 b53d 094d bf3d 6158 7e3c 7de3 19be
000000b0: f025 c1bd ce9c b3bd 301a ffbd 0ca8 e6bd
000000c0: 57f7 943c 3024 1b3c 8ece 97bc 84f0 4b3d
000000d0: c6f9 b0bd b847 25be aebc eebb b7f8 0fbc
000000e0: 5c05 2f3d f0e0 e8bd 70c2 8e3d a0bd be3b
000000f0: de04 b33d 3016 3abd dc8a a63d 2709 6dbd
00000100: 7790 79bf 6078 7e3d c732 d9bf fd5c 32bf
00000110: 7246 eabd c03a c53b 52ab 6440 0345 a63f
00000120: 13e7 3c3e f728 f33e c91a dcbe 43f6 ba3f
00000130: c18c 30be 22e9 2a3f 0e72 c6bd 0f6a 1c40
00000140: f80d 9e3e ac75 58bd 8bc8 553e 6443 313d
00000150: 12d4 7540 ed86 afbd f922 8a3e 7c41 0cc0
00000160: 9729 51bf f7db 01bf 71d8 24c1 4e30 edc0
00000170: 34e4 86c0 5d59 1fbe 8d7c 3c40 65ac a43d
00000180: 35eb 7d40 231a 8ac0 7cc4 383d d5f8 fb3f
00000190: d175 3a3f 2dcd a33f 77ea d6c0 a99c 5b40
000001a0: 86df edbd dfa0 e1be 5fae 7bbf 2981 383f
000001b0: f7f0 58bf 17c7 bc40 0db1 5cbe ff7e 6140
000001c0: 0e71 493f 5325 2dbf a990 113f 5b69 a53f
000001d0: 9a07 9dbd 24ab 0f3f d517 6240 5a9e b340
000001e0: aeb3 ac3e d261 08c0 d8c3 1dc0 9c78 383d
000001f0: cf88 a2bc ccda 21be 78c9 88c0 796d 1a3f
00000200: 58e6 c9bf 82ab fa3d df53 2340 bbb0 9cbf
00000210: 000a 233c 0e3b 84bd 2bd5 1a40 599a 5d40
00000220: 9c11 81be c67d 3f3e 0c23 79bf 4021 4a3f
00000230: 870f 31bf a1e6 213d c052 c73c 1b54 dd3f
00000240: 316a 8a3e e07b 74bd bbad 93be d8c6 c43d
00000250: bd52 1d40 7646 28bf 9d24 d2bf 3ba2 02c0
00000260: bf4c b7bf 2a5a 84bf 0e74 bfc0 dcdc 41c0
00000270: f7b5 5cbf 9ed7 44bf 03b8 3040 32fc 0dbf
00000280: 3523 1540 ece8 63c0 ecc3 c23d c625 763f
00000290: 3ca7 3c3e 8765 6d3f 48e3 bac0 a195 8540
000002a0: 8cfd e0bd 9f9a 1f3e 4cc8 cdbf 0f45 9d3e
000002b0: 95f3 c5be 7de6 7f40 792e 5ebf cb68 3040
000002c0: dc0c 133f ddda 94bf 7821 9b3c d521 ef3e
000002d0: 4040 fcbc c4d7 2c3c f5c1 e13f 681b bb40
000002e0: 45ce 613e 5386 12c0 a59a 24c0 e1a1 07bf
000002f0: 6e28 2dbb 536f fdbf 2eab 82bf cfe8 923e
00000300: 445b d4be a27f 903d 56b6 f33e ae80 e9be
00000310: 741d d93d 1044 1e3d 54f3 5640 a39e bf40
00000320: 899e 0540 3edb a53f 6d2b a0be e0e1 d4bc
00000330: 01b5 acbe 364b d8bd 48ad e93d 7324 4f3e
00000340: 3e67 aa3f 400d b6bc 068c 07bd 4000 043c
00000350: 4db7 a240 4b0e 923d dd64 3f40 d4e5 8140
00000360: d1bb 14be 1708 923e f619 78c0 f1aa a9c0
00000370: 9f37 de3f 7664 45be 8a61 f03f 431e 03bf
00000380: e219 0d40 bef1 2dc1 f0cc 3c3c 370f 9dbf
00000390: 7eaa 8d3e 2623 90bf 6378 a940 51af 49bd
000003a0: 585b 26bd 6915 e53f ca06 83be 9d98 563f
000003b0: e9ce 57bf f401 ff3f 12e6 843c d339 6d40
000003c0: 1464 8cbf bf90 f0be d34f cb3f aa4d 0240
000003d0: d269 81bd d8fd ac3f 3c2d 6940 3403 8dc0
000003e0: 3128 abbf e46e 80c0 0758 ff40 a40e 033f
000003f0: 153a f4bd 66a8 4ac0 0a72 0c40 ab6e 503f
-0.008124605 -0.09532356 -0.15451962 -0.010718374 -0.051030904 0.07195029 -0.05749976 0.06661612
0.07148177 -0.017994007 -0.041326858 0.012270683 -0.092752464 0.047260206 -0.07822235 -0.052066885
0.043329507 0.012264237 -0.107778445 0.11574659 0.073310554 -0.04105234 -0.028610697 -0.040864892
-0.085980415 -0.09558787 -0.103150964 -0.0031220585 0.03673473 -0.10343216 -0.07798414 0.010526168
-0.038312927 -0.0648153 0.028268367 -0.10476337 -0.09710044 -0.05683676 -0.022707012 -0.08417319
0.08842285 0.09340865 0.015524001 -0.15028186 -0.09431064 -0.087701425 -0.12456167 -0.11262521
0.018184347 0.009469077 -0.01853111 0.04978992 -0.086413905 -0.1614064 -0.007285676 -0.008787326
0.04272972 -0.113710284 0.0697068 0.005820945 0.08741163 -0.045431316 0.08131954 -0.057870056
-0.9748606 0.062126517 -1.6968621 -0.6967314 -0.114392176 0.0060189664 3.5729566 1.2989811
0.18447523 0.4749219 -0.42989185 1.4606403 -0.17241193 0.6676198 -0.09689723 2.4439733
0.30870032 -0.052846596 0.20877282 0.04327716 3.8410687 -0.08570657 0.26979807 -2.1914968
-0.81704086 -0.50726265 -10.302842 -7.4121466 -4.215357 -0.15561433 2.945102 0.08040694
3.967481 -4.3156905 0.045109257 1.9685313 0.72836024 1.279699 -6.716121 3.4314368
-0.11614899 -0.44068047 -0.98312944 0.7207208 -0.84742683 5.899303 -0.21551915 3.5233762
0.7868813 -0.6763508 0.5686136 1.2922777 -0.076674655 0.56120515 3.5327046 5.61308
0.33730835 -2.1309705 -2.4650784 0.045036897 -0.019840626 -0.1580612 -4.2745934 0.6032329
-1.577342 0.12239744 2.551994 -1.2241434 0.009951115 -0.06456576 2.4192607 3.4625456
-0.25208747 0.18700323 -0.973191 0.78956985 -0.6916432 0.039526585 0.02433145 1.7291292
0.27034143 -0.05968845 -0.28843483 0.09608239 2.458175 -0.65732515 -1.6417423 -2.0411518
-1.4320296 -1.0340016 -5.982917 -3.0291052 -0.86215156 -0.76891506 2.7612312 -0.55462945
2.3302739 -3.5610914 0.095100254 0.9615139 0.1842317 0.92733043 -5.8402443 4.1745152
-0.1098586 0.15586327 -1.6076751 0.3071675 -0.386624 3.998443 -0.8678966 2.756396
0.57441497 -1.1629292 0.018936858 0.467055 -0.030792356 0.010549489 1.7637316 5.8470955
0.22051342 -2.2894485 -2.5719388 -0.5298138 -0.0026421803 -1.9799598 -1.020849 0.28693244
-0.4147588 0.07055594 0.4760005 -0.45605987 0.10601321 0.03863913 3.3586016 5.988115
2.0878012 1.2957532 -0.3128313 -0.025986612 -0.33731845 -0.1056122 0.11410004 0.20228748
1.3312757 -0.022223115 -0.03309252 0.0080567 5.0848756 0.071316324 2.9905312 4.059305
-0.14524771 0.28521797 -3.8765845 -5.302117 1.7360724 -0.19276604 1.8779767 -0.5121805
2.2047048 -10.871519 0.01152347 -1.2270268 0.27669138 -1.1260726 5.2959456 -0.04923946
-0.040614456 1.7897159 -0.25591117 0.8382662 -0.84300095 1.9922471 0.016222987 3.7066543
-1.0968041 -0.46985433 1.5883735 2.0359902 -0.06319012 1.3514967 3.643386 -4.406641
-1.337164 -4.0135365 7.9794955 0.51194215 -0.11925141 -3.1665282 2.1944604 0.81418866

net.2.bias f4 [64]
00000000: 9884 35bd 36d8 403e 6080 3bbe f236 183f
00000010: 2354 473d 1adf 43bd 72f9 b73f 3cb1 1abc
00000020: 924e 603f cea2 963f ab4f c0bd 63ef 323f
00000030: 935f a53f a662 e7bd b9f4 9c3f b68b 85bd
00000040: 6cbc 08ba 7ff6 a8bd 63ab f2bd 9056 8a3f
00000050: 37e5 b23f 3878 fc3c 5b44 02be deca cebc
00000060: b156 0abe a103 7a3f d994 1cbe cab6 aa3e
00000070: 520a 263f 0032 e8bd 6331 653f e701 953f
00000080: 9411 1dbd ae30 e2bd 3ba9 0fbe 961f c6bd
00000090: 9800 b93f 96d8 8a3f 9733 c63d 9ae7 85bd
000000a0: a46e 03be 511f a1be e89e 7d3f 1fdc c0bd
000000b0: b682 e7bd e2cd 11bf cf8c 963f 6ea6 7a3f
000000c0: 3dcd 02be 8747 8e3f a2e6 3a3f d88d b63d
000000d0: c045 c83f 0b6a cf3e 39b1 b8bd 0bca 22be
000000e0: d27a 01be 1e64 c2bd 406d e9be dff7 15be
000000f0: 435c f5bd 87d0 9ebe 4911 49bd f302 cf3f
-0.044315904 0.18832478 -0.1831069 0.5945884 0.048664223 -0.047820188 1.4373 -0.00944167
0.8761989 1.1768434 -0.093901955 0.69896525 1.2919792 -0.112981126 1.2262183 -0.06520788
-0.00052160653 -0.082501404 -0.11849096 1.0807667 1.3976201 0.030819044 -0.12721388 -0.025243219
-0.13509633 0.9766179 -0.15291156 0.33342582 0.648595 -0.11337662 0.89528483 1.1641206
-0.038346842 -0.11044441 -0.140294 -0.09673993 1.4453306 1.0847347 0.09677809 -0.06538315
-0.12835175 -0.31469205 0.99070597 -0.09416985 -0.11304228 -0.5695478 1.1761721 0.979102
-0.12773605 1.1115578 0.7300817 0.08913773 1.5646286 0.40510592 -0.090181775 -0.15897386
-0.12644508 -0.09491752 -0.45591164 -0.14645337 -0.11980488 -0.3101847 -0.04908875 1.6172775

net.4.weight f4 [5, 64]
00000000: 44f8 bc3d aa6f 123e 9eff 263f 3f8b a5be
00000010: 5de5 0fbe f4e7 833d b22a 8c3f fb65 8b3f
00000020: e787 2f3f 9ea2 763f 1f14 e23c 85eb 88be
00000030: 7db0 643f 28e8 3540 e2a2 7f3f 28e0 673d
00000040: 289c 25bd 339f 19be 552c 373d bfff 953f
00000050: 9c60 a53f 20ca ad3b 8c7b 55bd 5983 313d
00000060: 2485 aa3d 3b41 7c3f 0068 c73d bc60 993f
00000070: eebe c5be f0ee 1e3d 678f 453f 3be8 723f
00000080: dee3 8e3f 8063 0d3d eafd a1bd ab47 aabf
00000090: 3f8d 9d3f 8a29 863f d73b 8f3d 3426 55bd
000000a0: 547f 2cbd a7c2 82bf b85f 5f3f d254 d8bc
000000b0: ded8 4abd 4391 d4bf 41c1 703f eaaf 6e3f
000000c0: c015 24bb 0208 443f bf18 033f 50ee 5fbc
000000d0: 15b0 a93f dfda 1b3f 030a 2bbd b8d6 6c3f
000000e0: 7fa9 2b3b 3e73 1ebd 31b5 1cc0 d735 433d
000000f0: 0394 653b eb88 0d3d 66e9 d93c 18e3 9a3f
00000100: af47 cf3c 20ff 8ac0 c791 22c0 c3d2 8bc0
00000110: 8da7 13c1 9356 a43c 6121 9f3f e61c 7740
00000120: 6c6e 903f a33e a93f 8a6c 1dbe ebf2 37c0
00000130: 76f2 3a3f b968 593f 7b76 793f 40f4 043d
00000140: 94b1 1b3d 2bd5 aabd 5234 9cbd ac5b 6b3f
00000150: ee34 5e3f 1469 0b3d aacf e53d 4e3f 853d
00000160: 4052 603c 666d 943f 01a1 8b3d 725a 4fc0
00000170: 2291 3c40 0080 ad36 93d0 7f3f 9027 7c3f
00000180: fc92 0dbf b468 3c3d e968 4d3b de9b 25bf
00000190: 6db2 743f b9d6 803f 852b 3f3c 7a87 f4bd
000001a0: 50ce fc3c 371e 2fc0 5220 2d3e a34c adbd
000001b0: 636e 193e 805c c8bf f175 a13f de99 843f
000001c0: a60c 9fbd e7b8 343f 71e4 893f f0a8 b8bc
000001d0: cb39 933f 169d 00c0 4c16 8d3d 7d94 e8c0
000001e0: 7afd bfbd 638f 9c3c 9ee5 b0c0 10f0 a93d
000001f0: 6e3b 9cbd ab98 e4bf 60ce 2c3d 5ee9 843f
00000200: 4e3e 03be ee3a b0bf e51d b03f 159b 3d3f
00000210: 2f61 97bd d46c e93c 629d 8f3f 65c1 b13f
00000220: d06c 873f c563 753f 36c3 0fbd 9990 833f
00000230: 74e3 9e3f 49fd 3340 0246 873f 30ab ecbc
00000240: c70d a0bd 28f9 663d 64c8 503d 1038 573f
00000250: bd69 933f dedc afbd 44a9 9e3d 1d63 d43d
00000260: 00c5 57bd db33 353f d8a6 513d 6bcc 95bd
00000270: 3c38 413e 70b2 f1bc e654 293f 3aa5 603f
00000280: da77 79bf 9ab2 9dbd 926d b03c 6115 f9be
00000290: 564e 8e3f 1845 353f 7f6f ae3c 0b78 e0bc
000002a0: 007b ffbb a8a8 63bf e267 a23f c2cc 0dbd
000002b0: 87d3 263d 489d ae3e edea 773f 811f 6a3f
000002c0: 0af5 0fbc afbf 973f 35b9 8f3f 9c05 fc3d
000002d0: 294c 713f e589 c43f e3d2 e83d 0f64 48bf
000002e0: 2e76 bcbd 3006 d73d 07dc 903f bf40 43bc
000002f0: 1482 423d ff85 553e 2e47 85bd a4ab 9d3f
00000300: 163e 93bd 183c 7b40 63c9 5540 1a3f 96c0
00000310: b3f6 6b40 7453 583d 9394 513f 58e4 f1bf
00000320: dae8 063f b503 863f 2597 f3bb 384a 86c0
00000330: ba51 8d3f 2716 b2bf 6078 a83f c037 9fbb
00000340: 88a2 e6bc 086b 433d ac43 27bd 8ce3 b33f
00000350: cd03 623f d0d9 5abc aca2 50bd 6427 2f3d
00000360: b0a0 2d3d 3f1f 323f 7180 9cbc a92c 8ec0
00000370: 63ff a9c0 3653 9abd c749 903f 3d3f a63f
00000380: 97cb afc0 9ee1 fb3d 532d be3c c1b2 d0bf
00000390: cbc2 773f b367 a93f e935 5b3d 4409 e3bd
000003a0: 0e00 d3bd 10b7 3840 3181 a73f 42af df3b
000003b0: 5133 edbb b99b fa3f 0629 4e3f c303 953f
000003c0: ccf9 e53d e8ea 833f ff0d 003f 8add f2bd
000003d0: 73cf 463f d628 80c0 9350 1d3d 5858 8c40
000003e0: 00b2 01ba 4c5b 1d3d 6481 b740 2e49 85bd
000003f0: d285 95bd 638f 8d3f c0ad c1bb 92b4 863f
0.092270404 0.14300409 0.6523379 -0.323328 -0.14052339 0.06440726 1.095053 1.0890497
0.68566746 0.96341884 0.027597485 -0.26742187 0.893318 2.8422947 0.99857914 0.056610256
-0.040432125 -0.15002136 0.044720013 1.1718673 1.2920108 0.005303636 -0.052119777 0.043338154
0.08326176 0.98537034 0.09736633 1.1982646 -0.3862223 0.038802087 0.7717194 0.94885606
1.116329 0.03451872 -0.079097584 -1.3303121 1.230873 1.0481427 0.069938354 -0.052038386
-0.042113617 -1.0215653 0.8725543 -0.026407633 -0.049523227 -1.660683 0.9404488 0.93237174
-0.0025037378 0.7657472 0.51209635 -0.013667658 1.3256861 0.60880846 -0.041757595 0.92515135
0.0026193557 -0.038684122 -2.448559 0.047658768 0.0035030849 0.034554403 0.02660055 1.2100554
0.025302736 -4.343643 -2.5401475 -4.3694777 -9.228406 0.020060813 1.2432061 3.8611388
1.1283698 1.322224 -0.15373436 -2.8742015 0.73026216 0.8492542 0.9744641 0.032459497
0.03801115 -0.0834144 -0.07627167 0.91936755 0.86799514 0.034035757 0.112212494 0.06506215
0.013691485 1.1595886 0.068178184 -3.2398953 2.9463582 5.170703e-06 0.99927634 0.9849787
-0.55302405 0.04599829 0.003134305 -0.6469096 0.95584756 1.0065528 0.011668091 -0.119399026
0.030860096 -2.7362192 0.1690686 -0.08461883 0.14983515 -1.5653229 1.2614118 1.0359457
-0.077660844 0.7059464 1.077284 -0.022541493 1.1502012 -2.0095878 0.068890184 -7.268126
-0.09374519 0.01911134 -5.5280294 0.082977414 -0.07628523 -1.785909 0.042189002 1.0383718
-0.12816736 -1.3767984 1.3759123 0.7406476 -0.07391583 0.028494276 1.1219904 1.3887144
1.0580082 0.9585536 -0.035098277 1.0278503 1.2413163 2.8123343 1.056824 -0.028890222
-0.07815128 0.056389958 0.050972357 0.8406992 1.1516644 -0.08587049 0.077471286 0.10370467
-0.05267811 0.7078225 0.051184505 -0.0731438 0.18869108 -0.029504031 0.6614517 0.87752116
-0.97448504 -0.07700081 0.021536622 -0.48649123 1.1117656 0.70808554 0.0212934 -0.027400991
-0.007796645 -0.88929224 1.2687953 -0.0346191 0.040729072 0.3410437 0.96842843 0.9145432
-0.008786449 1.1855372 1.1228396 0.123057574 0.94256836 1.5354582 0.113683484 -0.7827768
-0.092022285 0.10499227 1.1317147 -0.011917292 0.047487333 0.20851897 -0.06507717 1.2318006
-0.07189576 3.9255428 3.3404167 -4.695203 3.6869323 0.052813962 0.8186733 -1.889781
0.52699053 1.0469881 -0.0074337893 -4.19656 1.1040566 -1.391301 1.3161736 -0.004858941
-0.028153673 0.047709495 -0.04083602 1.4053817 0.8828705 -0.013357595 -0.050936386 0.042762175
0.04238957 0.6957893 -0.019104214 -4.4429517 -5.312425 -0.075354025 1.1272515 1.2988049
-5.4936023 0.122988924 0.023214972 -1.6304551 0.96781605 1.3234771 0.05351821 -0.11085752
-0.10302745 2.8861732 1.3086301 0.0068263123 -0.0072387834 1.9578773 0.80531347 1.1641773
0.112292856 1.0306063 0.50021356 -0.118586615 0.7766029 -4.004985 0.03840692 4.385784
-0.00049474835 0.038417146 5.7345448 -0.065080985 -0.07300915 1.1059383 -0.005910605 1.0523856

net.4.bias f4 [5]
00000000: ee75 e63f 73b9 633f 9208 f03f 0288 c2bd
00000010: 2f85 2a3f
1.8004739 0.8895485 1.8752615 -0.09498598 0.6660947
