dqn_agent_best.pth (torch, 22633 bytes, 6 tensors)

net.0.weight f4 [64, 5]
2.1567574 1.4333171 -0.24585722 -0.3753086 -0.010488868 -0.1560142 -0.021586686 -0.17494461
-0.35139793 -0.23755343 0.35130635 0.34983703 0.6504352 1.2895683 -0.38623473 1.3282504
0.9306471 -0.30354917 -0.38867176 0.2078014 -0.3890094 -0.3439706 -0.44652918 -0.11630401
0.24873203 -0.1341472 -0.37180424 -0.19461375 -0.35210943 -0.023678571 -1.438732 -2.2940361
0.74390554 0.9059473 -0.3930279 1.5853674 0.5921883 0.8177236 0.67511106 0.41836023
-0.037556976 -1.1681507 0.7315975 0.8377559 -0.013856709 -0.6982716 -0.7160979 0.91414475
0.8693263 -0.33996862 0.96502906 0.62801 -0.31866324 -0.24879022 -0.293198 -1.7449495
-0.6511003 -0.22857979 0.065141 0.24716336 0.6326052 0.43862978 -0.11105857 -0.31146085
0.16397995 -0.5326106 -0.4784343 -0.049707353 -0.46545503 -0.37230605 0.14258021 -0.08043435
-0.07587126 -0.15660542 0.43558276 -2.1135588 -1.7779586 1.0479085 -1.315174 0.25016564
-0.8343929 -1.4245483 1.0250528 0.31281194 -0.3343975 0.04213804 -0.31508622 0.16027743
-0.12268433 0.20922303 0.36466488 0.5165166 -0.07757581 -0.2944895 0.356803 -0.06867275
-0.08541325 0.30833268 0.037794173 0.011813253 -1.6216779 -3.4892151 0.94274694 1.1695007
-0.007787138 1.4560065 0.8716369 -0.08944187 -0.6247428 -0.18028519 0.47782943 0.15245698
0.8897764 0.9286637 -0.17424273 -2.2491724 -0.34457532 0.4847714 0.77831155 -0.017867625
1.6992272 0.8481976 -0.237208 -0.3133179 -0.16664127 1.163834 0.44560903 -0.35024786
0.15899742 0.44560802 3.2054725 1.7527795 -0.4594785 -0.9617607 -0.2898658 2.9716144
1.1818482 -0.45872456 -1.0462532 -0.13235176 1.9192619 0.7656034 0.76908445 0.69059837
0.07150978 0.8056585 0.4343342 -0.39006534 -0.07490188 0.19266164 -4.2169023 0.071425565
0.6476565 -0.6695976 -0.274394 -0.044690706 0.08830561 -0.22292292 -0.26642907 0.26337695
1.8331946 0.6556138 0.77622634 0.6632439 0.2862227 0.2463893 1.8300453 -1.4474782
0.5401591 -0.29604757 -0.17793748 0.3767603 -0.057154 -0.08132136 0.2055015 -5.070623
-0.9004166 0.67487925 0.5290005 0.12927705 -0.7233044 0.1989738 0.6858413 0.77404815
-0.25099733 -2.671781 0.34309042 -0.48150244 -0.0036297434 0.37899148 4.4056597 -1.3697615
0.003602192 1.1656661 0.41120607 -2.730652 -1.4983585 0.24305025 0.69776684 -0.027693987
0.08460653 -0.20946813 -0.216864 -0.33531764 0.42426395 -1.8480079 -2.0527837 0.41716272
0.7717878 -0.31552142 2.3886342 1.4610186 -0.117014915 -0.18408035 -0.10814512 -0.9367564
-0.6246229 0.59452164 0.76161104 -0.1949631 0.03498502 -0.0984485 0.881991 0.9934924
-0.22748534 0.89594096 2.1337337 -0.2211032 -0.36021787 -0.05694267 0.7668732 0.26112115
-0.23965143 -0.12126114 0.08901417 -1.7733376 -3.7832236 0.9999997 1.2645392 0.42043412
-0.80494356 -0.9590014 -0.88484436 -0.83874637 0.081112444 1.5484663 0.9508763 -0.36980218
-0.37273848 0.042963445 -1.0468515 -1.4353371 0.98894614 0.3186402 0.22721738 0.752963
00000000: 5008 0a40 ef76 b73f ffc1 7bbe 7328 c0be
00000010: 80d9 2bbc 30c2 1fbe 90d6 b0bc ae24 33be
00000020: 6eea b3be 3541 73be 6dde b33e d71d b33e
00000030: ec82 263f 9310 a53f 8fc0 c5be 1c04 aa3f
00000040: e33e 6e3f cc6a 9bbe fcff c6be e4c9 543e
00000050: 3d2c c7be ea1c b0be 799f e4be cc30 eebd
00000060: 9cb3 7e3e e25d 09be 205d bebe d448 47be
00000070: b047 b4be 90f9 c1bc 5f28 b8bf 7dd1 12c0
00000080: 9870 3e3f 2aec 673f f43a c9be 52ed ca3f
00000090: a799 173f 5556 513f 14d4 2c3f 5033 d63e
000000a0: 58d5 19bd f685 95bf f949 3b3f 2c77 563f
000000b0: 4007 63bc edc1 32bf 3152 37bf 6405 6a3f
000000c0: 2b8c 5e3f 5e10 aebe 250c 773f 43c5 203f
000000d0: d427 a3be ddc2 7ebe 0c1e 96be 815a dfbf
000000e0: 82ae 26bf d210 6abe a568 853d 6418 7d3e
000000f0: 6af2 213f 1594 e03e ad72 e3bd cc77 9fbe
00000100: 5cea 273e 2b59 08bf 57f5 f4be f099 4bbd
00000110: 1f50 eebe e69e bebe 8c00 123e c4ba a4bd
00000120: 6462 9bbd 2c5d 20be b404 df3e 8c44 07c0
00000130: 2694 e3bf de21 863f 9f57 a8bf b615 803e
00000140: c69a 55bf 9957 b6bf ee34 833f e328 a03e
00000150: 2636 abbe f098 2c3d fb52 a1be c41f 243e
00000160: ec41 fbbd 903e 563e 5bb5 ba3e 6f3a 043f
00000170: 11e0 9ebd 54c7 96be e2ae b63e 4ca4 8cbd
00000180: 24ed aebd c8dd 9d3e 10ce 1a3d 608c 413c
00000190: 2493 cfbf 4d4f 5fc0 dd57 713f 33b2 953f
000001a0: 402b ffbb 6c5e ba3f 9923 5f3f 4d2d b7bd
000001b0: 25ef 1fbf ae9c 38be 0fa6 f43e af1d 1c3e
000001c0: 63c8 633f e7bc 6d3f b06c 32be 71f2 0fc0
000001d0: 2d6c b0be f533 f83e 6d3f 473f 205f 92bc
000001e0: 4780 d93f 7a23 593f a7e6 72be 346b a0be
000001f0: 02a4 2abe 83f8 943f de26 e43e b053 b3be
00000200: 38d0 223e bc26 e43e 7626 4d40 145b e03f
00000210: c440 ebbe f335 76bf 4a69 94be ee2e 3e40
00000220: cd46 973f f2dd eabe a0eb 85bf 3887 07be
00000230: 60aa f53f 96fe 433f b8e2 443f 0ecb 303f
00000240: b873 923d a33f 4e3f 0d61 de3e a5b6 c7be
00000250: 2866 99bd 1849 453e ddf0 86c0 9147 923d
00000260: d1cc 253f c06a 2bbf 5f7d 8cbe 9a0d 37bd
00000270: 92d9 b43d e845 64be 6469 88be 58d9 863e
00000280: 1fa6 ea3f 4ed6 273f c5b6 463f 5aca 293f
00000290: c88b 923e 7a4d 7c3e ed3e ea3f f746 b9bf
000002a0: de47 0a3f 8c93 97be 3e35 36be bae6 c03e
000002b0: 501a 6abd d08b a6bd fc6e 523e 8b42 a2c0
000002c0: b481 66bf e3c4 2c3f 946c 073f 3461 043e
000002d0: 7a2a 39bf cabf 4b3e 4c93 2f3f 0528 463f
000002e0: b982 80be 76fe 2ac0 8ca9 af3e 7d87 f6be
000002f0: fde0 6dbb 2c0b c23e 2afb 8c40 5854 afbf
00000300: c112 6c3b 8c34 953f 9a89 d23e 01c3 2ec0
00000310: 36ca bfbf 2ae2 783e d9a0 323f 80de e2bc
00000320: 3046 ad3d d07e 56be 9911 5ebe c1ae abbe
00000330: 2039 d93e 868b ecbf cf60 03c0 5a96 d53e
00000340: e393 453f 068c a1be 62df 1840 a802 bb3f
00000350: 84a5 efbd 8f7f 3cbe 307b ddbd 44cf 6fbf
00000360: 49e7 1fbf 9232 183f f1f8 423f 68a4 47be
00000370: 744c 0f3d 5e9f c9bd 2aca 613f 8555 7e3f
00000380: ebf1 68be 635c 653f 188f 0840 e168 62be
00000390: 7a6e b8be b83c 69bd cd51 443f acb1 853e
000003a0: 2f67 75be c357 f8bd 104d b63d bafc e2bf
000003b0: 5620 72c0 fbff 7f3f 6cdc a13f 2443 d73e
000003c0: c810 4ebf 1e81 75bf 2985 62bf 15b8 56bf
000003d0: 481e a63d 2534 c63f a16c 733f b656 bdbe
000003e0: 94d7 bebe 70fa 2f3d 3bff 85bf 20b9 b7bf
000003f0: 932b 7d3f cf24 a33e acab 683e 2fc2 403f

net.0.bias f4 [64]
0.9056017 -0.392961 -0.2673025 1.1819625 -0.38544828 -0.1876632 0.40848222 -0.5445494
0.4801146 0.97972697 1.1873131 1.5416323 1.1099597 1.3687518 -0.39830333 0.6431382
1.331212 -0.2574675 1.1787878 -0.38816094 -0.05370807 1.2632859 -0.090159826 -0.096533954
1.0813098 1.0893345 0.59954506 0.6966605 -0.40599248 1.1079024 -0.04846251 1.2295456
-0.28541744 -0.5388631 -0.39100105 -0.07207642 0.2958736 1.1850235 -0.2157145 1.1067319
-0.2070683 1.0927546 0.7362895 0.94619274 -0.068262376 -0.61109245 1.058186 -0.049220502
0.9545488 1.1997936 0.99721193 -0.31644762 -0.05512345 0.92360616 -0.13220291 0.54250777
1.1407421 -0.13477421 -0.40945026 0.8901014 -0.26981854 0.95963615 -0.87984395 1.3951149
00000000: 83d5 673f 2f32 c9be e0db 88be 8c4a 973f
00000010: 7a59 c5be c82a 40be 9524 d13e 9767 0bbf
00000020: 95d1 f53e 63cf 7a3f e0f9 973f 3554 c53f
00000030: 2913 8e3f 4233 af3f 6aee cbbe b4a4 243f
00000040: 2865 aa3f c8d2 83be 85e2 963f 08bd c6be
00000050: fefc 5bbd 5ab3 a13f b7a5 b8bd 98b3 c5bd
00000060: 5c68 8a3f 506f 8b3f c97b 193f 5858 323f
00000070: 3fde cfbe bfcf 8d3f a080 46bd c061 9d3f
00000080: 3c22 92be eff2 09bf 4a31 c8be cd9c 93bd
00000090: bf7c 973e daae 973f 43e4 5cbe 64a9 8d3f
000000a0: b609 54be 62df 8b3f 787d 3c3f b039 723f
000000b0: 25cd 8bbd 8e70 1cbf a472 873f 709b 49bd
000000c0: 4f5d 743f d692 993f 4849 7f3f 6c05 a2be
000000d0: 20c9 61bd 7471 6c3f 3360 07be cae1 0a3f
000000e0: d603 923f 4002 0abe 77a3 d1be afdd 633f
000000f0: a825 8abe b7aa 753f 743d 61bf 2093 b23f

net.2.weight f4 [64, 64]
-0.008124605 -0.09532356 -0.15451962 -0.010718374 -0.051030904 0.07195029 -0.05749976 0.06661612
0.07148177 -0.017994007 -0.041326858 0.012270683 -0.092752464 0.047260206 -0.07822235 -0.052066885
0.043329507 0.012264237 -0.107778445 0.11574659 0.073310554 -0.04105234 -0.028610697 -0.040864892
-0.085980415 -0.09558787 -0.103150964 -0.0031220585 0.03673473 -0.10343216 -0.07798414 0.010526168
-0.038312927 -0.0648153 0.028268367 -0.10476337 -0.09710044 -0.05683676 -0.022707012 -0.08417319
0.08842285 0.09340865 0.015524001 -0.15028186 -0.09431064 -0.087701425 -0.12456167 -0.11262521
0.018184347 0.009469077 -0.01853111 0.04978992 -0.086413905 -0.1614064 -0.007285676 -0.008787326
0.04272972 -0.113710284 0.0697068 0.005820945 0.08741163 -0.045431316 0.08131954 -0.057870056
-2.557111 0.062126517 -0.15740767 -1.7443362 -0.114392176 0.0060189664 1.144538 -0.8655594
0.59516174 0.5250456 -1.2754309 1.3974279 -0.8996128 0.35183463 -0.09689723 1.8348454
0.8135923 -0.052846596 -0.46460938 0.04327716 3.0046086 -1.0958904 -0.05808451 0.8927764
-1.8273718 -1.0750761 -3.9408114 -3.409859 -1.0051837 -0.93997055 2.2633927 -0.39550546
-0.862457 -1.814015 0.045109257 2.734965 0.46451515 1.3611368 -2.5141163 1.539574
-0.11614899 1.305879 -2.5844178 0.7512376 0.3337726 0.7168267 -0.82885355 3.188496
1.8946198 -1.7735244 0.94098926 -0.13467465 -0.076674655 0.88290155 0.7772482 2.03467
-0.12614475 -1.0653737 -0.27451965 -0.65418196 0.06627244 -1.6330533 -0.11398977 0.57332706
-2.4151921 0.12239744 -0.3124796 -1.5472846 0.009951115 -0.06456576 1.1259137 -0.9810279
0.5503453 0.5449203 -1.1013103 1.1726884 -0.7620333 0.41472778 0.02433145 1.5579274
0.8692039 -0.05968845 -0.34850925 0.09608239 2.8912795 -0.9945545 -0.22171576 0.74179995
-1.7322516 -0.9030278 -3.8048992 -3.1886187 -1.0621955 -0.76470226 2.2248738 -0.41280764
-0.849176 -1.6668799 0.095100254 2.4134731 0.4986333 1.1787599 -2.339061 1.3829697
-0.1098586 1.1357694 -2.5030367 0.7228282 0.0752207 0.28449288 -0.7965803 3.1198244
1.7970433 -1.5074606 0.7756739 -0.063255094 -0.030792356 0.72438765 0.5906793 1.9153277
0.024681017 -0.78972274 -0.41388553 -0.34154567 0.007881761 -2.0996857 -0.362542 0.62615323
-0.649981 0.07055594 0.810914 -0.5254553 0.10601321 0.03863913 0.79664636 1.015993
0.8529916 0.7291573 -0.34397233 0.33592626 -0.39233303 -0.07063327 0.11410004 0.29265398
0.44205353 -0.022223115 0.01821404 0.0080567 3.0644956 -0.10404492 0.7828563 0.2521785
-0.43765417 -0.0053145476 -0.9030085 -0.5889035 0.86019176 -0.19021417 -0.43723667 -0.35706717
1.004488 -2.6594977 0.01152347 -0.23049653 0.47329506 -1.4778306 0.90073526 0.2902044
-0.040614456 0.46238542 -0.6295959 0.49056274 0.72705853 4.489737 -0.13635543 3.0784454
-2.7533512 -0.59219676 0.56267416 2.1370351 -0.06319012 0.5456699 0.5032146 -0.22884226
-0.2679345 -1.6650535 0.79760313 0.22933568 0.0206362 -1.817897 4.768874 0.39097056
00000000: 101d 05bc 0039 c3bd 643a 1ebe 1e9c 2fbc
00000010: c805 51bd ac5a 933d de84 6bbd 086e 883d
00000020: 0965 923d 2b68 93bc 5a46 29bd fa0a 493c
00000030: 01f5 bdbd eb93 413d 0a33 a0bd 1644 55bd
00000040: 487a 313d f0ef 483c f2ba dcbd 8c0c ed3d
00000050: d823 963d 8026 28bd fb60 eabc f261 27bd
00000060: 8016 b0bd 93c3 c3bd d040 d3bd 739b 4cbb
00000070: 2877 163d 3ed4 d3bd 26b6 9fbd f375 2c3c
00000080: 04ee 1cbd e2bd 84bd 1093 e73c 2d8e d6bd
00000090: 98dc c6bd aacd 68bd 0e04 babc fe62 acbd
000000a0: 0a17 b53d 094d bf3d 6158 7e3c 7de3 19be
000000b0: f025 c1bd ce9c b3bd 301a ffbd 0ca8 e6bd
000000c0: 57f7 943c 3024 1b3c 8ece 97bc 84f0 4b3d
000000d0: c6f9 b0bd b847 25be aebc eebb b7f8 0fbc
000000e0: 5c05 2f3d f0e0 e8bd 70c2 8e3d a0bd be3b
000000f0: de04 b33d 3016 3abd dc8a a63d 2709 6dbd
00000100: b5a7 23c0 6078 7e3d 7a2f 21be 6946 dfbf
00000110: 7246 eabd c03a c53b 3980 923f 4d95 5dbf
00000120: 855c 183f 6369 063f 5241 a3bf ebde b23f
00000130: 064d 66bf ab23 b43e 0e72 c6bd 37dc ea3f
00000140: 9647 503f ac75 58bd 48e1 edbe 6443 313d
00000150: 824b 4040 2346 8cbf 06ea 6dbd ff8c 643f
00000160: 52e7 e9bf 189c 89bf 4136 7cc0 213b 5ac0
00000170: dca9 80bf e9a1 70bf 6ddb 1040 b17f cabe
00000180: fbc9 5cbf a531 e8bf 7cc4 383d ab09 2f40
00000190: eed4 ed3e bb39 ae3f 48e7 20c0 c310 c53f
000001a0: 86df edbd 0b27 a73f 1a67 25c0 1b51 403f
000001b0: 3ee4 aa3e f481 373f bf2f 54bf 5210 4c40
000001c0: e782 f23f d902 e3bf ace4 703f 27e8 09be
000001d0: 9a07 9dbd d605 623f bdf9 463f 0938 0240
000001e0: 172c 01be 2a5e 88bf d78d 8cbe 7878 27bf
000001f0: d8b9 873d e407 d1bf 7873 e9bd 90c5 123f
00000200: 8292 1ac0 82ab fa3d 53fd 9fbe 6c0d c6bf
00000210: 000a 233c 0e3b 84bd f11d 903f a524 7bbf
00000220: 6ee3 0c3f e67f 0b3f bcf7 8cbf a71a 963f
00000230: 9d14 43bf 3357 d43e c052 c73c 2a6a c73f
00000240: 2684 5e3f e07b 74bd ce6f b2be d8c6 c43d
00000250: b90a 3940 209b 7ebf 7509 63be 9ae6 3d3f
00000260: 6cba ddbf d42c 67bf 7883 73c0 5412 4cc0
00000270: 06f6 87bf 87c3 43bf 5564 0e40 865b d3be
00000280: 9963 59bf 525c d5bf ecc3 c23d 5876 1a40
00000290: dd4c ff3e 9be1 963f 2db3 15c0 2705 b13f
000002a0: 8cfd e0bd e460 913f c131 20c0 450b 393f
000002b0: 4f0d 9a3d 0da9 913e b0ec 4bbf 34ab 4740
000002c0: 8405 e63f 78f4 c0bf 9192 463f e38b 81bd
000002d0: 4040 fcbc 7871 393f c236 173f 7529 f53f
000002e0: d82f ca3c 452b 4abf cee8 d3be 13df aebe
000002f0: 8022 013c 4061 06c0 1b9f b9be 944b 203f
00000300: 2865 26bf a27f 903d 0f98 4f3f 3d84 06bf
00000310: 741d d93d 1044 1e3d 04f1 4b3f 0f0c 823f
00000320: a85d 5a3f 0eaa 3a3f 241d b0be 87fe ab3e
00000330: e0df c8be 2da8 90bd 48ad e93d bed6 953e
00000340: d754 e23e 400d b6bc 9c35 953c 4000 043c
00000350: b220 4440 8115 d5bd 4569 483f 8a1d 813e
00000360: 3514 e0be a825 aebb 912b 67bf 61c2 16bf
00000370: 8735 5c3f 81c7 42be 7cdd dfbe 82d1 b6be
00000380: 1093 803f 3635 2ac0 f0cc 3c3c 4807 6cbe
00000390: bb53 f23e 8e29 bdbf 9696 663f ac95 943e
000003a0: 585b 26bd c8bd ec3e 322d 21bf 0a2b fb3e
000003b0: 8220 3a3f edab 8f40 c2a0 0bbe 4005 4540
000003c0: e836 30c0 359a 17bf 6a0b 103f 2fc5 0840
000003d0: d269 81bd 06b1 0b3f acd2 003f a055 6abe
000003e0: b62e 89be 7920 d5bf b82f 4c3f f9d6 6a3e
000003f0: 400d a93c d9b0 e8bf 9e9a 9840 4b2d c83e

net.2.bias f4 [64]
-0.044315904 0.1070977 0.085774444 0.2929423 -0.02952714 -0.047820188 0.9557233 0.25503194
0.6683809 0.7907181 -0.06459367 0.46136922 0.95100534 0.27330747 0.85318446 -0.034873962
-0.00052160653 -0.056511223 -0.11849096 0.7232695 0.90422255 0.030819044 -0.12721388 -0.025243219
-0.13509633 0.7148966 -0.15291156 0.46023613 0.20964485 -0.11337662 0.75660336 0.86624277
0.30541316 -0.11044441 -0.140294 -0.07259939 0.96671003 0.8020428 0.09677809 -0.04548697
-0.12835175 -0.034276668 0.7628302 -0.09416985 -0.11304228 0.10121636 0.79638433 0.67531204
-0.12773605 0.86455417 0.6856819 0.08913773 1.0728722 0.5025156 -0.090181775 -0.07075626
-0.12644508 -0.09491752 0.05301603 -0.11052307 -0.09151958 -0.21258648 -0.018027633 1.098746
00000000: 9884 35bd 0a56 db3d 83aa af3d 88fc 953e
00000010: e7e2 f1bc 1adf 43bd 48aa 743f 8c93 823e
00000020: 031b 2b3f 806c 4a3f b049 84bd 9638 ec3e
00000030: 1675 733f f5ee 8b3e 4c6a 5a3f 00d8 0ebd
00000040: 6cbc 08ba 5078 67bd 63ab f2bd 3128 393f
00000050: 217b 673f 3878 fc3c 5b44 02be deca cebc
00000060: b156 0abe 7703 373f d994 1cbe 12a4 eb3e
00000070: 24ad 563e 0032 e8bd c2b0 413f 16c2 5d3f
00000080: 1d5f 9c3e ae30 e2bd 3ba9 0fbe fdae 94bd
00000090: 4f7a 773f ad52 4d3f 9733 c63d 8c50 3abd
000000a0: a46e 03be b165 0cbd d748 433f 1fdc c0bd
000000b0: b682 e7bd 864a cf3d d8df 4b3f 40e1 2c3f
000000c0: 3dcd 02be 6c53 5d3f d988 2f3f d88d b63d
000000d0: e053 893f dda4 003f 39b1 b8bd a8e8 90bd
000000e0: d27a 01be 1e64 c2bd 5627 593d eb59 e2bd
000000f0: 9e6e bbbd 45b0 59be b0ae 93bc b5a3 8c3f

net.4.weight f4 [5, 64]
0.092270404 -0.36390477 -0.2716739 0.25229132 0.37795094 0.06440726 0.82660383 0.9368961
0.40671057 0.70541674 0.027597485 0.24128217 0.7050698 0.4666877 0.763693 0.056610256
-0.040432125 -0.09791003 0.044720013 0.8610974 1.0181518 0.005303636 -0.052119777 0.043338154
0.08326176 0.62418395 0.09736633 0.39303043 0.40656224 0.038802087 0.57207215 0.69273096
0.40549827 0.03451872 -0.079097584 0.16887447 0.9449343 0.7741386 0.069938354 -0.052038386
-0.042113617 -0.38462263 0.81973815 -0.026407633 -0.049523227 -0.20069611 0.70493686 0.64851815
-0.0025037378 0.5856012 0.26423308 -0.013667658 0.97529167 0.49334842 -0.041757595 0.8049204
0.0026193557 -0.038684122 -0.21961269 0.092774406 -0.01380986 -0.54812235 -0.0028214604 0.94038874
0.025302736 -4.7502456 -4.5299287 -0.8216471 -4.4888806 0.020060813 1.0096484 -0.9738898
0.9034406 1.0301843 -0.15373436 -0.752174 0.36801293 -0.54424226 0.67128384 0.032459497
0.03801115 -0.10969378 -0.07627167 0.75587845 0.6477651 0.034035757 0.112212494 0.06506215
0.013691485 1.2267004 0.068178184 -0.82190776 -0.91618747 5.170703e-06 0.7554729 0.73175925
-1.0860924 0.04599829 0.003134305 0.90448195 0.7034501 0.8011052 0.011668091 -0.119399026
0.030860096 -4.3879066 -0.18789966 -0.08461883 0.14983515 -4.124494 0.9910982 0.79967564
-0.077660844 0.35952228 0.5540476 -0.022541493 1.0381277 -0.88829994 0.068890184 -4.9999857
-0.09374519 0.01911134 -5.1951823 0.10326479 -0.07628523 -0.38046196 0.042189002 0.76083124
-0.12816736 -0.18408956 0.10850706 0.78588474 -0.2048074 0.028494276 0.8358875 0.044049658
0.7908103 0.72582626 -0.038579423 0.7155191 0.9061081 0.8306465 0.78017056 -0.028890222
-0.07815128 0.09154011 0.050972357 0.6122412 0.8029032 -0.08587049 0.077471286 0.10370467
-0.05267811 0.5519549 0.051184505 0.68656844 0.52572924 -0.029504031 0.49408776 0.6686099
-0.32325864 -0.07700081 0.021536622 0.5617769 0.8112378 0.50976557 0.0212934 0.000258103
-0.007796645 -0.051961854 0.7920989 -0.0346191 0.040729072 0.21163073 0.72766215 0.6833493
-0.008786449 0.82717973 0.858094 0.123057574 0.6939567 0.74314785 0.113683484 -0.25433344
-0.092022285 0.10499227 0.14608741 -0.057787985 0.047487333 -0.71346533 -0.06507717 0.9144753
-0.07189576 1.7653123 1.5599583 -1.363791 2.0675657 0.052813962 0.52029544 -0.8903165
0.498624 0.8560137 -0.0074337893 -1.3767681 0.8611305 -0.25477025 1.0709057 -0.004858941
-0.028153673 0.050178662 -0.04083602 1.0382303 0.504137 -0.013357595 -0.050936386 0.042762175
0.04238957 0.3753688 -0.019104214 -1.2681764 -1.1644444 -0.075354025 1.0224718 1.055174
-0.5603938 0.122988924 0.023214972 -1.356595 0.6079436 1.0454308 0.05351821 -0.11085752
-0.10302745 1.4721981 0.51203465 0.0068263123 -0.0072387834 1.345463 0.60105467 0.92266893
0.112292856 0.9075321 0.7857945 -0.118586615 0.33275837 -1.1695409 0.03840692 2.4550166
-0.00049474835 0.038417146 1.8590258 -0.10181032 -0.07300915 0.72341776 -0.005910605 0.6723491
00000000: 44f8 bc3d ba51 babe d718 8bbe 542c 813e
00000010: c982 c13e f4e7 833d 4f9c 533f 6cd8 6f3f
00000020: 5e3c d03e 3196 343f 1f14 e23c ac12 773e
00000030: 747f 343f b1f1 ee3e 6281 433f 28e0 673d
00000040: 289c 25bd 0e85 c8bd 552c 373d e170 5c3f
00000050: cc52 823f 20ca ad3b 8c7b 55bd 5983 313d
00000060: 2485 aa3d 85ca 1f3f 0068 c73d 493b c93e
00000070: ed28 d03e f0ee 1e3d 5273 123f d156 313f
00000080: 789d cf3e 8063 0d3d eafd a1bd 6eed 2c3e
00000090: 37e7 713f f32d 463f d73b 8f3d 3426 55bd
000000a0: 547f 2cbd 42ed c4be 5cda 513f d254 d8bc
000000b0: ded8 4abd 4883 4dbe be76 343f 4905 263f
000000c0: c015 24bb f6e9 153f 8f49 873e 50ee 5fbc
000000d0: b7ac 793f 2a98 fc3e 030a 2bbd 430f 4e3f
000000e0: 7fa9 2b3b 3e73 1ebd 26e2 60be 8200 be3d
000000f0: c042 62bc bf51 0cbf 40e8 38bb 51bd 703f
00000100: af47 cf3c 0302 98c0 2df5 90c0 7757 52bf
00000110: e9a4 8fc0 9356 a43c 293c 813f d850 79bf
00000120: e247 673f 14dd 833f 8a6c 1dbe 7a8e 40bf
00000130: 316c bc3e 7653 0bbf 42d9 2b3f 40f4 043d
00000140: 94b1 1b3d 22a7 e0bd 5234 9cbd 4081 413f
00000150: efd3 253f 1469 0b3d aacf e53d 4e3f 853d
00000160: 4052 603c 8504 9d3f 01a1 8b3d 8c68 52bf
00000170: 438b 6abf 0080 ad36 ac66 413f 9354 3b3f
00000180: 1305 8bbf b468 3c3d e968 4d3b 218c 673f
00000190: 4e15 343f 3b15 4d3f 852b 3f3c 7a87 f4bd
000001a0: 50ce fc3c bb69 8cc0 c568 40be a34c adbd
000001b0: 636e 193e dbfb 83c0 9db8 7d3f 8bb7 4c3f
000001c0: a60c 9fbd 4e13 b83e 10d6 0d3f f0a8 b8bc
000001d0: 5ee1 843f a067 63bf 4c16 8d3d e2ff 9fc0
000001e0: 7afd bfbd 638f 9c3c ef3e a6c0 7d7c d33d
000001f0: 6e3b 9cbd e9cb c2be 60ce 2c3d d6c5 423f
00000200: 4e3e 03be f981 3cbe f338 de3d be2f 493f
00000210: 08b9 51be d46c e93c b9fc 553f 6a6d 343d
00000220: 8b72 4a3f c0cf 393f 7505 1ebd 422c 373f
00000230: b3f6 673f 40a5 543f 42b9 473f 30ab ecbc
00000240: c70d a0bd 6279 bb3d 64c8 503d d7bb 1c3f
00000250: 108b 4d3f dedc afbd 44a9 9e3d 1d63 d43d
00000260: 00c5 57bd eb4c 0d3f d8a6 513d f3c2 2f3f
00000270: 3196 063f 70b2 f1bc 12f9 fc3e 052a 2b3f
00000280: 2882 a5be 9ab2 9dbd 926d b03c 9cd0 0f3f
00000290: 48ad 4f3f ff7f 023f 7f6f ae3c 0052 8739
000002a0: 007b ffbb f4d5 54bd fec6 4a3f c2cc 0dbd
000002b0: 87d3 263d bab5 583e 1148 3a3f fbef 2e3f
000002c0: 0af5 0fbc 0dc2 533f 0cac 5b3f 9c05 fc3d
000002d0: 25a7 313f f03e 3e3f e3d2 e83d fe37 82be
000002e0: 2e76 bcbd 3006 d73d f097 153e 18b3 6cbd
000002f0: 1482 423d aaa5 36bf 2e47 85bd 0e1b 6a3f
00000300: 163e 93bd c1f5 e13f b7ac c73f b490 aebf
00000310: ff52 0440 7453 583d 1532 053f c8eb 63bf
00000320: a54b ff3e b723 5b3f 2597 f3bb f039 b0bf
00000330: 0c73 5c3f 3f71 82be 7013 893f c037 9fbb
00000340: 88a2 e6bc 2488 4d3d ac43 27bd bbe4 843f
00000350: 1f0f 013f d0d9 5abc aca2 50bd 6427 2f3d
00000360: b0a0 2d3d 5730 c03e 7180 9cbc 9b53 a2bf
00000370: 840c 95bf 3653 9abd 5be0 823f f10f 873f
00000380: f875 0fbf 9ee1 fb3d 532d be3c e8a4 adbf
00000390: 31a2 1b3f add0 853f e935 5b3d 4409 e3bd
000003a0: 0e00 d3bd fd70 bc3f b414 033f 42af df3b
000003b0: 5133 edbb 2238 ac3f b8de 193f 0834 6c3f
000003c0: ccf9 e53d 0654 683f d429 493f 8add f2bd
000003d0: 4e5f aa3e 84b3 95bf 9350 1d3d fe1e 1d40
000003e0: 00b2 01ba 4c5b 1d3d 8ff4 ed3f ee81 d0bd
000003f0: d285 95bd e831 393f c0ad c1bb 121f 2c3f

net.4.bias f4 [5]
0.7194825 0.26716715 0.90488803 -0.13802427 0.4151549
00000000: 0130 383f 22ca 883e bea6 673f 3c56 0dbe
00000010: 2f8f d43e
