dqn_agent1.pth (torch, 308725 bytes, 24 tensors)

net.0.weight f4 [128, 7]
00000000: 8937 e2bd 7103 023e d0d6 50be b2d8 7cbe
00000010: 0a94 6a3e 3d20 5c3e b51e 023e bfc3 493e
00000020: 0be8 5d3e 5120 833e 90ee 54bd 5a49 153e
00000030: d5cd c13e 2dbe 64bd 1c44 e23d e259 45bc
00000040: aaeb 753e 92df 1f3e ab40 64be 3fcf 4fbe
00000050: fbd1 173c 29f8 183e 479c cd3c 22e1 503e
00000060: 4dfe bb3e 59be be3e 19ae 47be 3e78 ea3d
00000070: 317c c13d 130a b8be 8ed7 2e3e 63ac a63e
00000080: 0027 5c3b b5f9 c03e 135a 9e3d 04d5 a5be
00000090: 2163 233e b6b2 8fbe d744 84be 4e4d 7c3e
000000a0: cb85 60be cebf e4bd 57a3 ae3d dc7f 03be
000000b0: 141a 00be af72 c03e 0f7f 7ebe ee73 10be
000000c0: 1b86 b43e fc97 d13d 5759 50be 2bda 9e3e
000000d0: 7a20 07be 7cd9 8bbe eca1 b6be 866b 753e
000000e0: 57ec 403e e614 f93c 3afe 84be 3e5e 02be
000000f0: 68f9 aabe 8f9e 923e 469f e1bd 2f26 b7bd
00000100: c7a1 9abe 8ad0 2bbe 6c22 92be 59a3 0dbe
00000110: 6be8 0b3e 1c89 80bd c075 98bc 2382 823e
00000120: aa9a 1a3e c68d 4cbe 88bb cc3d cd9c 63bd
00000130: 7b02 7b3e b16a 7fbe dff9 573e ce23 3e3e
00000140: 60fb d43d b04f 19be 0ba3 3f3d 02b5 babe
00000150: 6b0f 8f3e 8a54 cbbd 03de ab3e 82dd 1e3e
00000160: e6ad 36be 333c 563d cf6c 3ebe c57c 893e
00000170: e35d b0be 5b22 0abe 32b4 64be 50d6 8dbd
00000180: 673f b2be 649f 80be d84e ee3d c4e8 9ebe
00000190: 1d29 36be 9b5e 11be 2f28 ab3e a608 78be
000001a0: 86d7 9cbe a6a3 6c3e 593f 983e f880 c53d
000001b0: 6478 d03d 7c49 f33d 71d2 0dbe 387a 29bd
000001c0: 8357 c83d 9580 51be 5676 4d3e e0d5 8bbe
000001d0: 3f03 27be d085 1bbe f840 7bbe 7737 a33e
000001e0: c301 6c3e 80db 27be 48c0 a7bd be51 00be
000001f0: cdc2 46bd bd0a 8bbe fc35 c4bd d29b 103e
00000200: 002f fbbd 1158 873e 784c 443d 383e 00bd
00000210: c925 53be bf9e a93e 7551 583e 10bf 473d
00000220: 9255 523e f015 c33d cdfc 5bbe a772 2fbe
00000230: 70f5 f7bd 4809 553d fae3 123e bfda ba3e
00000240: 7d70 9b3e 75ab 94be c30b 2bbe e693 513e
00000250: 4e47 80be 5e8f 0c3e b0ce b2bd 003e c33d
00000260: 3a32 bfbe 267f 17be 0452 30be 81fa 663e
00000270: 80a0 c63c 2531 aabe 90b0 823c aff3 243e
00000280: 109d adbe 2345 a2be 5c49 093e 99f4 8fbe
00000290: 9ce1 f1bd e196 bc3e 0615 53be ea5d d03d
000002a0: 80c9 513b dd54 13be 6726 c13e bebe 563e
000002b0: 8089 8d3b 58c5 5f3d a6f0 063e 0712 783e
000002c0: 1978 d53d f86d 4bbd 4efd 88be 64c5 b5be
000002d0: 76ed e7bd b9ae 943d 81fd 283e 3776 cabd
000002e0: 92e0 4abe c857 26be d6a8 373e c57b 203e
000002f0: 68a8 00be b014 cb3d b37a 87be 4cfb 3cbe
00000300: c0ae 38be ec90 f2bd 5c09 c93d f834 143d
00000310: 3e5a 4f3e a04f 9abd 9526 9b3e 4d44 bc3e
00000320: 5864 253d 2127 a2be dea4 0c3e 947c a7be
00000330: 8000 91be 50dd d83d 7df1 ae3e 870b 8a3e
00000340: 394d a53e 1d50 2dbd 0037 c13a 0020 84bd
00000350: ecb0 ec3d 03fc 77be 383c 8bbe 3e7b 693e
00000360: 80dd 95be 016d 813e d0a3 f7bc 70bf 453d
00000370: 80d5 f33d 747b 51be 76db 313e c044 543c
00000380: 9b58 95be 713f c13e b6b5 723e 0e6a 543e
00000390: cbe0 31be b4f7 0ebe c017 c53d 313c a13e
000003a0: 5d17 66be 6069 e73d 2c5c ed3d 1e99 463e
000003b0: cdf5 b0be e8d6 923d 3153 6b3e 794d 313e
000003c0: 803f 153c 00fc 04bd ec87 1fbe a2ec de3d
000003d0: 85ba 303e 992f a1be fcc0 a7be b046 e5bc
000003e0: a515 813e 9259 3f3e 18d6 693d 172b 53be
000003f0: e3b8 79be 115f bd3e 9615 01be 4dde bc3e
-0.11045749 0.12696625 -0.20394444 -0.24692038 0.22908035 0.21496673 0.12707026 0.19703577
0.21670549 0.25610593 -0.051985323 0.14578763 0.3785235 -0.05584543 0.11048147 -0.0120453555
0.2401568 0.15612629 -0.22290294 -0.20293902 0.009266372 0.14938416 0.025098933 0.20398381
0.36717454 0.372546 -0.19500007 0.114487156 0.09447516 -0.35945186 0.17074415 0.32553396
0.0033592582 0.3769051 0.07732024 -0.3238908 0.15955783 -0.28066033 -0.2583377 0.24638864
-0.21926038 -0.11169396 0.08527248 -0.12841743 -0.12509948 0.37587497 -0.24853157 -0.14106724
0.35258564 0.10234067 -0.2034658 0.31025824 -0.13195983 -0.27314365 -0.35670412 0.23966798
0.18840156 0.030405473 -0.2597521 -0.12731263 -0.33393407 0.28636596 -0.11016707 -0.0894283
-0.3020155 -0.1677877 -0.28541887 -0.13831843 0.13662879 -0.062761515 -0.018610835 0.2548991
0.15098062 -0.19975957 0.09996706 -0.05556946 0.24512665 -0.24943043 0.21091412 0.18568346
0.103995085 -0.14971805 0.04678635 -0.36466223 0.2794145 -0.09928234 0.3356782 0.15514186
-0.17839774 0.052303504 -0.18596195 0.26853004 -0.3444663 -0.13489668 -0.22334364 -0.069256425
-0.34813997 -0.25121605 0.11636132 -0.3103696 -0.17789121 -0.14196245 0.33429095 -0.24222049
-0.3063318 0.23109302 0.2973583 0.096437395 0.10179213 0.118792504 -0.13849808 -0.041376323
0.097823165 -0.20459206 0.20064673 -0.2731161 -0.16309832 -0.15187764 -0.24536502 0.31878254
0.23047547 -0.16392326 -0.081909716 -0.12531182 -0.04852562 -0.2715663 -0.09580609 0.1412194
-0.12264824 0.26434377 0.04792449 -0.031309336 -0.20619883 0.33128926 0.21124823 0.048766196
0.20540455 0.095256686 -0.21483155 -0.1713358 -0.1210736 0.052010804 0.14344779 0.36495015
0.3035926 -0.2903706 -0.16703705 0.20466575 -0.250544 0.13726565 -0.08730829 0.0953331
-0.37343007 -0.14794597 -0.17218786 0.22556497 0.024246454 -0.3324062 0.015953332 0.16108583
-0.33908892 -0.31693372 0.1340689 -0.281163 -0.1181061 0.3683386 -0.20613489 0.10174163
0.0032010972 -0.14387842 0.3772461 0.209712 0.00431937 0.05463156 0.13177738 0.24225627
0.104232974 -0.04966542 -0.26755756 -0.3550216 -0.11324589 0.07259888 0.16502954 -0.09885829
-0.1981223 -0.16244423 0.179355 0.15672214 -0.12564242 0.09916055 -0.264608 -0.18455237
-0.18035412 -0.11844048 0.09816238 0.036183327 0.20249268 -0.075347185 0.30302873 0.3677086
0.0403789 -0.31670478 0.13734767 -0.32712233 -0.28320694 0.10589087 0.34168616 0.2696192
0.3228548 -0.04231273 0.0014741123 -0.06451416 0.11557183 -0.24217229 -0.2719438 0.2280092
-0.29270554 0.25278476 -0.03022948 0.048278272 0.11905956 -0.2045725 0.17368874 0.012955844
-0.29169163 0.37743714 0.2370213 0.20743582 -0.17370908 -0.13961679 0.096236706 0.31491235
-0.2246985 0.112993956 0.11589846 0.19394347 -0.3456253 0.07169896 0.22980954 0.1731471
0.009109378 -0.03246689 -0.15579194 0.10884978 0.17258652 -0.31481627 -0.32764423 -0.027987808
0.25211826 0.18686512 0.05708894 -0.20621906 -0.24386935 0.36986592 -0.1260589 0.36888352

net.0.bias f4 [128]
00000000: 9d83 3f3d b23c d9bd ac77 3a3e db65 3d3e
00000010: a137 963e be8e 2e3e 7eaf 593d 9365 16be
00000020: c64c 52be e68e a3bd e66d ccbd e383 713e
00000030: 671d 843e a0d8 ee3c d02e d7bc a54a a0be
00000040: d5d7 653e 4737 173e 206b 08bd dd32 603e
00000050: f0d2 a3be 947e 9fbd 3edc d7bd 4c38 91bc
00000060: a001 fabd 037e 323e 9311 0b3c 0f64 b5be
00000070: 6690 74be eb81 fbbd 7a12 a6be 9396 83be
00000080: d17f 8b3e d450 a7bd 65e8 003d 309e a2be
00000090: c38c 843e 5623 223e 97d1 e53c 7818 0f3d
000000a0: 650f 763e 7b7f 5cbe a8b1 95be 4933 8c3c
000000b0: 5f7b 3d3e daa6 b13d 205b 4abe a621 c03b
000000c0: 6090 413d 4777 803e aa7b c2bd e13d 363e
000000d0: c3fe a93e 405f 9fbb 6913 a4be 3b85 983e
000000e0: 295d 4f3e 2d14 553e f3db 8dbe be7b 3d3d
000000f0: 8936 933e 883e 2dbe 710f 763e 2bcf 643e
00000100: 6f29 ba3e 639e 24be ad7e aebe 4093 a83b
00000110: ff1b b0be f85f 5cbe 0e47 92be 9bc9 96be
00000120: f8bb 5fbd 09a4 24be 31fb 4abe d534 0c3e
00000130: b82e 1c3e 3735 903e 03ac 9ebe 265b bbbe
00000140: 0c20 a1bd b0bd d23c 9ec5 f3bd 0849 58be
00000150: c213 ebbd 6622 6bbe 16da 8e3d 253b 493e
00000160: a76c abbe ffc8 af3e 60b5 b8be c914 823e
00000170: 8e79 fdbd 398a 88bc fd61 4e3e a7b7 c03e
00000180: 4311 4abd 83f3 39be 109a 4b3d d89b 11bd
00000190: 078d 4c3e 419c a43e 29d5 923e a9b1 753e
000001a0: 4baf 1c3d f346 ea3d d69a a83d 6f1d 673e
000001b0: e643 8cbe 3bd9 a93e 26a4 113c 2abc 2ebe
000001c0: 3a9e d33d 2e7f b3bd eeb1 8dbe 108e b73c
000001d0: 1e45 32be 55cd 62be 2302 53be 4c4d 91be
000001e0: 5dfa a13e 65e9 af3e 5dd0 e4bd 18f7 adbe
000001f0: 8557 35be 45fc 673e ad13 2d3e 378b adbe
0.046756376 -0.1060728 0.18209714 0.18495886 0.29339316 0.1704664 0.053145878 -0.14687185
-0.20537099 -0.0798624 -0.09981899 0.23585467 0.25803682 0.02915603 -0.02626744 -0.3130695
0.22445615 0.1476718 -0.033305287 0.21894403 -0.3199687 -0.07787815 -0.10540055 -0.01772704
-0.12207341 0.17430882 0.008488077 -0.354279 -0.23883209 -0.12280639 -0.32435971 -0.25700817
0.27245954 -0.081697136 0.03147163 -0.31761312 0.25888643 0.15833792 0.028054042 0.034935445
0.2402931 -0.21533005 -0.29237103 0.017114298 0.18504094 0.086744025 -0.19761324 0.005863386
0.047256827 0.25091 -0.09496243 0.17797042 0.3320218 -0.0048636496 -0.3204606 0.29789147
0.20250382 0.20808478 -0.2770687 0.046260588 0.28752545 -0.16918385 0.24029328 0.22344653
0.36359736 -0.16076045 -0.3408102 0.0051445067 -0.3439636 -0.21520984 -0.28569835 -0.29450688
-0.05462262 -0.160782 -0.19822384 0.13692029 0.15252197 0.281656 -0.3099061 -0.36592978
-0.078674406 0.025725216 -0.11902927 -0.21121609 -0.11478378 -0.2296234 0.0697519 0.19651468
-0.33481333 0.34333035 -0.36075878 0.25406483 -0.123767 -0.016667472 0.20154567 0.37640116
-0.04933287 -0.18159299 0.049707472 -0.035549015 0.19975673 0.32150462 0.28678253 0.23993553
0.03825311 0.11439314 0.082326576 0.22569822 -0.27395552 0.33173546 0.008889234 -0.17063966
0.10332914 -0.08764492 -0.27674812 0.022406608 -0.17409179 -0.2214864 -0.20606284 -0.28379285
0.31636325 0.34357753 -0.11172555 -0.3397758 -0.17709167 0.22654827 0.16902037 -0.33895275

net.2.weight f4 [128, 128]
00000000: 53fe 423d 6db2 19bd bfa9 3f3d fedf abbd
00000010: 4708 a73d 2808 b7bd 59b9 eb3c 6aef 3c3d
00000020: bbcb dcbb 7f7e 8e3c 8c6a 913d 7b64 82bd
00000030: 7e91 2fbc a83e be3c c02d 133d bebb 663d
00000040: 1136 12bb 0c05 b5bd e0e7 ea3b 47a5 593d
00000050: fba0 acbd a697 a4bd 9203 943c 1699 a7bd
00000060: ebac b1bd b596 75bd 6cc4 11bd eca3 96bc
00000070: f642 533d 4363 6f3c 65b2 8fbd e675 7d3d
00000080: 8ac3 8cbd 4060 dd3c d3e0 1a3d be2c 6ebd
00000090: efd3 2c3d e8b3 783c afb5 4c3d 7a6d 783d
000000a0: 085c 5dbd 6749 a03d 3a40 3fbd 696a a23d
000000b0: 3107 9e3d 1b00 91bc 1b69 4ebd c5e5 fa3c
000000c0: 2ae2 573d 23b8 1c3d 938f 01bd 2f83 5f3d
000000d0: b2b7 063c 6ae6 6b3d 9c32 d03c eebd 49bc
000000e0: 6659 81bd 5bd0 8abb 50f8 4fbd c153 77bd
000000f0: 62dc 9e3d 36eb 35bc 4c2b 91bd 8b75 483d
00000100: ab9e 733d 6189 8a3d 7e78 49bc 4ffa 23bd
00000110: 2c4a 06bd b481 41bd fac6 5d3d 0810 4a3c
00000120: ac22 a1bc ab79 843d 0b82 443d 7419 6cbd
00000130: 080c bcbc 098b 8c3d 6394 9abd f712 5cbd
00000140: 8c68 9bbc f2f4 6f3d dde4 f5bc f0de ebbc
00000150: 9591 863d 56d8 353d 6a63 3e3b 1729 2d3d
00000160: 1a51 12bd a5ca 95bd 996c 37bd c1dc 99bd
00000170: 3ca9 38bc dda9 3dbc 1e34 64bc 163f a7bd
00000180: f1cc a23d 4055 2f39 8262 183d e2db 3abd
00000190: b909 72bd ec47 45bd 1519 5ebc 89f5 6f3b
000001a0: 3efd 64bd 9843 8f3c 356f 853d db7a 62bd
000001b0: 603e 043d 9bd0 823d dd53 a93d 253f b23d
000001c0: 43dc 413d ba9b 64bd adfd a23d 8b93 a7bd
000001d0: e824 7ebc ac85 97bd 903a 52bc 74c1 9d3d
000001e0: 3e72 44bc 7372 783d c56b 60bd e6d3 a83d
000001f0: db77 a7bd a745 043d 3344 9f3d e205 193d
00000200: 32ec 98bc 1bb1 7a3c 3279 5b3d 0568 adbd
00000210: e62f 2fbc c0b9 edbb 2c6f df3c 86de 763d
00000220: 709e 20bd b9d9 97bc 5857 d83c c231 d3bc
00000230: 067f e63c e2d6 653d c080 e63a c8ed 93bc
00000240: 04ad 973d 0f98 233d 5e78 5cbd 95af b5bd
00000250: 4480 88bd 0631 2d3d 47b4 adbc 5e77 84bd
00000260: 0021 363b 3bc2 583d 76dd 96bc 1977 66bd
00000270: 10d5 253c 628c 903d 1e36 37bd 40c1 08bb
00000280: bf61 6f3d 5c71 98bd d2df 76bb 5089 d6bc
00000290: 3b04 ccbb f296 453d 5151 a23c d072 d03b
000002a0: 4d49 20bd c6a7 413d c8b5 363c 5bd0 4a3d
000002b0: 8619 933c 517d 9a3d 3e4d 97bd ac42 533a
000002c0: c054 07bb 2800 d8ba 4ba5 683c 21ac a53d
000002d0: 5d13 993c 1d8c 80bd 2078 8b3c 9d25 9d3c
000002e0: aebe 54bd 8393 74bd d200 723d cce7 f13c
000002f0: 46a6 afbc 8993 08bd c195 a03d 9257 8b3d
00000300: f5a9 01bd b06b acbd f9a6 2bbd bae1 183d
00000310: 02e3 86bd f204 60bd f04e 093d 78a9 b9bc
00000320: bfd2 14bd 9f8c 35bd 086c 0fbc eac6 863c
00000330: b9bf ae3d 1622 76bd 0864 953c 4261 51bd
00000340: f4aa dd3c 280c a0bc dd65 903d ecca 87bc
00000350: 1ab2 7e3d bf72 803d 9eb2 9bbd d219 9d3c
00000360: 7a0f d9bc d1e1 fdbc 529c 5d3d 0a8e ec3c
00000370: 23b5 113b 7465 29bc 9b03 04bd 5801 3ebd
00000380: 9243 9d3d efbc 073d b437 bd3c bb8e 32bd
00000390: a384 77bd 9d2d 4abd d6d2 cb3c 4203 1cbd
000003a0: 2789 393d 8edc e7bc 09cb 9abd ab99 a63d
000003b0: ce7e 0fbd c8c6 21bd 50e1 99bc 1d6a 113d
000003c0: 34de 8dbd d1c7 823d c0ec 34bb 3cba 7fbd
000003d0: 184c b13c 73d6 833d c809 3dbc eb13 623d
000003e0: 52c0 f63c 7dd1 40bd a011 39bc f766 aabb
000003f0: 04d1 943c 40f1 88bd 2b48 1d3d 310a 813d
0.047605824 -0.037523676 0.046792742 -0.083923325 0.08155876 -0.089371026 0.028774904 0.04612676
-0.0067381538 0.017394302 0.071004 -0.063668214 -0.01071584 0.023223236 0.035932302 0.05633139
-0.0022310058 -0.08838853 0.007168755 0.053136136 -0.08429142 -0.08036737 0.018068109 -0.08183496
-0.086755596 -0.05995818 -0.035587713 -0.01838871 0.05157753 0.014611068 -0.07016448 0.061880015
-0.068732336 0.027023435 0.037812065 -0.05814814 0.042194303 0.015179612 0.049977954 0.06065128
-0.054042846 0.078265004 -0.04669211 0.079304524 0.077162154 -0.017700246 -0.050393205 0.03062714
0.05270592 0.038261544 -0.031631064 0.054568466 0.008222507 0.057592787 0.025414757 -0.012313349
-0.063158795 -0.0042362637 -0.05077392 -0.06038261 0.077568784 -0.011103442 -0.07088336 0.048940223
0.05947749 0.06764484 -0.012296794 -0.040033635 -0.03278558 -0.047242835 0.054144837 0.012332924
-0.019669853 0.06468519 0.04797558 -0.05764146 -0.022954956 0.06862456 -0.07547834 -0.053729024
-0.01897075 0.058583207 -0.030016357 -0.028792828 0.06570736 0.044395767 0.0029050955 0.042275514
-0.035721876 -0.07314042 -0.0447813 -0.075128086 -0.011270817 -0.011576143 -0.013928441 -0.081663296
0.07949246 0.00016721059 0.03720332 -0.045619853 -0.059091303 -0.048164293 -0.013555785 0.0036614856
-0.055905573 0.017488286 0.06515352 -0.055292945 0.032286048 0.063874446 0.08267949 0.0870345
0.0473292 -0.055812575 0.07958541 -0.081824385 -0.015511729 -0.07398543 -0.012831345 0.07702914
-0.011990128 0.060656022 -0.054790277 0.082435414 -0.081771575 0.03229299 0.0777668 0.037359126
-0.018667314 0.015301014 0.053582378 -0.08467106 -0.010692572 -0.007254809 0.02727469 0.06027081
-0.039213598 -0.018536435 0.026408836 -0.025780562 0.028136741 0.05611313 0.0017585978 -0.018057719
0.07406047 0.039939936 -0.05382573 -0.0887138 -0.0666509 0.04228308 -0.021204127 -0.0646808
0.0027790666 0.052919608 -0.018416148 -0.056265924 0.010121599 0.07058026 -0.044729345 -0.002086714
0.058442827 -0.074434966 -0.0037670028 -0.026188523 -0.0062260902 0.048239656 0.019814165 0.006361343
-0.039132405 0.04727914 0.011151738 0.04951511 0.017956506 0.075434335 -0.0738778 0.0008058946
-0.002064988 -0.0016479539 0.014199565 0.080894716 0.018685991 -0.062767245 0.017025054 0.019182974
-0.05193966 -0.05971099 0.059082814 0.029529475 -0.02144159 -0.033343825 0.07841063 0.06803812
-0.031656224 -0.08418977 -0.041907284 0.037324645 -0.06586267 -0.054692216 0.033522546 -0.022663817
-0.036333796 -0.04432356 -0.008753784 0.016452271 0.08532662 -0.0600911 0.018236175 -0.051118143
0.027059056 -0.019537047 0.07050679 -0.016576253 0.06218157 0.06271886 -0.07602428 0.019177351
-0.026496638 -0.030991467 0.054104157 0.028876323 0.002223321 -0.01033913 -0.03223 -0.046388
0.07678904 0.033139165 0.02309785 -0.04359315 -0.060429227 -0.049359906 0.024880808 -0.038089044
0.045296814 -0.02830341 -0.07558257 0.081347786 -0.03503304 -0.039496213 -0.018784195 0.035501588
-0.069271475 0.06385768 -0.0027606934 -0.062433466 0.02164273 0.06437387 -0.011537977 0.055194777
0.030121002 -0.047074784 -0.011295706 -0.0052002626 0.018166073 -0.0668664 0.038398903 0.06300772

net.2.bias f4 [128]
00000000: c338 b6bc aa61 6bbd e054 94bd b125 913d
00000010: bbb1 a03d beb0 b5bb 0dad a6bd 7c6e b63b
00000020: de53 6ebd e769 7f3d 36c5 95bd 598d 293d
00000030: a5ab 99bd 202e 03bb a709 843c 7e18 13bc
00000040: 6df5 933d 48c8 b43d 2bc5 b73b be6f 79bc
00000050: a8f8 cabc b4d3 e83c 5ed0 a13d 4f73 7dbd
00000060: eea8 9bbd d0b0 89bb 7d27 8abc 2bb8 c03b
00000070: 17e5 883d 40f7 aabc 922f 313c 6f72 4e3d
00000080: 5933 a93d af1c dabc 0abd a2bd c22c 8cbd
00000090: 41ce 523d cffd b2bd 3aba 68bc 8461 afbd
000000a0: 2abe 17bb 338f 243c 0079 78bb a535 3a3d
000000b0: f1a1 efbc c215 1bbd 206e 91bc 1768 99bd
000000c0: 0058 8bbd 940a 96bd db31 883d 1daf 6f3d
000000d0: 164e 62bd caa5 5bbc d0ea 2dbd 00ab 9abc
000000e0: 8967 433b 79f7 723d 089b aabb 3e0d 91bd
000000f0: 37ec 903d ac4b e1bc 631b ac3d 5d20 8abc
00000100: d18b acbd b58a 10bd 31cc 95bd 02ce 643c
00000110: 60bc 94bc 21c0 a33d a8cc cb3c 8349 01bd
00000120: fb1d b8bc 6020 15bd 860b 9bbd 1c30 86bd
00000130: 4dbb b23c ffc9 95bd 187a 8ebd c72f f03c
00000140: 26dd 1e3d 80a6 a9bb b8d4 f4b9 161e 19bd
00000150: 435d 8d3d ed77 a73d 9253 9d3d 6472 65bc
00000160: fb86 513d cbe8 adbb dd48 a53d e7bd a83c
00000170: d1d0 b8bc e7a3 753d b639 9fbd 430e a43d
00000180: f007 a43c 85c1 54bd fa41 5f3d 8bb1 39bc
00000190: ebb7 5ebd ff5d 25bd 0427 ee3b cf68 743d
000001a0: 1f6a 8e3d b8a1 98b9 f090 8abc 2433 3e3a
000001b0: 7d55 d13c 6bc7 9bbd 59fb 08bd 6a2d a2bd
000001c0: 8b9c a6bd 3165 f5bc c69c b1bd 9da2 41bd
000001d0: 2926 b53d 6303 9d3c 861f 663d 7207 dbbc
000001e0: 32af 57bd 9c10 8bbd 6afe 003c b921 2abd
000001f0: 5b8d 69bd 1f4a a93d 7163 a63d 1f8c ceba
-0.022243863 -0.057466187 -0.07242751 0.07087267 0.078463994 -0.005544751 -0.081384756 0.00556737
-0.05818545 0.062356856 -0.073130056 0.041394565 -0.07503442 -0.0020016506 0.016117884 -0.008978007
0.07224546 0.08827263 0.005608221 -0.015224395 -0.024776772 0.02842126 0.07901071 -0.061877545
-0.0760058 -0.004201986 -0.016864533 0.0058813295 0.066843204 -0.020869851 0.010814564 0.0504021
0.08261747 -0.026625006 -0.079462126 -0.068444744 0.05146623 -0.087398164 -0.014204556 -0.085635215
-0.0023154118 0.010043907 -0.0037913918 0.045461316 -0.029252024 -0.037862547 -0.017752707 -0.07490557
-0.06803894 -0.07326236 0.06650134 0.05851661 -0.05525025 -0.013406226 -0.042460263 -0.018880367
0.002981635 0.05931804 -0.0052064694 -0.07082604 0.070763044 -0.027501903 0.08403661 -0.016861135
-0.08425105 -0.03528853 -0.07314337 0.013965132 -0.01815623 0.0799563 0.024877861 -0.031564247
-0.022475233 -0.03640783 -0.07570557 -0.06552145 0.021817828 -0.07313918 -0.06956881 0.029319657
0.038785122 -0.005177319 -0.00046697794 -0.037382208 0.06902554 0.08177171 0.076819554 -0.014004324
0.051154118 -0.005307292 0.08070538 0.020598365 -0.022560509 0.059970763 -0.07774679 0.08010533
0.020023316 -0.051942367 0.05450628 -0.011333833 -0.054374617 -0.040372845 0.0072678346 0.059670266
0.06953835 -0.0002911219 -0.016914815 0.00072555454 0.02555346 -0.07606395 -0.03344283 -0.07918818
-0.08135327 -0.029955478 -0.0867248 -0.04727422 0.08845169 0.019166654 0.056182407 -0.026736949
-0.052657314 -0.06790277 0.007873157 -0.041536067 -0.057019573 0.082660906 0.08124436 -0.0015758312

net.4.weight f4 [9, 128]
00000000: 60f5 57bd ecba 85bc 0ac7 4b3d f7b5 2c3b
00000010: 8966 6fbb e69a 003d b4f5 88bd d121 9e3d
00000020: 68e6 7a3c 12ec 76bc 72c0 1e3d cb17 9c3d
00000030: 5d2b ac3d 7846 f8bc 94a2 d3bb 7082 a8bd
00000040: e945 8d3d 04e2 9bbc f481 0f3d f55f cfbc
00000050: 8d56 80bd efd0 a83d e706 9b3d f64a 84bd
00000060: 95c0 a4bd 7f04 b3bd 41fb 9b3d c5f5 aa3d
00000070: 5923 583d 008a fb3c c6b5 123c 92f9 6fbc
00000080: 2009 e9bb 9fbd 4bbd dc6e 8fbc 5075 003c
00000090: a113 ab3d 5b8a 03bd 71d5 97bd 7aea 21bd
000000a0: a74d 3dbd 4056 9c3b 89c5 84bd faec 66bd
000000b0: f00c a6bd 3585 8b3d d0f0 df3c d217 4f3d
000000c0: 3258 6bbd fd34 8d3d 01b2 6f3d c662 37bd
000000d0: e8c3 8bbd 81e8 78bd e078 6b3b 466a 343d
000000e0: c373 d03c 728a 2dbd 5c6b 6d3b 2b02 a83d
000000f0: b2ac 06bc f212 693d 31ed b3bc eb1f ad3d
00000100: ec1c 943c 9b31 79bd 3556 4dbd ddf6 833d
00000110: 5a2b e3bc 12fa 49bc 220c 81bd 480f 1dbc
00000120: ca6e acbd 1740 0bbd 4314 813d a859 b83c
00000130: d5f7 56bd a724 a4bd 94ce 903c 4793 a03c
00000140: 986c c3bc b74f 9b3d b498 003d e274 753d
00000150: ab0d bb3c cd7a 273d a9f6 2cbb 31a0 563d
00000160: eb80 81bd 657e 6d3d 7b45 86bd e206 133d
00000170: 5fc8 fb3c c17c 8b3d fa76 6abd 5389 30bd
00000180: 940d 8abd 0085 deb9 00f1 74bb 595c 723d
00000190: 0ac1 573d eabf 623d 9f8b 06bd 2616 a0bd
000001a0: 7ee4 183c 7c9a acbd 2831 143c a134 66bd
000001b0: c38e 9f3c d589 50bd 0065 ddb9 2669 003d
000001c0: 28fd 35bc b7d6 b43d 306e 50bd b06a 8bbd
000001d0: 145d 64bd 050d 393d 9e5b 083d d2d0 73bd
000001e0: 3945 21bd ff62 a63d 9d85 3f3d b277 e4bc
000001f0: 56d9 813c ec8c f23b 1b40 ba3c 0e11 083d
00000200: b6cc 60bd 7109 90bc 4869 633c d393 93bd
00000210: 6f91 913d 48cd 79bc f8dc 443c f98a a13d
00000220: 64fe b1bd faf6 12bc 870f a93d f102 443d
00000230: 9f01 ba3c c747 9f3d 533a e33c a7db 8b3c
00000240: ba62 44bd 1e40 2e3d adeb 2a3d aef2 c4bc
00000250: 5008 153d e6f7 96bd 098e c1bc c781 943d
00000260: 6397 843d 301a 893b 9243 7abc 2568 9abc
00000270: 0b6d 29bd 31b8 a23d 29c4 83bd 7d0f 50bd
00000280: 8dd7 833d 6c7d 11bd 6884 5abc 62c4 eebc
00000290: 9526 8f3d 520d f5bc 9150 a43d 63c4 42bc
000002a0: 4126 3d3d c27a 05bc 6008 fd3c c095 d33c
000002b0: 45ed 02bd 91b5 a8bd f855 5f3c f800 0abc
000002c0: 50f8 f73c b6fc 81bd 5b17 923d 8768 c43c
000002d0: a23d 2ebd b1d9 683d 3912 5cbd 3805 52bc
000002e0: 97df 43bd bd3a 1a3d 5509 7dbd e6f3 87bd
000002f0: 2e3d 5d3c 714a a7bd e937 2d3d 37c9 893c
00000300: 4b3a 35bd 071f d03c dea8 9abd c480 03bd
00000310: 5371 aa3d 25c3 c6bb 3d7b afbd 35e6 5dbd
00000320: 3c38 ed3b ce11 453d 9bcd 953d a8ba 44bc
00000330: 9bfa 43bd fc1a ccbc 521c f1bc a307 973c
00000340: d2b5 783d b323 8c3d 0c65 b0bd 310c 153d
00000350: 177e 12bd 23ff 153d 9748 343b cda9 91bc
00000360: 02d1 07bc 730a 5dbd 8309 3dbd 8126 63bd
00000370: 21ce 583d 1f81 f1bc c04a 70bb 4279 1bbc
00000380: f58b 9a3d 885b a6bd f22d 483d 0140 acbc
00000390: 07fc a43d 0075 d8b9 0285 adbd a2e3 76bc
000003a0: e1ba 7f3d ad94 7dbd 3c39 adbc dc74 81bd
000003b0: 19e6 8abd c227 423d b45a e83c ae8e 533d
000003c0: 205b 8b3b 37ff ad3d 7ee3 6c3d 9823 293c
000003d0: fadc 87bd 5398 103d 5731 ae3d 41d4 b43d
000003e0: e04a 713b 67e4 33bd 1945 bbbc 4880 70bc
000003f0: 7562 463d 47ea 80bd 316d 8fbd 2ca1 d33c
-0.052724242 -0.016324483 0.049750365 0.0026353577 -0.0036529622 0.031397723 -0.06687489 0.07721294
0.015313722 -0.015070932 0.03875775 0.07621726 0.084067084 -0.03030704 -0.00645859 -0.08228004
0.068981 -0.019028671 0.035036042 -0.02531431 -0.06266508 0.08242976 0.07569676 -0.0645961
-0.080445446 -0.08741092 0.07616282 0.08347658 0.052768085 0.030705452 0.008954471 -0.014646905
-0.0071116835 -0.049741384 -0.017508917 0.0078404695 0.08353353 -0.032114368 -0.074137576 -0.039530255
-0.046216633 0.004771024 -0.06482989 -0.056378342 -0.081079364 0.068125166 0.027336508 0.050559826
-0.057457156 0.06894872 0.058519367 -0.044771932 -0.068244755 -0.060768608 0.0035930201 0.044046663
0.025445824 -0.04236836 0.0036227321 0.082035385 -0.008219885 0.056902833 -0.021963688 0.084533535
0.018080197 -0.060838323 -0.05013104 0.0644357 -0.027730633 -0.012327688 -0.06301142 -0.009586163
-0.08419569 -0.033996668 0.06302693 0.022503689 -0.052482445 -0.080148034 0.01767663 0.019601477
-0.023855492 0.07583564 0.03139563 0.05992592 0.022833666 0.040888596 -0.0026392138 0.052398864
-0.06323417 0.057981867 -0.06556221 0.035895236 0.030735193 0.06810904 -0.05724237 -0.043099713
-0.06740871 -0.00042442232 -0.0037375093 0.0591701 0.05267433 0.055358805 -0.032847997 -0.078167245
0.0093318205 -0.08427903 0.009044923 -0.056202535 0.019477254 -0.050912697 -0.00042227656 0.031350277
-0.01110772 0.08830016 -0.050886333 -0.068074584 -0.05575283 0.045178432 0.033290498 -0.05952532
-0.039372656 0.08124351 0.046758283 -0.027889106 0.015850704 0.007402053 0.022735646 0.03321939
-0.054882728 -0.017582627 0.0138800815 -0.072059296 0.071078174 -0.015246697 0.012015574 0.07887835
-0.08691099 -0.008970017 0.08254915 0.047854368 0.022705851 0.07777362 0.027737772 0.017072512
-0.047945715 0.042541616 0.041728664 -0.0240415 0.03638488 -0.073715016 -0.023627298 0.072513156
0.06474187 0.00418403 -0.015274899 -0.018848488 -0.041363757 0.07945288 -0.06433899 -0.05079602
0.064375974 -0.035520002 -0.013337232 -0.029146377 0.06989781 -0.029913578 0.08023179 -0.011887643
0.04617906 -0.0081469435 0.030887783 0.025828242 -0.03196456 -0.08237756 0.013631336 -0.0084230825
0.030269772 -0.06347029 0.07133361 0.023975624 -0.042539246 0.05684823 -0.053728316 -0.012818627
-0.047820654 0.037653673 -0.061776478 -0.06638317 0.013503356 -0.081684954 0.04228965 0.01681958
-0.044245046 0.02540542 -0.0755174 -0.032105222 0.08322396 -0.0060657435 -0.08568428 -0.05417462
0.0072393697 0.048112683 0.07314607 -0.012007393 -0.047846418 -0.02491521 -0.02943245 0.018436259
0.060720272 0.068427466 -0.08613023 0.03638858 -0.03576478 0.03662027 0.0027509087 -0.017781163
-0.008289577 -0.053965043 -0.04615165 -0.055456642 0.052930955 -0.029480515 -0.0036665648 -0.009489359
0.07546226 -0.08122927 0.048871942 -0.021026613 0.08055883 -0.00041285902 -0.08472635 -0.01506892
0.06243408 -0.061909366 -0.021145456 -0.06321117 -0.06782169 0.047401197 0.028363563 0.05164974
0.0042528063 0.08495944 0.05783414 0.010323428 -0.06633945 0.035301518 0.085055046 0.08829547
0.003681831 -0.043918993 -0.022860097 -0.014679022 0.04843374 -0.06294685 -0.070032485 0.025833689

net.4.bias f4 [9]
00000000: ef38 3fbd 4b71 833c ae5a 423d 6444 153d
00000010: f53b bcbc 4ee0 263d 85f9 69bd 0c06 9a3d
00000020: 19d5 5a3d
-0.046685155 0.016045233 0.04744976 0.036442176 -0.022977808 0.040741257 -0.057122726 0.075206846
0.053425882

net.0.weight f4 [128, 7]
00000000: 402b e0bd 9609 033e d0d6 50be b2d8 7cbe
00000010: 0a94 6a3e 6226 5d3e da24 033e 9abd 483e
00000020: e6e1 5c3e 5120 833e 90ee 54bd 5a49 153e
00000030: c34a c13e c0d6 68bd 0c3b e03d e0bb 55bc
00000040: aaeb 753e 92df 1f3e ab40 64be edd4 50be
00000050: 6070 073c 4efe 193e 206b c53c 22e1 503e
00000060: 4dfe bb3e 59be be3e 3eb4 48be f46b e83d
00000070: e86f bf3d 0187 b7be 8ed7 2e3e 63ac a63e
00000080: 0027 5c3b a376 c03e 5c66 a03d 04d5 a5be
00000090: fe5c 223e b6b2 8fbe d744 84be 4e4d 7c3e
000000a0: e58b 61be 10cc e6bd 44af b03d fc85 04be
000000b0: 141a 00be af72 c03e 0f7f 7ebe 117a 11be
000000c0: 0b03 b43e fc97 d13d 5759 50be 2bda 9e3e
000000d0: 7a20 07be 7cd9 8bbe eca1 b6be 866b 753e
000000e0: 32e6 3f3e c0e3 f03c 3afe 84be 3e5e 02be
000000f0: 68f9 aabe 7d1b 923e 90ab e3bd 7832 b9bd
00000100: c7a1 9abe 8ad0 2bbe 6c22 92be 59a3 0dbe
00000110: 46e2 0a3e 6495 82bd c075 98bc 11ff 813e
00000120: aa9a 1a3e c68d 4cbe 88bb cc3d 60b5 67bd
00000130: 56fc 793e 5f38 80be baf3 563e ce23 3e3e
00000140: 60fb d43d b04f 19be 788a 3b3d 1438 bbbe
00000150: 598c 8e3e d060 cdbd 03de ab3e 82dd 1e3e
00000160: e6ad 36be a023 523d f372 3fbe c57c 893e
00000170: e35d b0be 5b22 0abe 32b4 64be 50d6 8dbd
00000180: 673f b2be 649f 80be d84e ee3d c4e8 9ebe
00000190: 1d29 36be 9b5e 11be 2f28 ab3e a608 78be
000001a0: 86d7 9cbe a6a3 6c3e 593f 983e f880 c53d
000001b0: 6478 d03d 7c49 f33d 71d2 0dbe 387a 29bd
000001c0: cc63 ca3d 707a 50be 5676 4d3e e0d5 8bbe
000001d0: 3f03 27be ab7f 1abe d33a 7abe 65b4 a23e
000001e0: 9efb 6a3e 80db 27be 48c0 a7bd be51 00be
000001f0: 60db 4abd cf8d 8bbe fc35 c4bd d29b 103e
00000200: 002f fbbd 1158 873e 784c 443d 383e 00bd
00000210: c925 53be d121 aa3e 9a57 593e 10bf 473d
00000220: 9255 523e f015 c33d a8f6 5abe 826c 2ebe
00000230: 70f5 f7bd 4809 553d fae3 123e bfda ba3e
00000240: 7d70 9b3e 75ab 94be c30b 2bbe e693 513e
00000250: 4e47 80be 5e8f 0c3e b0ce b2bd 003e c33d
00000260: 3a32 bfbe 267f 17be 2958 31be 5ef4 653e
00000270: 80a0 c63c 2531 aabe 90b0 823c 8aed 233e
00000280: 2220 aebe 2345 a2be 7e4f 0a3e 99f4 8fbe
00000290: 9ce1 f1bd e196 bc3e 0615 53be 286a d23d
000002a0: 80c9 513b dd54 13be 6726 c13e bebe 563e
000002b0: 8089 8d3b 58c5 5f3d a6f0 063e e20b 773e
000002c0: d86b d33d f86d 4bbd 4efd 88be 64c5 b5be
000002d0: c0f9 e9bd 70a2 923d a603 2a3e 8082 ccbd
000002e0: 92e0 4abe c857 26be d6a8 373e ea81 213e
000002f0: 8cae 01be b014 cb3d b37a 87be 4cfb 3cbe
00000300: c0ae 38be ec90 f2bd 5c09 c93d f834 143d
00000310: 3e5a 4f3e a04f 9abd 9526 9b3e 4d44 bc3e
00000320: 5864 253d 2127 a2be dea4 0c3e 82f9 a6be
00000330: 9283 91be 50dd d83d 7df1 ae3e 870b 8a3e
00000340: 27ca a43e b068 31bd 0037 c13a 0020 84bd
00000350: ecb0 ec3d 03fc 77be 383c 8bbe 3e7b 693e
00000360: 80dd 95be 016d 813e d0a3 f7bc 70bf 453d
00000370: 80d5 f33d 747b 51be 76db 313e c044 543c
00000380: addb 95be 5fbc c03e b6b5 723e 0e6a 543e
00000390: cbe0 31be d9fd 0fbe 780b c33d 313c a13e
000003a0: 5d17 66be 6069 e73d 2c5c ed3d 1e99 463e
000003b0: cdf5 b0be e8d6 923d 5659 6c3e 9e53 323e
000003c0: 803f 153c 00fc 04bd ec87 1fbe ecf8 e03d
000003d0: aac0 313e 992f a1be fcc0 a7be b046 e5bc
000003e0: a515 813e 9259 3f3e 18d6 693d 172b 53be
000003f0: bfb2 78be 23e2 bd3e 9615 01be 4dde bc3e
-0.10945749 0.12796625 -0.20394444 -0.24692038 0.22908035 0.21596673 0.12807027 0.19603577
0.21570548 0.25610593 -0.051985323 0.14578763 0.3775235 -0.056845427 0.10948762 -0.013045281
0.2401568 0.15612629 -0.22290294 -0.20393725 0.008266538 0.15038416 0.024098933 0.20398381
0.36717454 0.372546 -0.19600007 0.113487154 0.09347516 -0.35845187 0.17074415 0.32553396
0.0033592582 0.37590513 0.078320235 -0.3238908 0.15855786 -0.28066033 -0.2583377 0.24638864
-0.22026022 -0.112693906 0.08627179 -0.12941736 -0.12509948 0.37587497 -0.24853157 -0.14206721
0.35158572 0.10234067 -0.2034658 0.31025824 -0.13195983 -0.27314365 -0.35670412 0.23966798
0.18740156 0.029405475 -0.2597521 -0.12731263 -0.33393407 0.28536597 -0.11116707 -0.09042829
-0.3020155 -0.1677877 -0.28541887 -0.13831843 0.13562879 -0.0637615 -0.018610835 0.25389913
0.15098062 -0.19975957 0.09996706 -0.056569457 0.24412665 -0.25043008 0.20991412 0.18568346
0.103995085 -0.14971805 0.04578635 -0.36566222 0.27841452 -0.10028231 0.3356782 0.15514186
-0.17839774 0.051303506 -0.18696193 0.26853004 -0.3444663 -0.13489668 -0.22334364 -0.069256425
-0.34813997 -0.25121605 0.11636132 -0.3103696 -0.17789121 -0.14196245 0.33429095 -0.24222049
-0.3063318 0.23109302 0.2973583 0.096437395 0.10179213 0.118792504 -0.13849808 -0.041376323
0.09882316 -0.20359206 0.20064673 -0.2731161 -0.16309832 -0.15087764 -0.24436502 0.31778255
0.22947547 -0.16392326 -0.081909716 -0.12531182 -0.04952562 -0.2725663 -0.09580609 0.1412194
-0.12264824 0.26434377 0.04792449 -0.031309336 -0.20619883 0.33228925 0.21224824 0.048766196
0.20540455 0.095256686 -0.21383154 -0.1703358 -0.1210736 0.052010804 0.14344779 0.36495015
0.3035926 -0.2903706 -0.16703705 0.20466575 -0.250544 0.13726565 -0.08730829 0.0953331
-0.37343007 -0.14794597 -0.17318787 0.224565 0.024246454 -0.3324062 0.015953332 0.16008583
-0.3400889 -0.31693372 0.13506886 -0.281163 -0.1181061 0.3683386 -0.20613489 0.10274154
0.0032010972 -0.14387842 0.3772461 0.209712 0.00431937 0.05463156 0.13177738 0.24125627
0.10323304 -0.04966542 -0.26755756 -0.3550216 -0.11424589 0.07159889 0.16602954 -0.099858284
-0.1981223 -0.16244423 0.179355 0.15772215 -0.1266424 0.09916055 -0.264608 -0.18455237
-0.18035412 -0.11844048 0.09816238 0.036183327 0.20249268 -0.075347185 0.30302873 0.3677086
0.0403789 -0.31670478 0.13734767 -0.32612234 -0.28420693 0.10589087 0.34168616 0.2696192
0.3218548 -0.04331273 0.0014741123 -0.06451416 0.11557183 -0.24217229 -0.2719438 0.2280092
-0.29270554 0.25278476 -0.03022948 0.048278272 0.11905956 -0.2045725 0.17368874 0.012955844
-0.29269162 0.37643716 0.2370213 0.20743582 -0.17370908 -0.14061679 0.09523672 0.31491235
-0.2246985 0.112993956 0.11589846 0.19394347 -0.3456253 0.07169896 0.23080954 0.1741471
0.009109378 -0.03246689 -0.15579194 0.10984978 0.17358652 -0.31481627 -0.32764423 -0.027987808
0.25211826 0.18686512 0.05708894 -0.20621906 -0.24286936 0.3708659 -0.1260589 0.36888352

net.0.bias f4 [128]
00000000: 309c 433d fc48 dbbd 8a71 393e b65f 3c3e
00000010: 8fb4 953e 9a88 2d3e f096 553d 9365 16be
00000020: eb52 53be 309b a5bd 307a cebd be7d 703e
00000030: 559a 833e a0d8 ee3c d02e d7bc a54a a0be
00000040: fadd 663e 2231 163e 206b 08bd 0239 613e
00000050: f0d2 a3be 947e 9fbd 88e8 d9bd 3007 89bc
00000060: a001 fabd de77 313e e073 1b3c 0f64 b5be
00000070: 6690 74be 348e fdbd 7a12 a6be 9396 83be
00000080: bffc 8a3e d450 a7bd f800 053d 309e a2be
00000090: d50f 853e 5623 223e 70a0 dd3c 7818 0f3d
000000a0: 8a15 773e 7b7f 5cbe a8b1 95be 7064 943c
000000b0: 3a75 3c3e 24b3 b33d 205b 4abe 40e6 e03b
000000c0: 6090 413d 59fa 803e f487 c4bd 0644 373e
000000d0: d581 aa3e c01d c0bb 6913 a4be 2902 983e
000000e0: 4e63 503e 521a 563e f3db 8dbe 3063 393d
000000f0: 9bb9 933e 6338 2cbe 9615 773e 06c9 633e
00000100: 81ac ba3e 639e 24be bf01 afbe 4093 a83b
00000110: ff1b b0be f85f 5cbe 0e47 92be 9bc9 96be
00000120: f8bb 5fbd e49d 23be 5601 4cbe fa3a 0d3e
00000130: da34 1d3e 49b8 903e 112f 9fbe 265b bbbe
00000140: 0c20 a1bd b0bd d23c 54b9 f1bd 0849 58be
00000150: 7c07 e9bd 6622 6bbe 60e6 903d 4a41 4a3e
00000160: a76c abbe 114c b03e 60b5 b8be b791 813e
00000170: 446d fbbd 60bb 90bc 2268 4f3e 9534 c03e
00000180: b0f8 45bd a5f9 3abe 109a 4b3d d89b 11bd
00000190: e286 4b3e 531f a53e 1752 923e ceb7 763e
000001a0: b896 183d ac3a e83d 8c8e a63d 4a17 663e
000001b0: e643 8cbe 4d5c aa3e 6006 223c 4fc2 2fbe
000001c0: 84aa d53d e472 b1bd eeb1 8dbe 108e b73c
000001d0: 1e45 32be 55cd 62be 2302 53be 3aca 90be
000001e0: 6f7d a23e 776c b03e 34c4 e2bd 2a7a aebe
000001f0: 8557 35be 6a02 693e d219 2e3e 378b adbe
0.047756374 -0.1070728 0.18109718 0.18395886 0.29239318 0.1694664 0.0521459 -0.14687185
-0.206371 -0.0808624 -0.10081899 0.23485467 0.25703683 0.02915603 -0.02626744 -0.3130695
0.22545615 0.1466718 -0.033305287 0.21994403 -0.3199687 -0.07787815 -0.10640055 -0.01672706
-0.12207341 0.17330882 0.009488076 -0.354279 -0.23883209 -0.12380639 -0.32435971 -0.25700817
0.27145955 -0.081697136 0.032471627 -0.31761312 0.2598864 0.15833792 0.027054042 0.034935445
0.2412931 -0.21533005 -0.29237103 0.018114299 0.18404093 0.08774403 -0.19761324 0.0068633854
0.047256827 0.25191 -0.095962435 0.17897043 0.3330218 -0.0058629215 -0.3204606 0.29689148
0.20350382 0.20908478 -0.2770687 0.04526061 0.28852543 -0.16818385 0.24129328 0.22244653
0.36459735 -0.16076045 -0.3418102 0.0051445067 -0.3439636 -0.21520984 -0.28569835 -0.29450688
-0.05462262 -0.15978199 -0.19922385 0.13792029 0.15352193 0.28265598 -0.31090596 -0.36592978
-0.078674406 0.025725216 -0.11802927 -0.21121609 -0.11378381 -0.2296234 0.070751905 0.19751468
-0.33481333 0.34433034 -0.36075878 0.25306484 -0.122767 -0.017667472 0.20254567 0.37540117
-0.04833287 -0.18259294 0.049707472 -0.035549015 0.19875672 0.3225046 0.28578255 0.24093553
0.03725311 0.11339316 0.081326574 0.22469822 -0.27395552 0.33273545 0.009889215 -0.17163967
0.10432914 -0.08664492 -0.27674812 0.022406608 -0.17409179 -0.2214864 -0.20606284 -0.28279287
0.31736323 0.34457752 -0.11072579 -0.3407758 -0.17709167 0.22754827 0.17002037 -0.33895275

net.2.weight f4 [128, 128]
00000000: e616 473d da99 15bd a69b 433d b4d3 a9bd
00000010: 9114 a93d b4fc b4bd 2889 e33c 6aef 3c3d
00000020: 2007 bcbb a4af 963c d576 933d 3158 80bd
00000030: 302f 1fbc a83e be3c c02d 133d bebb 663d
00000040: c059 a1ba c2f8 b2bd e0e7 ea3b dabd 5d3d
00000050: fba0 acbd a697 a4bd b834 9c3c 1699 a7bd
00000060: ebac b1bd 227e 71bd d9ab 0dbd eca3 96bc
00000070: f642 533d 90c5 7f3c 65b2 8fbd e675 7d3d
00000080: 40b7 8abd 4060 dd3c 66f9 1e3d be2c 6ebd
00000090: 82ec 303d e8b3 783c 42ce 503d 7a6d 783d
000000a0: 7643 59bd 6749 a03d 3a40 3fbd b376 a43d
000000b0: 7b13 a03d f4ce 88bc 1b69 4ebd 768b 013d
000000c0: 2ae2 573d b6d0 203d 00ee fabc c29b 633d
000000d0: 001a 173c 6ae6 6b3d 9c32 d03c a05b 39bc
000000e0: 3a9a 7ebd 8017 54bb 50f8 4fbd c153 77bd
000000f0: abe8 a03d e888 25bc 021f 8fbd 1e8e 4c3d
00000100: 3eb7 773d 6189 8a3d 4816 39bc 4ffa 23bd
00000110: 2c4a 06bd b481 41bd fac6 5d3d 0810 4a3c
00000120: ac22 a1bc f585 863d 929a 483d e100 68bd
00000130: 080c bcbc 5397 8e3d 6688 98bd f712 5cbd
00000140: 8c68 9bbc f2f4 6f3d b6b3 edbc f0de ebbc
00000150: 9591 863d 56d8 353d a0ec 7f3b aa41 313d
00000160: 1a51 12bd 5bbe 93bd 996c 37bd 77d0 97bd
00000170: f046 28bc 9047 2dbc d0d1 53bc cc32 a5bd
00000180: 3bd9 a43d 00cd 58ba 8262 183d e2db 3abd
00000190: 26f1 6dbd 592f 41bd c8b6 4dbc 60bf 983b
000001a0: abe4 60bd 9843 8f3c 7f7b 873d 4862 5ebd
000001b0: 603e 043d e5dc 843d dd53 a93d 6f4b b43d
000001c0: d6f4 453d 2783 60bd adfd a23d 8b93 a7bd
000001d0: e824 7ebc ac85 97bd 903a 52bc bdcd 9f3d
000001e0: f00f 34bc 068b 7c3d f558 5cbd 2be0 aa3d
000001f0: db77 a7bd 3a5e 083d 7d50 a13d e205 193d
00000200: 0cbb 90bc b489 853c 3279 5b3d bd5b abbd
00000210: 98cd 1ebc c0b9 edbb b49d e73c 86de 763d
00000220: dd85 1cbd 98a8 8fbc 5857 d83c 9c00 cbbc
00000230: 2cb0 ee3c e2d6 653d c080 e63a c8ed 93bc
00000240: 4db9 993d a2b0 273d 5e78 5cbd 4ca3 b3bd
00000250: 4480 88bd 0631 2d3d 2883 a5bc 5e77 84bd
00000260: 0021 363b ceda 5c3d 50ac 8ebc 1977 66bd
00000270: 10d5 253c ab98 923d 1e36 37bd 40c1 08bb
00000280: 527a 733d 5c71 98bd a056 35bb 5089 d6bc
00000290: a03f abbb f296 453d 7882 aa3c d072 d03b
000002a0: df35 1cbd c6a7 413d c8b5 363c eee8 4e3d
000002b0: ac4a 9b3c 9b89 9c3d 3e4d 97bd c0b3 ec3a
000002c0: c054 07bb 80db 29ba 9807 793c 6bb8 a73d
000002d0: 8444 a13c 1d8c 80bd 2078 8b3c c456 a53c
000002e0: aebe 54bd f07a 70bd d200 723d cce7 f13c
000002f0: 2475 a7bc f67a 04bd 0ba2 a23d d963 8d3d
00000300: c422 fbbc b06b acbd 778e 27bd bae1 183d
00000310: 02e3 86bd f204 60bd f04e 093d 78a9 b9bc
00000320: bfd2 14bd 0d74 31bd 086c 0fbc 10f8 8e3c
00000330: b9bf ae3d 8309 72bd 0864 953c 4261 51bd
00000340: f4aa dd3c 280c a0bc 2772 923d ecca 87bc
00000350: 1ab2 7e3d bf72 803d 55a6 99bd f84a a53c
00000360: 7a0f d9bc aab0 f5bc 529c 5d3d 30bf f43c
00000370: c060 a03a 2803 19bc 10d6 ffbc c5e8 39bd
00000380: db4f 9f3d b6b0 033d b437 bd3c bb8e 32bd
00000390: 106c 73bd 1a15 46bd fc03 d43c afea 17bd
000003a0: baa1 3d3d 8edc e7bc bfbe 98bd f5a5 a83d
000003b0: ce7e 0fbd 35ae 1dbd 50e1 99bc b082 153d
000003c0: ecd1 8bbd 1bd4 843d c0ec 34bb 3cba 7fbd
000003d0: 184c b13c 73d6 833d c809 3dbc 7a2c 663d
000003e0: 78f1 fe3c eab8 3cbd a011 39bc 30a3 89bb
000003f0: 04d1 943c f6e4 86bd be60 213d 310a 813d
0.048605822 -0.036523677 0.04775586 -0.08292332 0.08255876 -0.08837262 0.027775362 0.04612676
-0.005738154 0.018394299 0.072004 -0.06266821 -0.00971584 0.023223236 0.035932302 0.05633139
-0.0012310073 -0.08738853 0.007168755 0.054136135 -0.08429142 -0.08036737 0.019068107 -0.08183496
-0.086755596 -0.05895818 -0.034587715 -0.01838871 0.05157753 0.015611067 -0.07016448 0.061880015
-0.067732334 0.027023435 0.038812064 -0.05814814 0.0431943 0.015179612 0.050977953 0.06065128
-0.05304285 0.078265004 -0.04669211 0.080304526 0.078162156 -0.016700245 -0.050393205 0.03162714
0.05270592 0.039261542 -0.030631065 0.055568464 0.0092225075 0.057592787 0.025414757 -0.011313349
-0.0621588 -0.003236264 -0.05077392 -0.06038261 0.07856878 -0.010103442 -0.06988336 0.04994022
0.060477488 0.06764484 -0.011296816 -0.040033635 -0.03278558 -0.047242835 0.054144837 0.012332924
-0.019669853 0.06568519 0.048975535 -0.056641463 -0.022954956 0.069624566 -0.07447891 -0.053729024
-0.01897075 0.058583207 -0.029016357 -0.028792828 0.06570736 0.044395767 0.0039050952 0.043275513
-0.035721876 -0.07214042 -0.0447813 -0.074128084 -0.010270819 -0.010576144 -0.012928441 -0.08066329
0.08049246 -0.00082702935 0.03720332 -0.045619853 -0.058091305 -0.047164295 -0.0125557855 0.0046614856
-0.054905575 0.017488286 0.06615352 -0.054292947 0.032286048 0.06487445 0.08267949 0.0880345
0.048329197 -0.054812577 0.07958541 -0.081824385 -0.015511729 -0.07398543 -0.012831345 0.07802913
-0.010990128 0.06165602 -0.053795774 0.08343538 -0.081771575 0.033292986 0.0787668 0.037359126
-0.017667316 0.016301014 0.053582378 -0.08367107 -0.009692572 -0.007254809 0.02827344 0.06027081
-0.0382136 -0.017536446 0.026408836 -0.024780564 0.02913674 0.05611313 0.0017585978 -0.018057719
0.075060464 0.040939935 -0.05382573 -0.08771381 -0.0666509 0.04228308 -0.020204142 -0.0646808
0.0027790666 0.053919606 -0.01741615 -0.056265924 0.010121599 0.07158025 -0.044729345 -0.002086714
0.059442826 -0.074434966 -0.002767004 -0.026188523 -0.0052260906 0.048239656 0.020814165 0.006361343
-0.038137313 0.04727914 0.011151738 0.050515108 0.018956505 0.07643434 -0.0738778 0.0018058941
-0.002064988 -0.00064795464 0.015199564 0.08189472 0.019685991 -0.062767245 0.017025054 0.020182975
-0.05193966 -0.058710992 0.059082814 0.029529475 -0.0204416 -0.032343827 0.079410635 0.0690381
-0.030656226 -0.08418977 -0.04090735 0.037324645 -0.06586267 -0.054692216 0.033522546 -0.022663817
-0.036333796 -0.043323565 -0.008753784 0.01745227 0.08532662 -0.059091102 0.018236175 -0.051118143
0.027059056 -0.019537047 0.07150679 -0.016576253 0.06218157 0.06271886 -0.075024284 0.02017735
-0.026496638 -0.029991467 0.054104157 0.029876322 0.0012235865 -0.009339131 -0.031230003 -0.045388002
0.07778903 0.032150947 0.02309785 -0.04359315 -0.05942923 -0.048359968 0.025880806 -0.037089046
0.046296813 -0.02830341 -0.07458257 0.08234779 -0.03503304 -0.038496215 -0.018784195 0.036501586
-0.06827149 0.064857684 -0.0027606934 -0.062433466 0.02164273 0.06437387 -0.011537977 0.05619476
0.031121 -0.046074785 -0.011295706 -0.0042003617 0.018166073 -0.065866396 0.0393989 0.06300772

net.2.bias f4 [128]
00000000: 9c07 aebc 1749 67bd e054 94bd fb31 933d
00000010: 71a5 9e3d 40ec 94bb c3a0 a4bd e0a9 953b
00000020: de53 6ebd 3dc1 813d 36c5 95bd c674 253d
00000030: efb7 9bbd 202e 03bb 00b1 773c 30b6 02bc
00000040: 6df5 933d 03bc b23d 9000 973b 700d 69bc
00000050: 88c7 c2bc b4d3 e83c 15c4 9f3d f1c5 80bd
00000060: eea8 9bbd d0b0 89bb a458 92bc 90f3 9f3b
00000070: 61f1 8a3d 40f7 aabc e091 413c 028b 523d
00000080: 5933 a93d d04d e2bc 0abd a2bd c22c 8cbd
00000090: aeb5 4e3d 88f1 b0bd 881c 79bc 3a55 adbd
000000a0: 6047 59bb 80f1 343c 0079 78bb 364e 3e3d
000000b0: ca70 e7bc c215 1bbd 206e 91bc 1768 99bd
000000c0: 0058 8bbd 4afe 93bd 9125 863d 8a96 6b3d
000000d0: 164e 62bd 1808 6cbc d0ea 2dbd 00ab 9abc
000000e0: 6078 823b e6de 6e3d 80d6 89bb 8419 93bd
000000f0: eddf 8e3d ac4b e1bc 190f aa3d 8451 92bc
00000100: d18b acbd 48a3 14bd 31cc 95bd 5030 753c
00000110: 60bc 94bc 6bcc a53d a8cc cb3c 8349 01bd
00000120: d4ec afbc 6020 15bd 3eff 98bd 1c30 86bd
00000130: 74ec ba3c ffc9 95bd 187a 8ebd a0fe e73c
00000140: 26dd 1e3d 80a6 a9bb 80ba 0b3a a936 1dbd
00000150: 8d69 8f3d a36b a53d 4947 9b3d 2010 55bc
00000160: 8e9f 553d 3024 8dbb 2755 a73d cc8c a03c
00000170: f801 c1bc 7abc 793d b639 9fbd 8d1a a63d
00000180: f007 a43c 85c1 54bd fa41 5f3d 404f 29bc
00000190: ebb7 5ebd ff5d 25bd d075 073c 6281 783d
000001a0: d55d 8c3d 00d4 393a f090 8abc 002c e23a
000001b0: a486 d93c 6bc7 9bbd 59fb 08bd 6a2d a2bd
000001c0: 8b9c a6bd 4e96 fdbc c69c b1bd 9da2 41bd
000001d0: e119 b33d 3cd2 943c 861f 663d 7207 dbbc
000001e0: 32af 57bd 5204 89bd b860 113c b921 2abd
000001f0: eea5 6dbd 6956 ab3d bb6f a83d 00f5 16ba
-0.021243863 -0.05646619 -0.07242751 0.071872674 0.07746399 -0.0045447648 -0.08038475 0.00456737
-0.05818545 0.063356854 -0.073130056 0.040394567 -0.07603442 -0.0020016506 0.015117884 -0.007978007
0.07224546 0.08727267 0.0046082214 -0.014224395 -0.023776785 0.02842126 0.078010716 -0.06287754
-0.0760058 -0.004201986 -0.017864533 0.00488133 0.067843206 -0.020869851 0.0118145645 0.0514021
0.08261747 -0.027624995 -0.079462126 -0.068444744 0.050466232 -0.086398184 -0.015204556 -0.08463521
-0.0033154115 0.011043906 -0.0037913918 0.046461307 -0.028252024 -0.037862547 -0.017752707 -0.07490557
-0.06803894 -0.07226236 0.06550134 0.057516612 -0.05525025 -0.014406227 -0.042460263 -0.018880367
0.003981635 0.05831804 -0.0042064786 -0.07182601 0.06976304 -0.027501903 0.08303661 -0.017861135
-0.08425105 -0.03628853 -0.07314337 0.014965132 -0.01815623 0.0809563 0.024877861 -0.031564247
-0.021475233 -0.03640783 -0.074705586 -0.06552145 0.022817828 -0.07313918 -0.06956881 0.028319657
0.038785122 -0.005177319 0.000533022 -0.038382206 0.07002554 0.08077171 0.07581956 -0.013004333
0.052154116 -0.0043072924 0.081705384 0.019598387 -0.02356051 0.06097076 -0.07774679 0.08110533
0.020023316 -0.051942367 0.05450628 -0.010333836 -0.054374617 -0.040372845 0.008267835 0.060670264
0.068538345 0.00070887804 -0.016914815 0.0017255545 0.02655346 -0.07606395 -0.03344283 -0.07918818
-0.08135327 -0.03095546 -0.0867248 -0.04727422 0.087451704 0.018166654 0.056182407 -0.026736949
-0.052657314 -0.06690277 0.008873157 -0.041536067 -0.05801957 0.08366091 0.08224436 -0.0005758554
