dqn_agent_last.pth (torch, 22633 bytes, 6 tensors)

net.0.weight f4 [64, 6]
0.039618045 -0.10425326 -0.007622063 -0.12700161 -0.17415488 -0.20849903 -2.9221058 2.3428528
3.2247262 0.03458921 0.22966534 -6.492946 0.13207895 -1.3786669 1.5080973 2.1928713
0.39166933 10.476011 1.9423306 1.2482945 -2.2419386 0.050264407 -0.06235829 -3.1166859
-0.48208573 2.6681952 0.033066 3.1723888 0.2805339 1.939432 3.700535 7.3381076
-1.4369948 -3.0727186 0.2749228 3.9442294 0.42710346 -1.0258733 -2.431682 0.55418915
0.17110002 11.872768 4.983626 4.1536684 -1.5346031 -2.2308283 -0.073993534 0.6135026
-12.634376 -0.5307304 2.3833835 -2.0971694 -0.14914185 -6.2347794 0.19398178 0.10066339
-0.123079985 -0.36222327 -0.37111145 -0.3074134 -3.1138356 -3.1808352 1.0660973 0.27605838
-0.29007387 -12.148377 -6.0995045 -7.63164 0.28380543 -0.3885763 0.10067433 -3.3982518
-0.07775263 0.15139352 -0.12523788 0.24382834 -0.40579438 -0.046901606 -5.2136974 -1.3322946
1.3530979 -0.22091526 0.023100227 -2.2343276 0.5097316 -8.368618 2.522341 2.3694985
0.018803567 -8.127126 0.7746489 1.1837386 -0.25055003 1.9811295 -0.22827539 -15.110241
-1.920799 0.6542622 1.5439787 1.3132764 0.12195349 2.42228 -4.8688545 -2.9619076
-0.20528604 1.8397971 -0.26460928 -11.266483 1.2581992 0.2908303 -1.0497825 2.1015232
0.38083392 5.4758296 3.298061 4.9523892 -1.8554275 -1.2598395 -0.02124703 -0.53724056
-11.044021 0.87314546 0.60862434 -1.0100086 0.028946042 -0.13574637 8.183587 4.792858
-2.030407 -1.2840186 0.063337654 7.3173084 -5.4170427 0.6988105 2.5336857 1.0315026
0.24899685 -10.060908 -2.9678226 -3.1243858 1.6210198 2.7462897 -0.24558249 6.106134
0.061353594 0.05627325 0.02266699 0.1268698 0.18900311 -0.07830751 3.5779495 5.3857546
-1.424959 -2.5649564 0.35746324 -1.1247628 -2.845512 -4.98933 1.8056947 -1.8293056
-0.20662603 5.0897727 7.585539 1.1549855 -2.1521144 -1.2774242 0.20514601 2.0185363
1.5282547 1.0180281 -1.3011734 2.6576023 0.012057394 -10.604677 0.12877986 3.6785402
1.7123904 -0.7467372 -0.07828471 -6.198756 0.06656984 0.11320343 0.24809594 0.04216358
0.08591467 -0.12392742 6.597666 2.1866639 0.122446924 2.0461478 -0.23131426 -3.660847
1.819333 -2.583225 -0.1890372 1.0111947 0.2139728 -12.620677 5.3763676 1.0234997
-0.23074067 -2.472215 0.20299053 -2.2526653 -0.84857845 -2.016088 1.1758533 0.77284837
0.27099591 -10.793362 -4.6569896 0.13521706 -0.15695369 0.17095652 -0.090803415 -7.3196235
1.1629981 -7.3585267 -0.09496888 0.13279925 0.3477012 4.499983 -2.7663906 -1.462846
0.31677 2.166795 0.12380797 11.641643 0.02323553 -0.079157144 0.12956423 -0.39020783
-0.2864302 -0.38996595 -3.0189142 0.7981777 2.6267128 0.019541208 0.024959654 -7.1546397
2.4268658 0.17128386 -3.2642543 0.26363534 -0.16112249 10.532848 0.8759019 -1.1422502
3.3782868 1.5784616 0.2062825 -1.5700258 -4.151702 5.06852 1.1528105 4.3106437
00000000: 8846 223d bc82 d5bd 80c2 f9bb b60c 02be
00000010: a855 32be c580 55be c803 3bc0 4df1 1540
00000020: ea61 4e40 6aad 0d3d 642d 6b3e 37c6 cfc0
00000030: b43f 073e 2878 b0bf 5509 c13f 0158 0c40
00000040: e288 c83e be9d 2741 4a9e f83f 1dc8 9f3f
00000050: ec7b 0fc0 0de2 4d3d 686b 7fbd c877 47c0
00000060: f1d3 f6be b6c3 2a40 3770 073d 6b08 4b40
00000070: 24a2 8f3e 4f3f f83f 91d5 6c40 c7d1 ea40
00000080: 72ef b7bf 6ca7 44c0 aec2 8c3e 416e 7c40
00000090: 4ead da3e d14f 83bf aea0 1bc0 57df 0d3f
000000a0: d834 2f3e dcf6 3d41 dd79 9f40 daea 8440
000000b0: e06d c4bf e4c5 0ec0 ec89 97bd 820e 1d3f
000000c0: 6726 4ac1 f3dd 07bf 5b89 1840 0638 06c0
000000d0: a4b8 18be 5083 c7c0 29a3 463e 9b28 ce3d
000000e0: 5c11 fcbd 5475 b9be 5202 bebe 4a65 9dbe
000000f0: 1549 47c0 ce92 4bc0 e075 883f 8657 8d3e
00000100: 9084 94be c15f 42c1 242f c3c0 6536 f4c0
00000110: f24e 913e 79f3 c6be 582e ce3d f57c 59c0
00000120: c53c 9fbd e706 1b3e 5c3e 00be 23ae 793e
00000130: 48c4 cfbe e61b 40bd 9cd6 a6c0 a188 aabf
00000140: 5032 ad3f 9c37 62be b03c bd3c 39ff 0ec0
00000150: c57d 023f dce5 05c1 096e 2140 dda5 1740
00000160: f009 9a3c b508 02c1 644f 463f bf84 973f
00000170: 1848 80be a795 fd3f 06c1 69be 8cc3 71c1
00000180: bedc f5bf ba7d 273f 18a1 c53f 7119 a83f
00000190: c0c2 f93d a306 1b40 a8cd 9bc0 e58f 3dc0
000001a0: 8136 52be 797e eb3f de7a 87be 8443 34c1
000001b0: ac0c a13f b6e7 943e 465f 86bf 5b7f 0640
000001c0: aafc c23e ff39 af40 6e13 5340 f979 9e40
000001d0: a67e edbf 6c42 a1bf 400e aebc 9988 09bf
000001e0: 4fb4 30c1 7686 5f3f cece 1b3f f647 81bf
000001f0: 4020 ed3c 1901 0bbe f9ef 0241 185f 9940
00000200: 30f2 01c0 b95a a4bf 2cb7 813d 6427 ea40
00000210: 6a58 adc0 3fe5 323f e827 2240 4708 843f
00000220: 08f9 7e3e 7bf9 20c1 cef0 3dc0 f0f5 47c0
00000230: 947d cf3f 36c3 2f40 fa79 7bbe 7365 c340
00000240: e84d 7b3d c87e 663d 20b0 b93c 28ea 013e
00000250: 088a 413e b05f a0bd 20fd 6440 1a58 ac40
00000260: 0e65 b6bf 3f28 24c0 6c05 b73e 3af8 8fbf
00000270: de1c 36c0 97a8 9fc0 0121 e73f b026 eabf
00000280: c695 53be 6bdf a240 bcbc f240 91d6 933f
00000290: 3ebc 09c0 a382 a3bf cc11 523e b32f 0140
000002a0: da9d c33f bf4e 823f da8c a6bf 2816 2a40
000002b0: 608c 453c c2ac 29c1 dede 033e 346d 6b40
000002c0: 9c2f db3f 2b2a 3fbf bc53 a0bd 365c c6c0
000002d0: c555 883d 33d7 e73d dd0c 7e3e b8b3 2c3d
000002e0: 08f4 af3d a9cd fdbd 1420 d340 4df2 0b40
000002f0: 74c5 fa3d 16f4 0240 a5dd 6cbe 514b 6ac0
00000300: e7df e83f 8f53 25c0 f892 41be d46e 813f
00000310: b01b 5b3e 4bee 49c1 340b ac40 0a02 833f
00000320: 4847 6cbe c538 1ec0 c0dc 4f3e ab2b 10c0
00000330: 703c 59bf 9607 01c0 5c82 963f 64d9 453f
00000340: fabf 8a3e 9cb1 2cc1 0f06 95c0 5776 0a3e
00000350: 78b8 20be 3a0f 2f3e 24f7 b9bd 5b3a eac0
00000360: 1fdd 943f 0d79 ebc0 0b7f c2bd 87fc 073e
00000370: e405 b23e dcff 8f40 8b0c 31c0 8a3e bbbf
00000380: ad2f a23e c5ac 0a40 088f fd3d 2b44 3a41
00000390: 7058 be3c 241d a2bd 7cac 043e 52c9 c7be
000003a0: fba6 92be 9ea9 c7be e435 41c0 6055 4c3f
000003b0: 101c 2840 e214 a03c 3078 cc3c cff2 e4c0
000003c0: c551 1b40 0965 2f3e 8be9 50c0 36fb 863e
000003d0: 4bfd 24be 8c86 2841 1b3b 603f 4135 92bf
000003e0: da35 5840 080b ca3f b83b 533e 9bf6 c8bf
000003f0: beda 84c0 5131 a240 4b8f 933f cbf0 8940

net.0.bias f4 [64]
-0.34174526 0.025023768 0.20822819 1.6125776 0.19280829 1.2374997 0.42961386 -0.03608503
0.052217335 -0.26916382 -0.34013698 -0.28848243 -0.4157419 1.2311461 0.78566825 0.23866387
-0.0400915 0.78326184 -0.29012808 0.83416975 0.71365815 1.5169159 -0.094784275 0.4189183
-0.35249692 0.3592 0.51100326 0.33624434 0.2505614 1.246291 -0.42410183 -0.47937736
0.54138535 0.4275023 0.013609446 -0.21540222 -0.22109474 0.43286657 -0.3971811 0.021182874
-0.45222026 1.1176991 0.25247696 0.21741857 -0.45679483 0.32925043 -0.1220354 -0.2553512
-0.3582887 1.0533376 0.65459377 0.7615266 0.17202467 0.17001761 -0.20637405 0.19712299
0.259218 0.7803313 -0.16660312 0.63908213 -0.24129939 0.5945746 0.31356013 0.35111043
00000000: 3cf9 aebe a5fe cc3c c539 553e f168 ce3f
00000010: 896f 453e 6466 9e3f 59f6 db3e e5cd 13bd
00000020: d8e1 553d d7cf 89be 6f26 aebe f8b3 93be
00000030: 1fdc d4be 3296 9d3f 8e21 493f 4d64 743e
00000040: fc36 24bd d983 483f ab8b 94be 268c 553f
00000050: 4db2 363f 4d2a c23f 421e c2bd 767c d63e
00000060: 7a7a b4be 10e9 b73e 1cd1 023f 3828 ac3e
00000070: 9549 803e 7786 9f3f e023 d9be f370 f5be
00000080: 3b98 0a3f 95e1 da3e 27fa 5e3c 6692 5cbe
00000090: a966 62be b0a0 dd3e 525b cbbe b587 ad3c
000000a0: 6a89 e7be c410 8f3f a944 813e f9a2 5e3e
000000b0: 03e1 e9be 8393 a83e b2ed f9bd 64bd 82be
000000c0: 9e71 b7be c4d3 863f 7593 273f 68f3 423f
000000d0: 3c27 303e 1919 2e3e b853 53be 9cda 493e
000000e0: 39b8 843e cbc3 473f 029a 2abe e39a 233f
000000f0: 3017 77be 0a36 183f f48a a03e bfc4 b33e

net.2.weight f4 [64, 64]
-0.004670918 -6.7665024 1.0824127 -0.66317827 -0.60101753 -6.424338 -0.22393495 -2.661811
-3.335441 0.004275471 1.6552784 0.31224313 0.074068025 -0.59732354 -0.3519581 2.62329
-1.8023881 2.6967463 1.461881 -4.137513 -1.1730154 -3.4338846 -0.8597677 0.10750291
0.07233749 -2.4623127 -0.36047557 -4.0788517 1.7894185 -5.5860085 0.0850342 -1.169489
1.9277176 -4.2987638 -0.14297019 -2.4520633 -1.2403771 0.6496583 0.08471003 -2.0474808
1.2970748 0.43537292 -2.0171468 1.9760796 0.10707876 -0.368076 -0.9318005 0.035152018
-0.837728 3.7115996 -1.1924235 2.0951338 0.88765734 0.67969245 2.271928 0.28165042
0.75124586 0.64388686 -0.039213315 0.9318968 0.16790132 -1.7764975 -4.398412 -0.45751083
0.07745062 0.015295513 -0.072997786 -0.05181012 -0.17567995 -0.12737097 -0.13770552 0.0053288424
0.012922436 0.058305204 0.003751845 -0.09567593 0.08985676 -0.052264053 -0.052858014 -0.15133114
0.05251028 -0.09255417 -0.15458195 -0.033194836 0.00811882 -0.11269213 -0.09404833 -0.1011999
0.08294894 0.026983434 -0.13157208 0.07846896 -0.051722776 -0.076475315 0.009809613 0.005542385
0.009493778 -0.0047107213 -0.10458603 -0.09137028 -0.07805674 -0.041841965 -0.08769189 -0.010677442
-0.041155174 0.022864094 -0.12248247 -0.098640576 0.05302456 -0.014908281 0.06804764 -0.0665635
0.008242049 -0.0671644 -0.08979341 -0.0143820625 0.020518992 -0.1256507 0.04094089 -0.11622817
0.02927625 0.037142806 0.09859738 -0.16355477 0.010811105 -0.026011689 0.10509879 0.047498874
0.09599657 -0.103261285 0.025805842 0.052461665 -0.071472846 0.0608756 -0.083992384 0.042834938
0.014081627 -0.0387398 -0.06603722 -0.13046002 0.11524427 -0.023678387 -0.07930499 0.05670063
0.0018612714 -0.04555174 0.047687087 -0.060523704 -0.10840728 0.08607726 -0.061904576 -0.018205538
0.02112393 -0.013610025 0.042237207 -0.10694585 -0.0076877894 -0.1318061 -0.08117549 -0.08228359
-0.10395442 -0.1469589 -0.05609922 -0.049119994 0.048219338 -0.029398408 -0.03495878 -0.008393266
-0.1173814 -0.087242946 0.024415735 -0.09427829 0.045524374 -0.03327341 0.13214871 -0.09929986
-0.10078796 -0.0045552654 -0.110382885 -0.15911928 0.052655216 0.060155068 -0.016130332 0.059487168
-0.1563856 -0.1490303 -0.06987384 -0.104267284 0.008218236 0.039085038 -0.11602849 0.034926645
-0.09935768 2.3535688 1.0725762 -1.2226427 0.6445898 -3.5542688 -2.2826445 -0.31689394
1.6179719 -0.018635765 1.0965352 -1.6047951 -0.0710824 -0.27087268 0.20056565 -2.0656655
1.4022123 -2.1578805 -0.5186364 -4.057386 1.2041596 -11.204146 1.3887384 1.3091053
-0.024578422 -3.3800855 1.7077167 -14.076785 0.7474016 0.45827127 -0.051529124 -8.107373
-3.9603007 -15.848039 1.0945189 -8.280243 -1.9264965 1.2297871 -0.003747344 1.1777543
-1.0677432 1.2805427 1.034168 0.95660055 -0.08037068 -1.3987929 0.067707606 -0.058259726
-1.047977 -1.3691491 -2.229284 0.7393788 0.052839257 1.0228577 1.203496 1.0180644
0.315991 -3.3210332 -0.027166873 1.1233544 1.3081844 -3.6959894 -1.5041053 1.712406
00000000: 800e 99bb 3087 d8c0 808c 8a3f 0dc6 29bf
00000010: 49dc 19bf 2d94 cdc0 344f 65be 1d5b 2ac0
00000020: de77 55c0 4019 8c3b 2ae0 d33f 55de 9f3e
00000030: fab0 973d 32ea 18bf da33 b4be fce3 2740
00000040: a7b4 e6bf 7e97 2c40 eb1e bb3f 8266 84c0
00000050: 5e25 96bf c4c4 5bc0 bc19 5cbf 7c2a dc3d
00000060: ae25 943d 8896 1dc0 4190 b8be f485 82c0
00000070: aa0b e53f 95c0 b2c0 6926 ae3d d1b1 95bf
00000080: 73bf f63f 798f 89c0 c766 12be 9bee 1cc0
00000090: adc4 9ebf 0250 263f 747c ad3d ed09 03c0
000000a0: 8c06 a63f 33e9 de3e ef18 01c0 2df0 fc3f
000000b0: 1c4c db3d 7574 bcbe 7a8a 6ebf 90fb 0f3d
000000c0: 5875 56bf d98a 6d40 55a1 98bf ac16 0640
000000d0: 833d 633f 5300 2e3f 4567 1140 7c34 903e
000000e0: a651 403f c5d5 243f 249e 20bd ca90 6e3f
000000f0: 53ee 2b3e 4564 e3bf cbbf 8cc0 dc3e eabe
00000100: 6e9e 9e3d 089a 7a3c dd7f 95bd d936 54bd
00000110: 72e5 33be 896d 02be ad02 0dbe 929d ae3b
00000120: a0b8 533c 70d1 6e3d 84e1 753b bef1 c3bd
00000130: d206 b83d d512 56bd a581 58bd 8df6 1abe
00000140: 0515 573d 0a8d bdbd bb4a 1ebe 4ff7 07bd
00000150: cd04 053c 22cb e6bd 699c c0bd e541 cfbd
00000160: 22e1 a93d 5d0c dd3c d5ba 06be 56b4 a03d
00000170: 43db 53bd 179f 9cbd 80b8 203c e59c b53b
00000180: cb8b 1b3c 655c 9abb 3331 d6bd 5720 bbbd
00000190: 36dc 9fbd 7b62 2bbd ce97 b3bd 70f0 2ebc
000001a0: 5492 28bd 7b4d bb3c 17d8 fabd 1204 cabd
000001b0: 4830 593d dd41 74bc 905c 8b3d 7252 88bd
000001c0: a909 073c 7d8d 89bd 9be5 b7bd bea2 6bbc
000001d0: 7217 a83c 94aa 00be a2b1 273d 0909 eebd
000001e0: bfd4 ef3c 0e23 183d 6ced c93d e77a 27be
000001f0: 1021 313c 7716 d5bc 093e d73d 2e8e 423d
00000200: da99 c43d a77a d3bd c666 d33c 0be2 563d
00000210: 5b60 92bd b158 793d 3304 acbd b073 2f3d
00000220: a0b6 663c a0ad 1ebd 863e 87bd 5097 05be
00000230: 3005 ec3d 2df9 c1bc a86a a2bd eb3e 683d
00000240: e8f5 f33a 7694 3abd 8953 433d b4e7 77bd
00000250: a304 debd 4649 b03d a78f 7dbd c823 95bc
00000260: 180c ad3c 95fc 5ebc ec00 2d3d 6d06 dbbd
00000270: dae9 fbbb 2ef8 06be 563f a6bd 4d84 a8bd
00000280: 0ee6 d4bd 657c 16be 4cc8 65bd 0c32 49bd
00000290: a481 453d eed4 f0bc f030 0fbd e983 09bc
000002a0: a965 f0bd 6eac b2bd 8203 c83c fa14 c1bd
000002b0: c477 3a3d b349 08bd fe51 073e ba5d cbbd
000002c0: eb69 cebd 5644 95bb 6c10 e2bd 2af0 22be
000002d0: ffac 573d 2965 763d c223 84bc d1a8 733d
000002e0: 8c23 20be 669b 18be 041a 8fbd 168a d5bd
000002f0: c8a5 063c a217 203d 58a0 edbd 3e0f 0f3d
00000300: 0a7c cbbd dfa0 1640 2d4a 893f 8e7f 9cbf
00000310: d603 253f 2479 63c0 d916 12c0 ec3f a2be
00000320: b419 cf3f 08aa 98bc 445b 8c3f ed69 cdbf
00000330: a693 91bd d3af 8abe 1561 4d3e dd33 04c0
00000340: b17b b33f b71a 0ac0 5bc5 04bf 1bd6 81c0
00000350: e721 9a3f 2f44 33c1 2ec2 b13f c390 a73f
00000360: b058 c9bc 5253 58c0 7696 da3f 833a 61c1
00000370: b655 3f3f 88a2 ea3e 3410 53bd cdb7 01c1
00000380: 9175 7dc0 9191 7dc1 3219 8c3f e07b 04c1
00000390: 7097 f6bf aa69 9d3f 0096 75bb a7c0 963f
000003a0: cfab 88bf d3e8 a33f 9e5f 843f c6e3 743f
000003b0: 6299 a4bd a50b b3bf 49aa 8a3d c0a1 6ebd
000003c0: 1c24 86bf 4740 afbf 97ac 0ec0 ee47 3d3f
000003d0: fa6d 583d 00ed 823f 280c 9a3f ef4f 823f
000003e0: 93c9 a13e cf8b 54c0 108d debc 14ca 8f3f
000003f0: 9672 a73f 178b 6cc0 8686 c0bf 1f30 db3f

net.2.bias f4 [64]
-0.6929026 -0.14057669 0.052948024 0.5418863 0.36495 -1.5741737 -0.13662009 -0.38550004
0.0677664 -0.1273677 2.432908 -1.1053363 -0.08937392 0.2771546 0.4558345 -1.5530834
0.37668973 0.54890984 0.76645285 -0.5313702 -0.5288127 -0.07810895 -0.114313066 0.065844476
-0.38266405 -0.09176235 -0.14960748 -0.13432465 -0.7556644 -0.10900687 0.13610683 -0.88658947
-0.6341139 0.21674159 -1.2435389 -0.37482232 -0.75937235 0.23537958 -1.4171401 -1.6253252
-1.3454994 0.3579807 -0.015487263 -0.50250727 -0.123825796 0.12542228 -0.38276574 -0.17206886
0.3967031 0.46602756 -0.10012829 0.09806908 0.20192131 -0.48246178 -0.7430711 -0.053760666
0.01161819 -0.10843544 -0.12999468 -0.11027915 -0.5568422 -0.119553566 1.0242107 -0.020021671
00000000: 1162 31bf 56f3 0fbe 07e0 583d 10b9 0a3f
00000010: bada ba3e 867e c9bf 23e6 0bbe 4360 c5be
00000020: 1cc9 8a3d ae6c 02be c4b4 1b40 a97b 8dbf
00000030: ac09 b7bd 35e7 8d3e 2463 e93e 70cb c6bf
00000040: 7add c03e 5b85 0c3f 4136 443f e107 08bf
00000050: 4560 07bf 96f7 9fbd f81c eabd 78d9 863d
00000060: 8bec c3be e6ed bbbd b432 19be 678c 09be
00000070: 3973 41bf fe3e dfbd 975f 0b3e 87f7 62bf
00000080: 4a55 22bf 82f1 5d3e 482c 9fbf b6e8 bfbe
00000090: 3a66 42bf 5807 713e d964 b5bf a80a d0bf
000000a0: 5339 acbf 3f49 b73e 4abe 7dbc 51a4 00bf
000000b0: 6198 fdbd b36e 003e dff9 c3be d232 30be
000000c0: ab1c cb3e 2a9b ee3e 1010 cdbd 71d8 c83d
000000d0: 76c4 4e3e 3b05 f7be e839 3ebf 2534 5cbd
000000e0: 395a 3e3c 6613 debd 531d 05be 09da e1bd
000000f0: 368d 0ebf 80d8 f4bd 5619 833f 7d04 a4bc

net.4.weight f4 [4, 64]
-3.2191122 -0.106215626 0.059948895 -0.66745824 -0.82831883 1.5119711 0.021800827 1.9230912
1.358541 0.02369698 1.2537502 -0.9393058 -2.266506 1.8387227 1.1546258 -1.0985729
0.2862477 1.9347737 -0.2327194 0.15994194 -0.122795664 0.09935874 0.008289009 -0.036707535
0.873406 -0.02202551 0.08570911 0.06921739 3.2443273 0.10176432 -1.2618821 -0.19794518
0.6236479 -1.6918817 -1.2030225 0.4816325 -0.37601802 3.3541236 -1.5089936 0.10826602
-3.0289376 0.7474511 -0.08077659 1.0079141 0.011838265 7.552292 -0.8013958 -0.013859571
-0.38939038 0.01873712 -0.99720806 2.3968654 1.7519633 -0.7184215 -0.14124888 -0.5541667
0.5091413 0.07192789 0.009524822 -0.07244784 12.048277 -0.016847324 -0.007036115 -0.022876587
-6.1586175 0.16975199 0.07998163 -0.8716416 -1.7024264 -1.2582521 0.00037013067 1.0366328
0.6292886 0.14289297 -5.739172 -5.199306 -7.7662287 1.0057107 -7.7399135 -0.824246
-5.1644707 -2.8240042 -3.5006964 -3.1887212 -0.22635211 0.1161164 0.05439143 0.034515217
-2.5961237 0.10506496 0.06087017 0.016268807 0.9051894 -0.020511374 -3.7609446 2.04778
-1.9080155 -5.5992 1.7942215 -4.2723017 -7.1566615 -2.6545799 -5.008199 -1.2055213
0.81240934 -5.37533 0.101324365 -0.30107677 0.001425147 -0.33339742 -1.6841073 -0.0037444
-5.376119 -4.4961615 -1.9461898 0.56902146 1.5953342 4.7055593 -3.469654 -5.5102897
-3.9050481 0.009737974 -0.117943004 -0.027663052 18.048813 0.09121849 -1.076899 0.11109571
-0.32919934 -0.08528186 0.083577685 -1.0139209 1.2521689 0.26081252 0.0078320205 2.124096
3.0578616 -0.029112788 0.6889051 -1.0933014 -2.9064672 1.3737974 0.1917693 0.25129223
0.27068862 -1.4188751 -0.7162963 -0.2861546 1.0850534 0.031710885 0.026605725 -0.002255893
0.8667202 0.049954325 -0.111446254 -0.08168374 2.3042004 0.00696312 -0.55083954 2.0770297
0.38697806 0.17377 -2.110712 -0.8865762 -0.4276185 1.3604895 1.1432761 1.414722
-1.0014344 0.051569074 -0.016412837 0.83173937 0.063873895 2.7787158 -0.53704727 -0.05985402
0.1492855 -0.25294903 -1.1873544 1.9640089 0.4222697 0.5313905 0.50556135 -0.75850004
0.49228048 -0.044209823 0.08195241 -0.031197533 16.9902 -0.015315846 -0.33545536 -0.095317885
2.5091794 0.08104087 0.051853076 4.994571 5.1605673 -5.736797 -0.075435124 0.73782057
0.1492386 -0.012253589 -3.5556183 -3.370045 -3.068839 1.6787299 -2.1372046 -3.2282345
8.47683 3.1519275 -2.6315775 -7.6269054 -6.3265014 -0.059481066 0.0083311 -0.06341176
1.276354 -0.032527655 -0.003287944 0.020376239 -4.1590743 0.08476434 -1.450239 1.7955916
-0.4913986 -1.8324604 -0.9471698 1.5906917 -0.98471624 4.3178287 -5.761977 -4.3821483
-1.6225374 2.8715293 0.027014062 -8.66201 0.04130204 8.457085 0.23244067 0.052913975
0.88921565 6.9219413 -1.6498171 2.4963489 1.27342 -2.9758723 -2.3189926 4.2599845
-0.59101784 -0.0043609063 -0.09519908 -0.03555335 -4.0576305 -0.025481846 -6.162312 0.08794193
00000000: ef05 4ec0 9487 d9bd f98c 753d 8bde 2abf
00000010: b40c 54bf 4588 c13f a697 b23c da27 f63f
00000020: ace4 ad3f 2b20 c23c e37a a03f 5876 70bf
00000030: 6f0e 11c0 445b eb3f c7ca 933f 099e 8cbf
00000040: 0f8f 923e aaa6 f73f ff4d 6ebe d2c7 233e
00000050: 4b7c fbbd 987c cb3d a0ce 073c a45a 16bd
00000060: 8997 5f3f d86e b4bc 4288 af3d d9c1 8d3d
00000070: 0fa3 4f40 d069 d03d 5a85 a1bf 24b2 4abe
00000080: 64a7 1f3f 948f d8bf a4fc 99bf 8998 f63e
00000090: 6f85 c0be f6a9 5640 b426 c1bf 93ba dd3d
000000a0: 1dda 41c0 f558 3f3f 326e a5bd 5403 813f
000000b0: 48f5 413c 60ac f140 4628 4dbf 4113 63bc
000000c0: 2d5e c7be 977e 993c 0749 7fbf 3e66 1940
000000d0: 5540 e03f 79ea 37bf 8ca3 10be dedd 0dbf
000000e0: 1657 023f ee4e 933d 000e 1c3c 885f 94bd
000000f0: bec5 4041 6603 8abc 368f e6bb ae67 bbbc
00000100: 6513 c5c0 77d3 2d3e 69cd a33d e723 5fbf
00000110: 1ce9 d9bf 680e a1bf 190e c239 62b0 843f
00000120: 0f19 213f 8952 123e 4ca7 b7c0 b760 a6c0
00000130: f284 f8c0 21bb 803f 5fad f7c0 c901 53bf
00000140: 5843 a5c0 7cbc 34c0 690b 60c0 0214 4cc0
00000150: d9c8 67be 6fce ed3d 8cc9 5e3d d45f 0d3d
00000160: e426 26c0 4c2c d73d 0053 793d 2946 853c
00000170: 7eba 673f 7807 a8bc 51b3 70c0 d40e 0340
00000180: da39 f4bf a52c b3c0 0da9 e53f b2b6 88c0
00000190: 5f03 e5c0 a3e4 29c0 2b43 a0c0 864e 9abf
000001a0: 0ffa 4f3f b402 acc0 2683 cf3d bc26 9abe
000001b0: 00cc ba3a 11b3 aabe d490 d7bf 9c64 75bb
000001c0: 2b09 acc0 8ee0 8fc0 bf1c f9bf 64ab 113f
000001d0: e933 cc3f f193 9640 d00e 5ec0 4b54 b0c0
000001e0: 4fec 79c0 068c 1f3c 1a8c f1bd a09d e2bc
000001f0: f863 9041 c2d0 ba3d d4d7 89bf 2686 e33d
00000200: d18c a8be 41a8 aebd c72a ab3d 29c8 81bf
00000210: 1247 a03f 3889 853e e051 003c 30f1 0740
00000220: 01b4 4340 f17d eebc 165c 303f 4df1 8bbf
00000230: 8f03 3ac0 98d8 af3f 2c5f 443e 60a9 803e
00000240: b397 8a3e b39d b5bf 325f 37bf db82 92be
00000250: 08e3 8a3f 46e3 013d 40f4 d93c 9bd7 13bb
00000260: 60e1 5d3f e89c 4c3d ef3d e4bd ce49 a7bd
00000270: 0578 1340 e22a e43b d203 0dbf 0eee 0440
00000280: fd21 c63e c3f0 313e e815 07c0 a8f6 62bf
00000290: d0f0 dabe 8524 ae3f df56 923f 9c15 b53f
000002a0: 012f 80bf 183a 533d 3774 86bc dfec 543f
000002b0: 51d0 823d 7bd6 3140 ee7b 09bf 7d29 75bd
000002c0: 4cde 183e 8982 81be 3bfb 97bf a564 fb3f
000002d0: bc33 d83e 3509 083f 786c 013f 0f2d 42bf
000002e0: 300c fc3e 5c15 35bd aad6 a73d f891 ffbc
000002f0: eeeb 8741 50ef 7abc cec0 abbe 0636 c3bd
00000300: 6596 2040 c1f8 a53d e463 543d 87d3 9f40
00000310: 5e23 a540 d793 b7c0 bb7d 9abd cfe1 3c3f
00000320: 01d2 183e 47c3 48bc 408f 63c0 d1ae 57c0
00000330: dc67 44c0 9fe0 d63f f6c7 08c0 659b 4ec0
00000340: 18a1 0741 2eb9 4940 c46b 28c0 9c0f f4c0
00000350: b372 cac0 6ba2 73bd 2b7f 083c 06de 81bd
00000360: 915f a33f b83b 05bd 8c7a 57bb 12ec a63c
00000370: 2317 85c0 ed98 ad3d 6ea1 b9bf f2d5 e53f
00000380: 9998 fbbe 108e eabf b879 72bf c99b cb3f
00000390: 5d16 7cbf a72b 8a40 1e62 b8c0 8f3a 8cc0
000003a0: 4eaf cfbf 23c7 3740 984c dd3c 9897 0ac1
000003b0: 542c 293d 3850 0741 ed04 6e3e 53bc 583d
000003c0: a3a3 633f 8b80 dd40 352d d3bf 2ec4 1f40
000003d0: 6dff a23f b174 3ec0 606a 14c0 cb51 8840
000003e0: f24c 17bf efe5 8ebb bcf7 c2bd 64a0 11bd
000003f0: 1cd8 81c0 4ebf d0bc a931 c5c0 e61a b43d

net.4.bias f4 [4]
2.3564007 -0.55404425 -0.6451911 0.0976216
00000000: 45cf 1640 d8d5 0dbf 3e2b 25bf d5ed c73d
