dqn_agent_best.pth (torch, 22633 bytes, 6 tensors)

net.0.weight f4 [64, 6]
0	0x3d224688	0.039618045
1	0xbdd582bc	-0.10425326
2	0xbbf9c280	-0.007622063
3	0xbe020cb6	-0.12700161
4	0xbe3255a8	-0.17415488
5	0xbe5580c5	-0.20849903
6	0xbf857e20	-1.0429115
7	0xbf781233	-0.9690277
8	0x3f333018	0.6999526
9	0x3f24f897	0.6444182
10	0x3e6b2d64	0.22966534
11	0xc030c313	-2.7619064
12	0x3e82cb1b	0.25545582
13	0xbed9a121	-0.42505744
14	0x3f670a23	0.9024984
15	0x3f484fe9	0.78246933
16	0x3ec888e2	0.39166933
17	0x40185134	2.3799562
18	0xbe1ffa87	-0.15622912
19	0x3e45253e	0.19252488
20	0xbf7f83eb	-0.99810666
21	0x3c46a053	0.012123185
22	0xbd7f6b68	-0.06235829
23	0xbfdae71f	-1.7101783
24	0xbe730a07	-0.23734294
25	0xbf559d9b	-0.8344361
26	0x3f8428f9	1.0325004
27	0x3f5d97db	0.8655984
28	0x3e8fa224	0.2805339
29	0xbe7530a7	-0.2394434
30	0x3fb3c26e	1.404371
31	0x402ac58e	2.6683078
32	0xbf37be17	-0.7177443
33	0xbf317b5b	-0.6932885
34	0x3e8cc2ae	0.2749228
35	0x3f934edd	1.1508442
36	0x3f2afa2f	0.66788
37	0x3ef5a986	0.479809
38	0xbfc9ac65	-1.5755736
39	0x3f770ac0	0.9650078
40	0x3e2f34d8	0.17110002
41	0x401404e6	2.312799
42	0x401341b3	2.300885
43	0x4002877e	2.0395198
44	0xbf210b1c	-0.62907577
45	0xbecc780e	-0.39935344
46	0xbd9789ec	-0.073993534
47	0x3fac83ef	1.3477763
48	0xbfdbea6c	-1.7180915
49	0xbf042b09	-0.51628166
50	0x3ecf9a44	0.40547383
51	0xbe0e561e	-0.13900039
52	0xbe18b8a4	-0.14914185
53	0xbd79e348	-0.061007768
54	0x3e46a329	0.19398178
55	0x3dce289b	0.10066339
56	0xbdfc115c	-0.123079985
57	0xbeb97554	-0.36222327
58	0xbebe0252	-0.37111145
59	0xbe9d654a	-0.3074134
60	0xbf6d498d	-0.92690355
61	0xbdbc83b7	-0.0920481
62	0x3f49a3c3	0.78765506
63	0xbde34f3b	-0.110990964
64	0xbe948490	-0.29007387
65	0xc0290e2a	-2.6414895
66	0xbfac6e4e	-1.3471162
67	0xc017c189	-2.3711874
68	0x3f44de76	0.7690195
69	0x3f4bc35a	0.7959496
70	0x3dce2e58	0.10067433
71	0xbfdf64b1	-1.7452604
72	0xbd9f3cc5	-0.07775263
73	0x3e1b06e7	0.15139352
74	0xbe003e5c	-0.12523788
75	0x3e79ae23	0.24382834
76	0xbecfc448	-0.40579438
77	0xbd401be6	-0.046901606
78	0xc03017d0	-2.7514534
79	0xc011914e	-2.2744937
80	0x3f0893a7	0.533503
81	0x3e9c7f72	0.30565983
82	0x3cbd3cb0	0.023100227
83	0xc08db12a	-4.4278765
84	0x3e117e23	0.14208274
85	0xbf08baa5	-0.53409797
86	0x3f5b13a4	0.85576844
87	0x3f4421c1	0.76614004
88	0x3c9a09f0	0.018803567
89	0xbf95d7e0	-1.1706505
90	0x3f8d99ff	1.1062621
91	0x3ec76460	0.38943768
92	0xbe7c6e4d	-0.24651451
93	0x3f569fdc	0.83837676
94	0xbe69c106	-0.22827539
95	0xbffdcb8c	-1.9827743
96	0xbedbf6ba	-0.42961675
97	0xbf081b38	-0.5316653
98	0x3f89e876	1.0774066
99	0x3f447318	0.7673812
100	0x3df9c2c0	0.12195349
101	0xbd8a7ca2	-0.06762053
102	0xbe086a24	-0.1332174
103	0xbf1fdf85	-0.6245044
104	0x3f563fb4	0.83690953
105	0x3f6916b0	0.91050243
106	0xbe877ade	-0.26460928
107	0xc01da7ca	-2.463366
108	0x3f8e47aa	1.111562
109	0x3ee914da	0.4552372
110	0xbf6fa007	-0.9360356
111	0x3f5d89ae	0.8653821
112	0x3ec2fcaa	0.38083392
113	0x3f930da8	1.1488543
114	0x401ba500	2.4319458
115	0x3fd319cc	1.6492248
116	0xbf2cbc40	-0.67474747
117	0xbf38a9cf	-0.7213411
118	0xbcae0e40	-0.02124703
119	0x3f338ab1	0.701335
120	0xbffac618	-1.9591703
121	0xbf4aa383	-0.7915575
122	0x3f510033	0.8164093
123	0x3ebf732e	0.37392563
124	0x3ced2040	0.028946042
125	0xc0481eba	-3.1268754
126	0x4027b187	2.6202104
127	0x40345c49	2.8181326
128	0xbf4012d4	-0.7502873
129	0xbf39a294	-0.725137
130	0x3d81b72c	0.063337654
131	0x3fea6ce0	1.8314476
132	0xbee3bc9b	-0.44479832
133	0xbe45d462	-0.19319299
134	0x3f6e2156	0.93019617
135	0xbf968626	-1.1759689
136	0x3e7ef908	0.24899685
137	0xbfcd92af	-1.6060389
138	0xbebc3465	-0.36758724
139	0xbf6cb2e2	-0.92460454
140	0x3f709e62	0.93991673
141	0x3f000dc3	0.50021
142	0xbe7b79fa	-0.24558249
143	0x3f1ae338	0.6050296
144	0x3d7b4de8	0.061353594
145	0x3d667ec8	0.05627325
146	0x3cb9b020	0.02266699
147	0x3e01ea28	0.1268698
148	0x3e418a08	0.18900311
149	0xbda05fb0	-0.07830751
150	0x401d0a9f	2.4537733
151	0x3fd89688	1.6920938
152	0xbf2bb2f9	-0.67069966
153	0xbf389de7	-0.7211594
154	0x3eb7056c	0.35746324
155	0x3f2fd867	0.6868958
156	0x3de383da	0.11109133
157	0xbf93ae49	-1.1537563
158	0x3f42074f	0.757924
159	0x3f86eec4	1.0541615
160	0xbe5395c6	-0.20662603
161	0x3e8120c3	0.25220308
162	0x4026e7d7	2.6079004
163	0x3ff38931	1.9026242
164	0xbf0e6740	-0.55626297
165	0xbf0e3e98	-0.5556426
166	0x3e5211cc	0.20514601
167	0x3fafeee6	1.3744781
168	0x3e20364b	0.15645711
169	0xbf3f5b31	-0.7474852
170	0x3f692a7c	0.9108045
171	0x3f4fa8c0	0.8111687
172	0x3c458c60	0.012057394
173	0xbfcc6788	-1.5969095
174	0xbef10a3b	-0.47078118
175	0x3f6212e1	0.88310057
176	0xbea90dac	-0.33018243
177	0x3f03864f	0.51376814
178	0xbda053bc	-0.07828471
179	0xc00ddb28	-2.2165012
180	0x3d8855c5	0.06656984
181	0x3de7d733	0.11320343
182	0x3e7e0cdd	0.24809594
183	0x3d2cb3b8	0.04216358
184	0x3daff408	0.08591467
185	0xbdfdcda9	-0.12392742
186	0x40429444	3.0402994
187	0x40356958	2.8345547
188	0xbf1d1fd2	-0.6137668
189	0xbe512c48	-0.20427048
190	0xbe6cdda5	-0.23131426
191	0x4022381b	2.5346744
192	0x3fb754f4	1.4322801
193	0x3efb8af0	0.49129438
194	0xbf242d40	-0.64131546
195	0x3fac4613	1.3458885
196	0x3e5b1bb0	0.2139728
197	0xc01415e1	-2.3138354
198	0x4008b486	2.1360183
199	0x3fc58dca	1.5433896
200	0xbf2541e5	-0.6455367
201	0xbf3666ea	-0.71250784
202	0x3e4fdcc0	0.20299053
203	0x3d84b81b	0.06480428
204	0xbf46d865	-0.7767394
205	0xbfad98f1	-1.3562299
206	0x3f416270	0.7554083
207	0x3eae73c9	0.34072712
208	0x3e8abffa	0.27099591
209	0xc00c7d52	-2.195149
210	0x3d2b233f	0.04178166
211	0x3e8ff070	0.28113127
212	0xbf039a5f	-0.51407427
213	0x3ebe2e85	0.37144867
214	0xbdb9f724	-0.090803415
215	0xbff576dd	-1.9176899
216	0x3e62885e	0.22122332
217	0xbedf3306	-0.43593615
218	0x3d08156a	0.033223547
219	0x3e0b1ddc	0.13585609
220	0x3eb205e4	0.3477012
221	0xbe9ac3a3	-0.30227384
222	0xbd817d10	-0.06322682
223	0xbe53c1ba	-0.2067937
224	0x3f5a6f02	0.85325634
225	0x3f1a71ba	0.6032978
226	0x3dfd8f08	0.12380797
227	0x3ff704e9	1.9298373
228	0x3cbe5870	0.02323553
229	0xbda21d24	-0.079157144
230	0x3e04ac7c	0.12956423
231	0xbec7c952	-0.39020783
232	0xbe92a6fb	-0.2864302
233	0xbec7a99e	-0.38996595
234	0xbf484aa8	-0.78238916
235	0xbec2dbd0	-0.3805833
236	0x3f893f7b	1.0722498
237	0x3f30da66	0.6908325
238	0x3ccc7830	0.024959654
239	0xc0035b83	-2.0524604
240	0x3f838408	1.0274668
241	0x3eec373e	0.46135896
242	0xbff6875a	-1.9260056
243	0x3fab6abe	1.339195
244	0xbe24fd4b	-0.16112249
245	0x4016f080	2.358429
246	0xbf578a79	-0.8419567
247	0xbfdc791e	-1.7224462
248	0x3f63af95	0.8893979
249	0x3f08d9a6	0.53457105
250	0x3e533bb8	0.2062825
251	0xc04ba71b	-3.1820743
252	0xbec2942b	-0.38003668
253	0xbe100647	-0.14064895
254	0x3f5eda4d	0.8705185
255	0x3f7056ea	0.9388262

net.0.bias f4 [64]
0	0xbeaef93c	-0.34174526
1	0x3d026ce0	0.031842113
2	0x3de1835d	0.11011384
3	0x3f3908fe	0.72279346
4	0xbcaa12d6	-0.020760935
5	0x3f1ea493	0.6196987
6	0x3c8cf0be	0.017204639
7	0x3ef9d015	0.48791566
8	0xbe1d00c9	-0.15332331
9	0xbe89cfd7	-0.26916382
10	0x3f364cca	0.7121092
11	0xbdd4240d	-0.10358439
12	0xbed4dc1f	-0.4157419
13	0x3fd60558	1.6720381
14	0x3e56c7cf	0.20974658
15	0x3c5f2335	0.013619234
16	0xbd66f158	-0.056382507
17	0x3f276ef7	0.65403694
18	0xbd7ea776	-0.062171422
19	0x3f1e7c41	0.61908346
20	0x3f55adf9	0.83468586
21	0x3f09d10e	0.5383462
22	0x3e78f7ab	0.24313228
23	0x3dc5f659	0.09666128
24	0xbeb47a7a	-0.35249692
25	0x3f1ba81f	0.6080341
26	0xbe01f1cd	-0.12689896
27	0x3ed9c420	0.42532444
28	0x3ea72c48	0.3265097
29	0x3f74cae1	0.9562207
30	0xbed923e0	-0.42410183
31	0x3ecff4ee	0.40616554
32	0x3ef27e03	0.47361764
33	0x3f1f97a4	0.6234076
34	0x3f2abafd	0.6669157
35	0x3f632354	0.8872578
36	0xbe8e9d21	-0.27854255
37	0x3d56618c	0.05233912
38	0xbecb5b52	-0.3971811
39	0x3f335337	0.7004885
40	0x3deb254e	0.11481725
41	0x3d1ae8cb	0.037819665
42	0x3e948433	0.2900711
43	0x3cae6ce0	0.02129215
44	0xbee9e103	-0.45679483
45	0x3cb6ad13	0.022299325
46	0xbcb1de19	-0.02171235
47	0xbe82bd64	-0.2553512
48	0x3d408e98	0.047010988
49	0x3f47afbc	0.78002524
50	0x3c880eac	0.016608559
51	0x3f4160a9	0.75538117
52	0xbe489e0a	-0.19591537
53	0xbd831e79	-0.064022966
54	0xbe6da85e	-0.23208758
55	0xbe9177cd	-0.28411713
56	0x3f875127	1.0571641
57	0x3f3e97ae	0.74450195
58	0xbe2a9a02	-0.16660312
59	0x3dbd1fd9	0.0923459
60	0x3eeba4cc	0.46024168
61	0x3f1c010a	0.60939085
62	0x3f3e50f8	0.743423
63	0xbdc59d8a	-0.09649189

net.2.weight f4 [64, 64]
0	0xbb990e80	-0.004670918
1	0xb9bfc7a3	-0.000365791
2	0x3f0b7279	0.54471546
3	0xbe4cf0d1	-0.20013739
4	0x3eb1b675	0.34709516
5	0xc00e4180	-2.2227478
6	0x3f51ab57	0.8190207
7	0xbf04ce58	-0.51877356
8	0x3ea4bc31	0.3217483
9	0x3b8c1940	0.004275471
10	0xbecc68f9	-0.39923838
11	0x3f28f68b	0.66001195
12	0x3d97b0fa	0.074068025
13	0x3e692e4a	0.22771564
14	0x3e65728c	0.22406977
15	0x3f66a392	0.9009334
16	0x3e59dca9	0.21275581
17	0x3ea3c425	0.31985584
18	0x3f8b8622	1.0900309
19	0xbf992bbf	-1.1966475
20	0xbe9667a8	-0.29375958
21	0xbfb825f1	-1.4386579
22	0xbd490ca1	-0.04908431
23	0x3e9b7970	0.30366087
24	0x3d9425ae	0.07233749
25	0xbf0e5d46	-0.55611074
26	0x3f64707b	0.8923413
27	0xbf03bc16	-0.5145887
28	0x3e7f6fe2	0.24945024
29	0xbf550e1f	-0.8322467
30	0x3dae2669	0.0850342
31	0xbf26ca81	-0.65152746
32	0x3f7c5356	0.9856466
33	0xbf478e25	-0.7795127
34	0x3eb122bc	0.34596813
35	0xbe1868d5	-0.1488374
36	0xbd57ee1b	-0.05271731
37	0x3df605ce	0.12012826
38	0x3dad7c74	0.08471003
39	0x3e4e4590	0.20143723
40	0x3f6a9f2c	0.91649127
41	0x3ea2033c	0.31643093
42	0x3b2662e8	0.0025388543
43	0x3eb79b78	0.358608
44	0x3ddb4c1c	0.10707876
45	0x3f82da70	1.0222912
46	0x3f26076c	0.64855075
47	0x3d0ffb90	0.035152018
48	0x3efc86c4	0.49321568
49	0x3f44233a	0.7661625
50	0x3f69f362	0.91387
51	0x3e2e313a	0.17010966
52	0x3e2beb7c	0.16789049
53	0x3e8dd596	0.27702016
54	0x3f3814fb	0.71907014
55	0x3e2dcc1a	0.1697239
56	0xbe532f29	-0.20623459
57	0x3dc57158	0.09640759
58	0xbd209e24	-0.039213315
59	0x3eb643af	0.35598513
60	0x3e0cf670	0.13765883
61	0xbedc52e4	-0.4303199
62	0xbf3ce5f5	-0.73788387
63	0x3f2e7e16	0.6816114
64	0x3d9e9e6e	0.07745062
65	0x3c7a9a08	0.015295513
66	0xbd957fdd	-0.072997786
67	0xbd5436d9	-0.05181012
68	0xbe33e572	-0.17567995
69	0xbe026d89	-0.12737097
70	0xbe0d02ad	-0.13770552
71	0x3bae9d92	0.0053288424
72	0x3c53b8a0	0.012922436
73	0x3d6ed170	0.058305204
74	0x3b75e184	0.003751845
75	0xbdc3f1be	-0.09567593
76	0x3db806d2	0.08985676
77	0xbd5612d5	-0.052264053
78	0xbd5881a5	-0.052858014
79	0xbe1af68d	-0.15133114
80	0x3d571505	0.05251028
81	0xbdbd8d0a	-0.09255417
82	0xbe1e4abb	-0.15458195
83	0xbd07f74f	-0.033194836
84	0x3c0504cd	0.00811882
85	0xbde6cb22	-0.11269213
86	0xbdc09c69	-0.09404833
87	0xbdcf41e5	-0.1011999
88	0x3da9e122	0.08294894
89	0x3cdd0c5d	0.026983434
90	0xbe06bad5	-0.13157208
91	0x3da0b456	0.07846896
92	0xbd53db43	-0.051722776
93	0xbd9c9f17	-0.076475315
94	0x3c20b880	0.009809613
95	0x3bb59ce5	0.005542385
96	0x3c1b8bcb	0.009493778
97	0xbb9a5c65	-0.0047107213
98	0xbdd63133	-0.10458603
99	0xbdbb2057	-0.09137028
100	0xbd9fdc36	-0.07805674
101	0xbd2b627b	-0.041841965
102	0xbdb397ce	-0.08769189
103	0xbc2ef070	-0.010677442
104	0xbd289254	-0.041155174
105	0x3cbb4d7b	0.022864094
106	0xbdfad817	-0.12248247
107	0xbdca0412	-0.098640576
108	0x3d593048	0.05302456
109	0xbc7441dd	-0.014908281
110	0x3d8b5c90	0.06804764
111	0xbd885272	-0.0665635
112	0x3c0709a9	0.008242049
113	0xbd898d7d	-0.0671644
114	0xbdb7e59b	-0.08979341
115	0xbc6ba2be	-0.0143820625
116	0x3ca81772	0.020518992
117	0xbe00aa94	-0.1256507
118	0x3d27b1a2	0.04094089
119	0xbdee0909	-0.11622817
120	0x3cefd4bf	0.02927625
121	0x3d18230e	0.037142806
122	0x3dc9ed6c	0.09859738
123	0xbe277ae7	-0.16355477
124	0x3c312110	0.010811105
125	0xbcd51677	-0.026011689
126	0x3dd73e09	0.10509879
127	0x3d428e2e	0.047498874
128	0x3dc499da	0.09599657
129	0xbdd37aa7	-0.103261285
130	0x3cd366c6	0.025805842
131	0x3d56e20b	0.052461665
132	0xbd92605b	-0.071472846
133	0x3d7958b1	0.0608756
134	0xbdac0433	-0.083992384
135	0x3d2f73b0	0.042834938
136	0x3c66b6a0	0.014081627
137	0xbd1eada0	-0.0387398
138	0xbd873e86	-0.06603722
139	0xbe059750	-0.13046002
140	0x3dec0530	0.11524427
141	0xbcc1f92d	-0.023678387
142	0xbda26aa8	-0.07930499
143	0x3d683eeb	0.05670063
144	0x3af3f5e8	0.0018612714
145	0xbd3a9476	-0.04555174
146	0x3d435389	0.047687087
147	0xbd77e7b4	-0.060523704
148	0xbdde04a3	-0.10840728
149	0x3db04946	0.08607726
150	0xbd7d8fa7	-0.061904576
151	0xbc9523c8	-0.018205538
152	0x3cad0c18	0.02112393
153	0xbc5efc95	-0.013610025
154	0x3d2d00ec	0.042237207
155	0xbddb066d	-0.10694585
156	0xbbfbe9da	-0.0076877894
157	0xbe06f82e	-0.1318061
158	0xbda63f56	-0.08117549
159	0xbda8844d	-0.08228359
160	0xbdd4e60e	-0.10395442
161	0xbe167c65	-0.1469589
162	0xbd65c84c	-0.05609922
163	0xbd49320c	-0.049119994
164	0x3d4581a4	0.048219338
165	0xbcf0d4ee	-0.029398408
166	0xbd0f30f0	-0.03495878
167	0xbc0983e9	-0.008393266
168	0xbdf065a9	-0.1173814
169	0xbdb2ac6e	-0.087242946
170	0x3cc80382	0.024415735
171	0xbdc114fa	-0.09427829
172	0x3d3a77c4	0.045524374
173	0xbd0849b3	-0.03327341
174	0x3e0751fe	0.13214871
175	0xbdcb5dba	-0.09929986
176	0xbdce69eb	-0.10078796
177	0xbb954456	-0.0045552654
178	0xbde2106c	-0.110382885
179	0xbe22f02a	-0.15911928
180	0x3d57acff	0.052655216
181	0x3d766529	0.060155068
182	0xbc8423c2	-0.016130332
183	0x3d73a8d1	0.059487168
184	0xbe20238c	-0.1563856
185	0xbe189b66	-0.1490303
186	0xbd8f1a04	-0.06987384
187	0xbdd58a16	-0.104267284
188	0x3c06a5c8	0.008218236
189	0x3d2017a2	0.039085038
190	0xbdeda058	-0.11602849
191	0x3d0f0f3e	0.034926645
192	0xbdcb7c0a	-0.09935768
193	0x3e9b8d88	0.30381417
194	0x3f1fc0e8	0.62403727
195	0xbf9a331d	-1.2046849
196	0x3eca6570	0.39530516
197	0xbe0d3f8f	-0.13793777
198	0xbf576870	-0.84143734
199	0xbde5271f	-0.111891024
200	0x3e72d2a6	0.23713169
201	0xbc98aa08	-0.018635765
202	0x3e3032ab	0.17206828
203	0x3e0098f3	0.12558345
204	0xbd9193a6	-0.0710824
205	0xbf930c1f	-1.1488074
206	0x3e646278	0.22303188
207	0xbfc19d7f	-1.5126189
208	0x3f0dffdc	0.55468535
209	0xbde25c0c	-0.11052713
210	0xbf92586a	-1.1433232
211	0xbeb0617f	-0.34449384
212	0xbe0aa3cd	-0.13539048
213	0x3e354d21	0.17705204
214	0x3eb41613	0.3517309
215	0x3f0e0420	0.55475044
216	0xbcc958b0	-0.024578422
217	0xbe9fb97d	-0.31196204
218	0x3eaf78e7	0.3427193
219	0x3c6d60ae	0.014488382
220	0x3cf738f0	0.030178517
221	0xbf313aea	-0.6923052
222	0xbd531034	-0.051529124
223	0x3e8bc31b	0.2729729
224	0xbfe0dad2	-1.7566779
225	0xbeff3a50	-0.49849176
226	0xbc600866	-0.013673877
227	0xbfdd801f	-1.7304724
228	0xbd3f650f	-0.046727236
229	0x3eff5002	0.4986573
230	0xbb759600	-0.003747344
231	0x3b4adab5	0.0030953113
232	0xbfb30990	-1.3987293
233	0x3ebd5a1d	0.36982813
234	0x3e5457cb	0.20736615
235	0x3e8b9560	0.27262402
236	0xbda49962	-0.08037068
237	0xbfce5338	-1.6119146
238	0xbf904b8f	-1.1273059
239	0xbd6ea1c0	-0.058259726
240	0x3f16efb5	0.58959514
241	0xbda88eca	-0.0823036
242	0xbfcdde1b	-1.6083406
243	0xbd818e96	-0.06326024
244	0x3eec9e60	0.4621458
245	0x3f047a81	0.51749426
246	0x3f07bf3f	0.53026193
247	0x3f4af630	0.792819
248	0xbf0262c8	-0.5093198
249	0xbf850ece	-1.0395143
250	0xbcde8d10	-0.027166873
251	0x3f2138d4	0.6297734
252	0x3e903e1e	0.28172392
253	0x3cfe567b	0.031047096
254	0xbf160157	-0.58595794
255	0x3ee7ef63	0.45299825

net.2.bias f4 [64]
0	0xbe0b86a5	-0.13625582
1	0xbe0ff356	-0.14057669
2	0x3d58e007	0.052948024
3	0xbe3b53f3	-0.18293743
4	0x3e9b14c2	0.30289274
5	0xbca1dc5d	-0.019758398
6	0xbe0be623	-0.13662009
7	0x3ef40caa	0.47665912
8	0x3d775208	0.060380965
9	0xbdb3542c	-0.08756289
10	0x3e621c28	0.22081053
11	0xbefdd84d	-0.49579087
12	0xbd0bb841	-0.034111265
13	0x3ede2021	0.43383887
14	0x3eb5c377	0.3550069
15	0xbe656daf	-0.22405122
16	0x3effb2fd	0.49941245
17	0x3e9de41e	0.30838102
18	0x3de3d0ff	0.11123847
19	0xbdf35430	-0.11881292
20	0x3ea7dbf7	0.32785007
21	0xbd3dd93e	-0.046349756
22	0xbdea1cf8	-0.114313066
23	0x3dc7e5be	0.09760617
24	0x3e14e47c	0.14540285
25	0xbdbbede6	-0.09176235
26	0xbe1932b4	-0.14960748
27	0xbdeec854	-0.11659303
28	0xbef94a94	-0.4868971
29	0xbddf3efe	-0.10900687
30	0x3e9f1cfa	0.31076795
31	0x3d033dc1	0.032041315
32	0xbf0c2169	-0.5473848
33	0xbe1264e2	-0.14296296
34	0xbe1e8292	-0.15479496
35	0x3db1112d	0.08645854
36	0xbdb16317	-0.08661478
37	0x3ea65682	0.32487875
38	0xbec37cde	-0.38181204
39	0xbe3ca3b2	-0.1842182
40	0xbe9ecd5b	-0.3101605
41	0x3e7974f0	0.24361014
42	0x3be5d9c0	0.007014483
43	0xbe8160c4	-0.2526914
44	0xbdbc9026	-0.09207182
45	0x3d38431b	0.04498587
46	0xbcc9f994	-0.024655141
47	0xbe01d49c	-0.1267876
48	0x3e83bc34	0.25729525
49	0x3f382a34	0.71939397
50	0xbe9bd849	-0.3043845
51	0x3f361b21	0.71135145
52	0x3f05d325	0.52275306
53	0xbda8abd6	-0.082359
54	0xbd9ff923	-0.07811191
55	0x3e840f90	0.25793123
56	0x3ea2ced1	0.31798413
57	0xbd9d0b7e	-0.076682076
58	0xbe051d53	-0.12999468
59	0xbde1da09	-0.11027915
60	0xbc33e259	-0.010979258
61	0xbdf4d880	-0.119553566
62	0x3d9a3405	0.07529453
63	0x3c40279b	0.011728193

net.4.weight f4 [4, 64]
0	0xbea0d86c	-0.31415117
1	0xbdd98794	-0.106215626
2	0x3d758cf9	0.059948895
3	0x3e81e223	0.2536784
4	0xbe0bbfad	-0.13647337
5	0xbecbe026	-0.3981945
6	0x3cb297a6	0.021800827
7	0x3eed69d6	0.4636981
8	0x3eef5102	0.46741492
9	0x3cc49b06	0.023999702
10	0x3c5e348e	0.013562335
11	0x3d1e8f89	0.038711105
12	0x3dc9ac87	0.0984736
13	0x3f3f1907	0.74647564
14	0x3de72504	0.11286357
15	0x3d378f4a	0.044814385
16	0x3e64e9ea	0.22354856
17	0xbcf9c93a	-0.03049146
18	0x3cd11418	0.025522277
19	0x3d3b3476	0.045704328
20	0x3deb7edc	0.11498806
21	0x3dcb7c98	0.09935874
22	0x3c07cea0	0.008289009
23	0xbd165aa4	-0.036707535
24	0x3d4ca545	0.0499623
25	0xbcb46ed8	-0.02202551
26	0x3daf8842	0.08570911
27	0x3db3a59c	0.08771822
28	0x3dc481d3	0.095950745
29	0x3dd069d0	0.10176432
30	0xbdb172c9	-0.08664472
31	0x3e541654	0.20711643
32	0x3f215a69	0.6302858
33	0xbe4b63f6	-0.19862351
34	0xbcb52964	-0.022114463
35	0xbe806e71	-0.2508426
36	0xbec05fb3	-0.37573013
37	0x3f1254f2	0.57160866
38	0xbda37955	-0.079821266
39	0xbe24e6d4	-0.16103679
40	0xbf5d761a	-0.86508334
41	0xbcffc557	-0.031222029
42	0xbda56e32	-0.08077659
43	0xbe14844d	-0.14503594
44	0x3c41f548	0.011838265
45	0x3f3c163e	0.7347144
46	0xbccf05d4	-0.025271334
47	0xbcb2c220	-0.021821082
48	0xbdf65008	-0.120269835
49	0x3e649329	0.22321762
50	0x3e2e8bd0	0.17045522
51	0x3faab3dd	1.333614
52	0x3f02c978	0.51088667
53	0x3d1072d8	0.035265774
54	0x3c8c4399	0.017122077
55	0x3d44d65f	0.048056003
56	0xbe77fb38	-0.24216926
57	0x3d934eee	0.07192789
58	0x3c1c0e00	0.009524822
59	0xbd945f88	-0.07244784
60	0xbdb2c60d	-0.087291814
61	0xbc8a0366	-0.016847324
62	0x3c55063a	0.013001973
63	0xbcbb67ae	-0.022876587
64	0xbfa96eda	-1.3236954
65	0x3e2dd377	0.16975199
66	0x3da3cd69	0.07998163
67	0x3ef18e6d	0.47178975
68	0xc0132317	-2.2990167
69	0xbef42894	-0.4768721
70	0x39c20e19	0.00037013067
71	0x3f543b90	0.82903385
72	0xbe93fc71	-0.28903535
73	0x3de3f8e0	0.111314535
74	0xc02429da	-2.5650544
75	0x3dc511ed	0.0962256
76	0xbf6b77f9	-0.9197994
77	0x3f348b62	0.7052518
78	0xc02a0fa3	-2.6572044
79	0xbee2623e	-0.44215578
80	0xc07d66b1	-3.9593928
81	0xc01ab69e	-2.417396
82	0xc007ab31	-2.1198237
83	0xbfca74de	-1.5816915
84	0xbe052b21	-0.13004734
85	0x3dedce6f	0.1161164
86	0x3d5ec98c	0.05439143
87	0x3d0d5fd4	0.034515217
88	0xc02ed24b	-2.7315853
89	0x3dd72c4c	0.10506496
90	0x3d795300	0.06087017
91	0x3d1399fc	0.036035523
92	0x3fc7e988	1.5618143
93	0xbca80778	-0.020511374
94	0xc00e25a0	-2.2210464
95	0x3eb9cbf6	0.36288422
96	0xbff439da	-1.9080155
97	0xbe81c5df	-0.25346276
98	0x3d603dd9	0.054746483
99	0xc00d7709	-2.2103903
100	0xbf1497c9	-0.58044106
101	0x3f615880	0.88025665
102	0xbea8b238	-0.3294847
103	0xbf01ccad	-0.50702935
104	0xbd80a881	-0.062821396
105	0xc0096681	-2.1468813
106	0x3dcf8326	0.101324365
107	0xbe169954	-0.14706928
108	0x3abacc00	0.001425147
109	0xbf0e99df	-0.5570354
110	0xc0131a2d	-2.2984726
111	0x3d07e648	0.033178598
112	0xc00acf25	-2.168893
113	0xc07b80c6	-3.9297347
114	0xbf4091de	-0.75222576
115	0x3eeaaab1	0.45833352
116	0x3f797890	0.9744959
117	0x3e974a2e	0.29548782
118	0xbfd7f934	-1.6872926
119	0xc019e736	-2.404737
120	0xc025087c	-2.5786428
121	0x3c1f8c06	0.009737974
122	0xbdf18c1a	-0.117943004
123	0xbce29da0	-0.027663052
124	0x3ecee267	0.40407106
125	0x3dbad0c2	0.09121849
126	0xbfce0723	-1.6095928
127	0x3de38626	0.11109571
128	0xbcd87a09	-0.026425378
129	0xbdaea841	-0.08528186
130	0x3dab2ac7	0.083577685
131	0xbe81339a	-0.2523468
132	0x3b2858f6	0.002568779
133	0xbe0f1c26	-0.13975582
134	0x3c0051e0	0.0078320205
135	0x3f350435	0.70709544
136	0x3e5f9542	0.21834281
137	0x3cca9604	0.024729736
138	0x3e2188f1	0.15774895
139	0xbea6a6c7	-0.32549116
140	0xbd9ad469	-0.07560045
141	0x3f0d34ed	0.55158883
142	0xbe6f7ca3	-0.23387389
143	0x3c674f16	0.014117977
144	0x3ebb9ee0	0.3664465
145	0xbe25104b	-0.16119497
146	0xbde4881c	-0.11158773
147	0xbca33cc2	-0.019926433
148	0xbe3e1305	-0.18561943
149	0x3d81d036	0.06338541
150	0x3cd9f440	0.026605725
151	0xbd0a7e34	-0.033811763
152	0xbe385ea7	-0.18004857
153	0x3d4c9ce8	0.049954325
154	0xbde43def	-0.111446254
155	0xbdc402ce	-0.095708475
156	0xbefc358e	-0.4925961
157	0x3be42ae2	0.00696312
158	0x3c40c575	0.011765827
159	0x3e9dc4e2	0.30814272
160	0x3f01a17e	0.5063704
161	0x3d48e264	0.049044028
162	0xbd15ea78	-0.03660056
163	0xbe2f8cec	-0.17143601
164	0x3d463929	0.048394356
165	0x3edad743	0.42742357
166	0x3e989a67	0.298053
167	0xbca7d605	-0.020487795
168	0xbf0cde2f	-0.55026525
169	0xbde2e1fa	-0.11078258
170	0xbcd90da0	-0.026495755
171	0x3d91135c	0.07083771
172	0x3dc35e18	0.09539431
173	0x3f212e85	0.6296161
174	0x3bdce901	0.0067416434
175	0xbd7a06d0	-0.061041653
176	0x3d5b7fae	0.05358856
177	0x3e4e70f3	0.20160274
178	0xbda421ea	-0.08014281
179	0x3fb0131d	1.3755833
180	0x3f085968	0.53261423
181	0xbe3318d0	-0.17489934
182	0x3d346648	0.044042856
183	0xbe3d05be	-0.18459222
184	0x3e19c4f2	0.15016535
185	0xbd35155c	-0.044209823
186	0x3da7d6aa	0.08195241
187	0xbcff91f8	-0.031197533
188	0xbd611e5f	-0.054960605
189	0xbc7aef50	-0.015315846
190	0xbe088057	-0.13330208
191	0xbe01ec96	-0.12687907
192	0xbef08f87	-0.46984503
193	0x3da5f8c1	0.08104087
194	0x3d5463e4	0.051853076
195	0xbf22cc62	-0.63593113
196	0xbd9350f5	-0.07193176
197	0xbecddb21	-0.40206245
198	0xbd9a7dbb	-0.075435124
199	0x3f386ea7	0.7204384
200	0x3e40016b	0.18750541
201	0xbd958472	-0.073006526
202	0xbe8b319b	-0.27186283
203	0xbf34c492	-0.7061244
204	0xbef16648	-0.47148347
205	0x3f4f1938	0.80897856
206	0xbc83b20c	-0.01607611
207	0xbf154c35	-0.5831941
208	0x3fafe0b5	1.374045
209	0xbd8d0fb8	-0.06887764
210	0xbe934c63	-0.28769216
211	0xbf4eb519	-0.80745083
212	0xbf1f2b23	-0.62175196
213	0xbd73a26b	-0.059481066
214	0x3c087f2b	0.0083311
215	0xbd81de06	-0.06341176
216	0x3dbe0d52	0.092798844
217	0xbd053bb8	-0.032527655
218	0xbb577a8c	-0.003287944
219	0x3d6d5d84	0.05795051
220	0xbfb3fd38	-1.4061651
221	0x3dad98ed	0.08476434
222	0xbe3ac000	-0.18237305
223	0x3f50765e	0.81430614
224	0xbf03a81d	-0.51428396
225	0xbee1c1a1	-0.4409304
226	0xbf0aeb76	-0.54265535
227	0xbe8898cc	-0.26679075
228	0xbedfa6f6	-0.4368207
229	0x3f285be2	0.657652
230	0xbf0121cf	-0.5044221
231	0xbed7705a	-0.42077905
232	0xbe73aa86	-0.23795518
233	0xbf120d0e	-0.5705117
234	0x3cdd4c98	0.027014062
235	0xbee49aec	-0.44649446
236	0x3d292c54	0.04130204
237	0x3ec69bf3	0.38790855
238	0xbda2c709	-0.07948119
239	0x3db901f0	0.09033573
240	0xbea02383	-0.31277093
241	0x3fbe8630	1.4884701
242	0xbf1f8edb	-0.62327355
243	0x3ec9c2c6	0.39406413
244	0x3f1b3a8f	0.6063623
245	0xbee423d4	-0.44558585
246	0xbf41215b	-0.7544152
247	0xbe2021c8	-0.15637887
248	0xbdbeba73	-0.09312906
249	0xbd117948	-0.035516053
250	0xbdc2f7bc	-0.09519908
251	0xbd11a064	-0.03555335
252	0x3f273f08	0.65330553
253	0xbcd0bf4e	-0.025481846
254	0xbf0f1181	-0.55886084
255	0x3db41ae6	0.08794193

net.4.bias f4 [4]
0	0x3ef21f52	0.4728952
1	0x3df91214	0.12161651
2	0x3e1a2d02	0.15056232
3	0xbe02c96e	-0.12772152
