ppo_model_ep5000.pth (torch, 279169 bytes, 6 tensors)

fc.0.weight f4 [128, 400]
0	0x3c018148	0.007904358
1	0xbcc870ed	-0.02446791
2	0xbcaeb50d	-0.021326566
3	0xbc8888bc	-0.016666763
4	0xbbbab800	-0.005698204
5	0xbd294ff3	-0.04133601
6	0x3d20bee9	0.039244566
7	0xbc99e4b7	-0.018785818
8	0x3d125c39	0.03573248
9	0x3bb71ae8	0.0055879243
10	0xbcf7f337	-0.030267341
11	0x3c6251e4	0.01381347
12	0xbc3ae50c	-0.011407148
13	0x3d357497	0.044300642
14	0xbd29479a	-0.04132805
15	0x3b296ae0	0.0025851056
16	0x3b773030	0.003771793
17	0x3c299dec	0.010352593
18	0xbc1083c0	-0.008820474
19	0x3cc1bb66	0.023648929
20	0xbba7ebd0	-0.0051245466
21	0xbd29189b	-0.04128323
22	0xbd16074e	-0.03662806
23	0x3d2556a7	0.04036584
24	0x3c4f49a4	0.012651835
25	0x3d425aa3	0.04744972
26	0x3d18e5d9	0.037328575
27	0x3b8488a8	0.004044611
28	0x3c880a8a	0.016606588
29	0xbbda3380	-0.0066589713
30	0x3d3a1bdd	0.04543673
31	0x3d3493cd	0.044086266
32	0x3c9d17be	0.01917636
33	0x3b9adbe8	0.004725922
34	0x3d286103	0.041108143
35	0xbd32cbab	-0.043651264
36	0xbd3654b2	-0.044514365
37	0x3cc8cfb6	0.024513107
38	0xbd303f08	-0.04302886
39	0xbcd61370	-0.026132315
40	0x3caca972	0.021076892
41	0xbcf9fb93	-0.030515468
42	0x3c92d4de	0.017923769
43	0xbc3f2938	-0.011667542
44	0x3c8da5da	0.017290998
45	0xbc39b0d8	-0.011333667
46	0x3c14e854	0.0090885945
47	0xbd11d698	-0.035605043
48	0x3cc54e0a	0.024085063
49	0xbc0624ec	-0.008187514
50	0xba884fa0	-0.0010399707
51	0xbc5286ac	-0.012849491
52	0xbd074a82	-0.03303004
53	0xbb07bd50	-0.0020712204
54	0x3cb404ca	0.02197494
55	0xbd2a68ae	-0.041603737
56	0xbd1f64f0	-0.03891462
57	0xbd2e9788	-0.04262498
58	0xbd1c77ba	-0.038200118
59	0x3bcc2a98	0.0062306635
60	0xbd17b992	-0.037042208
61	0xbcdcbaad	-0.026944483
62	0x3cc241b2	0.023712967
63	0xbd4bef7b	-0.049788933
64	0x3c8b548e	0.017008092
65	0xbd46a187	-0.04849389
66	0x3d23f275	0.040026147
67	0xbd41f835	-0.04735585
68	0xbcc83ed7	-0.024444027
69	0xbc8ccd00	-0.017187595
70	0xbc77e760	-0.015130848
71	0x3c2b6198	0.01046028
72	0xbb3c3db0	-0.0028723292
73	0x3d405637	0.04695722
74	0xbbda43c0	-0.0066609085
75	0x3c368dac	0.011142176
76	0xbb93a430	-0.0045056567
77	0xbcc3de4d	-0.023909712
78	0xbd0f9092	-0.035049982
79	0xbd2a8380	-0.041629314
80	0x3c265d88	0.0101541355
81	0xbcb770dd	-0.022392685
82	0x3cf5c78e	0.030002382
83	0x3d26baf1	0.040705625
84	0x3d3c1c03	0.04592515
85	0xbb0a2d60	-0.0021084175
86	0x3bd41e70	0.006473355
87	0xbafc5740	-0.0019252077
88	0x3c02bc88	0.00797952
89	0x3cab2096	0.020889562
90	0xbc23212c	-0.009956639
91	0xbcfc9a80	-0.03083539
92	0xbccdf51a	-0.025141288
93	0xbd25082d	-0.040291
94	0x3c94012e	0.018066969
95	0xbc3c2194	-0.011482615
96	0x3d1bf86d	0.038078714
97	0xbd49c1f8	-0.04925725
98	0x3ca8a8aa	0.020588238
99	0xbcbc169d	-0.022960002
100	0x3c6285b4	0.013825823
101	0x3cf5c316	0.03000025
102	0x3c8cc8e2	0.017185632
103	0xbccfd297	-0.025368972
104	0x3c858782	0.016299967
105	0x3d1cc697	0.038275328
106	0x3c477348	0.012173481
107	0xbbd98968	-0.0066386946
108	0x3d25f3bd	0.04051565
109	0xbb9937e8	-0.004675854
110	0x3d2cbf51	0.04217464
111	0xbcbaf7fd	-0.022823328
112	0x3d453959	0.048150394
113	0xbd1601ee	-0.036622934
114	0x3bb37ed8	0.0054777674
115	0xbd33838f	-0.043826636
116	0x3c9d526e	0.019204345
117	0xbbc52bd0	-0.0060171857
118	0xbd45c1a3	-0.04828037
119	0xbd3d09a3	-0.04615177
120	0xbc94d20a	-0.01816656
121	0xbd1b3293	-0.03789003
122	0x3ce4f6de	0.027949747
123	0x3bde9b30	0.006793402
124	0xbd3b03c7	-0.0456579
125	0xbca01340	-0.01954043
126	0x3a2f2780	0.0006681606
127	0xbd152932	-0.03641624
128	0x3aa2b460	0.0012413375
129	0xbca65edd	-0.020308906
130	0x3c8a18d6	0.016857546
131	0xbd27000b	-0.040771525
132	0xbca23f30	-0.01980552
133	0xbcb12c9d	-0.021627719
134	0xbd0fd6e2	-0.035117038
135	0xbcc6da8d	-0.024274135
136	0x3c9c2226	0.019059252
137	0x3c93e3a6	0.018052887
138	0x3ca3085a	0.019901443
139	0x3b95f430	0.0045762286
140	0xbd2b0e0e	-0.04176145
141	0xbd15d1aa	-0.036576904
142	0xbd20e97a	-0.03928516
143	0xbd483015	-0.04887398
144	0xbb658f20	-0.0035027936
145	0xbcee9447	-0.029123439
146	0x3ca74042	0.020416383
147	0x3c8d477a	0.017245997
148	0x3c3f0578	0.011659019
149	0xbd29d538	-0.041463107
150	0xbba9eaa8	-0.005185444
151	0x3cda6b0a	0.026662368
152	0x3cf41d76	0.029799204
153	0x3d325fc5	0.043548364
154	0xbba78d68	-0.0051132925
155	0xbceface3	-0.029257243
156	0x3cc46c42	0.023977403
157	0x3cf2bb5e	0.02963036
158	0x3d072eb5	0.033003528
159	0xbd178ed6	-0.037001453
160	0xbcd0fb8a	-0.025510568
161	0x3c6848c4	0.014177505
162	0x3c232bd8	0.009959184
163	0x3d27afe9	0.040939245
164	0xbccb3427	-0.024805142
165	0xbd10f87e	-0.03539323
166	0x3caccb26	0.021092962
167	0x3cdd1cde	0.026991304
168	0xbcdbf8d0	-0.026852041
169	0xbc1b5e40	-0.00948292
170	0xbc0cb158	-0.008587204
171	0x3c9c0f9a	0.019050408
172	0xbcbc0883	-0.022953277
173	0x3c66a564	0.014077518
174	0x3d2fe599	0.04294357
175	0xbd14a448	-0.036289483
176	0x3af244c0	0.0018483624
177	0xbcbb5a8d	-0.022870326
178	0x3c886ce6	0.01665349
179	0xbd1b4ae6	-0.037913226
180	0xbd37e085	-0.044891853
181	0xbc88b16a	-0.01668616
182	0xbcc726aa	-0.024310429
183	0x3cf0aaa2	0.029378239
184	0x3d3d1397	0.04616126
185	0x3d258a51	0.040415112
186	0x3ca1b772	0.019740794
187	0x3bbe4368	0.0058063753
188	0x3c54081c	0.012941387
189	0x3d1b9413	0.03798301
190	0x3cbc3d92	0.022978578
191	0xbbced6f0	-0.0063122436
192	0x3c32bf74	0.010909904
193	0xbc9a90dd	-0.018867904
194	0x3b297880	0.0025859177
195	0xbbf88b58	-0.0075849704
196	0xbd0a4c54	-0.0337642
197	0x3c98436a	0.018586833
198	0xbc089200	-0.00833559
199	0x3c71617c	0.014732715
200	0x3cf6cae2	0.030126039
201	0x3d070827	0.03296676
202	0x3b8e4d00	0.004342675
203	0x3d324751	0.043525044
204	0xbcd565fa	-0.026049603
205	0xbd3b6953	-0.045754742
206	0x3d22e2b9	0.039767
207	0xbd273be2	-0.040828593
208	0xbc486348	-0.012230702
209	0x3d181261	0.037126902
210	0x3c1d2360	0.009590954
211	0xbcf14627	-0.029452397
212	0xb9cff680	-0.00039665774
213	0x3c831fe2	0.016006414
214	0xbd12663e	-0.035742037
215	0xbce8f5a0	-0.028437436
216	0xbb56d500	-0.0032780766
217	0x3d0cbec1	0.034361605
218	0x3cf04bae	0.029332962
219	0x3d483fb1	0.048888866
220	0x3ca780e6	0.020447206
221	0x3c9af642	0.018916253
222	0xbbc927d0	-0.006138779
223	0xbd37e865	-0.044899363
224	0x3ccf59ca	0.02531137
225	0xbb70b3d0	-0.003672827
226	0xbd040daa	-0.032239594
227	0xbd2f0348	-0.04272774
228	0x3a281140	0.0006411262
229	0xbc2b9a48	-0.010473795
230	0xbba21958	-0.004946869
231	0x3ccf731e	0.025323447
232	0x3cdd933a	0.027047742
233	0xb9443300	-0.00018711016
234	0xbb716160	-0.0036831722
235	0x3a7e56c0	0.0009702258
236	0x3ca0a4c2	0.019609813
237	0x3d2307c1	0.039802317
238	0xbd22b0f2	-0.03971953
239	0xbd0b8e6c	-0.03407137
240	0x3d1eaacf	0.038737115
241	0x3d1cec51	0.038311306
242	0x3b5e23d0	0.0033895858
243	0x3ce26bae	0.027639236
244	0xbb50f7a0	-0.0031885877
245	0xbcb514c0	-0.022104621
246	0xbca1e3ad	-0.019761885
247	0xbc44c908	-0.01201082
248	0xbd2666a5	-0.040625233
249	0xbd03226d	-0.032015253
250	0x393a1d00	0.00017749146
251	0x3bbf9b00	0.005847335
252	0xb980c580	-0.00024561211
253	0x3c6f0b24	0.0145900585
254	0x3c3830ac	0.011242073
255	0xbd1f67cd	-0.03891735

fc.0.bias f4 [128]
0	0xbd2cf185	-0.04222252
1	0xbc875a40	-0.016522527
2	0x3c98ac32	0.018636797
3	0xbaac589f	-0.001314897
4	0xbd3f189f	-0.04665434
5	0x3c4d6669	0.0125366235
6	0x3d35a638	0.04434797
7	0xbd1fdeb8	-0.03903076
8	0x3d3fcd1e	0.046826474
9	0xbcea6bcc	-0.028615855
10	0xbd0c5168	-0.034257323
11	0x3c46898e	0.0121177565
12	0x3cb07b91	0.021543296
13	0xbb682557	-0.0035422647
14	0x3cd5f5ca	0.026118178
15	0x3d25f398	0.040515512
16	0x3d18d8bc	0.03731607
17	0x3c4faa69	0.012674906
18	0xbcba4f62	-0.02274293
19	0x3c39da00	0.011343479
20	0x3b851e9b	0.0040624863
21	0x3c132242	0.008980336
22	0x3d34d78e	0.04415088
23	0x3cb71529	0.022348957
24	0xbbbefc41	-0.005828411
25	0x3d17bb8d	0.037044097
26	0xbc727ad1	-0.0147997895
27	0x3c26c534	0.010178853
28	0xbcceb700	-0.025233746
29	0x3cb411bb	0.02198111
30	0xbcd7712e	-0.026299085
31	0xbd4b5740	-0.049643755
32	0xbd1db17e	-0.038499348
33	0xbd2ecf59	-0.04267821
34	0x3c91db41	0.017804744
35	0xbc2341e5	-0.009964441
36	0xbd15b85d	-0.036552776
37	0x3d2201d5	0.03955253
38	0xbc1112a9	-0.008854547
39	0xbd13f18a	-0.03611902
40	0xbc9d7d3e	-0.01922476
41	0xbd04b894	-0.03240259
42	0xbd2655bc	-0.040609106
43	0x3d3bf4ad	0.045887638
44	0xbd36c536	-0.04462167
45	0x3d2581bb	0.040406924
46	0x3d14e4e9	0.03635112
47	0xbd1e86fe	-0.038702957
48	0xbd100913	-0.035164904
49	0xbceb2f68	-0.028709128
50	0xbbaa632b	-0.00519981
51	0xbbd34885	-0.006447854
52	0x3c883b6e	0.0166299
53	0x3d2eef25	0.042708535
54	0xbb85cf02	-0.004083515
55	0x3d24feb4	0.040281966
56	0x3d4a22e2	0.049349673
57	0x3c6ad006	0.014331823
58	0x3cc6d38e	0.024270799
59	0x3cb70bc3	0.022344476
60	0xbd25686f	-0.0403828
61	0x3c711110	0.014713541
62	0x3bc3dc95	0.005977223
63	0xbd41cf7e	-0.04731702
64	0xbcee813d	-0.02911436
65	0xbcc6cdc3	-0.024268037
66	0x3c0b6876	0.008508792
67	0x3ce80ed7	0.028327389
68	0xbd0cfbda	-0.034419872
69	0xbd4174ba	-0.04723046
70	0x3d2cf236	0.042223178
71	0x3cea4158	0.028595611
72	0xbd1fc0e7	-0.039002325
73	0x3cbe6c19	0.023244904
74	0xbd1cdf0f	-0.038298663
75	0x3cc00028	0.023437575
76	0x3ce33bb1	0.027738424
77	0xbd46cbd2	-0.048534222
78	0xbcddac3c	-0.027059667
79	0x3b3ec39f	0.0029108298
80	0x3c224573	0.009904253
81	0x3c9ecde6	0.01938529
82	0xbd0b1314	-0.03395374
83	0xbd0a5e07	-0.033781078
84	0xbd32dcad	-0.043667484
85	0xbcb807ab	-0.022464594
86	0xbd0c159d	-0.0342003
87	0x3d10d314	0.03535755
88	0xbcf513bb	-0.029916635
89	0x3c6ce0c1	0.014457882
90	0x3d4c1ed3	0.049834084
91	0x3cb7e10a	0.022446174
92	0xbd34aeec	-0.04411213
93	0x3b55320a	0.0032531046
94	0x3d301c07	0.04299548
95	0x3d394194	0.045228556
96	0xbcc1d560	-0.023661315
97	0xbcd5cfd7	-0.026100082
98	0xbcae5683	-0.021281486
99	0x3bd58827	0.0065164748
100	0xbce3ea34	-0.027821638
101	0x3cd60664	0.026126094
102	0xbc5b63d4	-0.0133905
103	0xbcfc021d	-0.030762726
104	0x3cbb9181	0.02289653
105	0x3c5c9beb	0.013464908
106	0x3be2460c	0.006905323
107	0xbcdfa0ea	-0.02729841
108	0xbc5f0fd6	-0.013614615
109	0x3cd9d042	0.026588563
110	0xbd4149ee	-0.047189645
111	0xbb6ae455	-0.0035841663
112	0x3c101d28	0.008796014
113	0xbc71fa21	-0.014769108
114	0x3c0bb1aa	0.008526245
115	0xbd538704	-0.051642433
116	0xba8a037d	-0.0010529604
117	0x3d177919	0.036980722
118	0x3d03eff5	0.032211263
119	0x3d0d7dfa	0.03454397
120	0xbd371181	-0.044694427
121	0xbcc0b00b	-0.023521444
122	0xbc90f7e3	-0.017696327
123	0xbd0129b8	-0.031533927
124	0x3c41d938	0.011831574
125	0xbb3ada77	-0.0028511563
126	0x3d4887b0	0.048957527
127	0xbca08992	-0.019596849

fc.2.weight f4 [128, 128]
0	0xbdb1e729	-0.086866684
1	0xbd7aae78	-0.061201543
2	0x3c1f8eb8	0.009738617
3	0xbd1ad8f5	-0.037804563
4	0x3d8ed2ff	0.06973838
5	0xbbd1ea2a	-0.0064060884
6	0xbd879979	-0.066210695
7	0x3d348b8b	0.04407839
8	0x3c9717fa	0.01844405
9	0x3b5ff004	0.003417016
10	0x3c064dda	0.008197272
11	0x3d76bd55	0.060239155
12	0xbd267226	-0.040636204
13	0x3d811a2e	0.063038215
14	0xbc2f0400	-0.010682106
15	0xbd1b9d5a	-0.03799186
16	0xbc20916f	-0.009800299
17	0xbbbe4fec	-0.0058078673
18	0xbd190271	-0.037355844
19	0xbd46bb73	-0.04851861
20	0x3da8bfb7	0.08239692
21	0xbd84fcb2	-0.0649351
22	0x3da93b6c	0.08263287
23	0xbd9d6b60	-0.07686496
24	0xbc3df247	-0.011593408
25	0xbaec3656	-0.0018021564
26	0xbd4bd2f5	-0.04976173
27	0xbccf21b1	-0.02528462
28	0xbcabe900	-0.020985126
29	0x3cd0227c	0.025407068
30	0x3db9c5d3	0.09070935
31	0x3d97f57d	0.0741987
32	0x3c438926	0.011934554
33	0x3cdb3187	0.026757015
34	0x3da4ecca	0.080529764
35	0xbd892ac3	-0.06697609
36	0x3d4c6849	0.04990414
37	0xbc5ae0a1	-0.01335922
38	0x3d7042f8	0.058657616
39	0xbd69d44d	-0.05708723
40	0x3d48408a	0.048889674
41	0x3d175f7d	0.0369563
42	0xbd0d3b1c	-0.0344802
43	0x3d1efcc7	0.038815286
44	0xbd9f6974	-0.077837855
45	0xbd93845b	-0.07202979
46	0x3d6c19f9	0.057641957
47	0x3d593dbd	0.053037394
48	0xbdb5e02b	-0.08880647
49	0xbd80ea34	-0.06294671
50	0xbd7b3414	-0.061328962
51	0x3d0fda80	0.035120487
52	0xbc80ee9f	-0.015738783
53	0x3d5e397e	0.054254048
54	0xbdb28272	-0.08716287
55	0x3d913b11	0.07091344
56	0xbcf01542	-0.029307012
57	0xbd0c736e	-0.03428977
58	0xbd762d4c	-0.060101792
59	0x3ca0c551	0.019625338
60	0x3dbdadc5	0.092616595
61	0x3b0eec17	0.00218082
62	0x3c4f0d5a	0.012637461
63	0xbd840070	-0.06445396
64	0xbda3dc22	-0.080009714
65	0xbce04d72	-0.027380679
66	0x3be35937	0.0069381255
67	0xbd8ab280	-0.067723274
68	0xbd90aafb	-0.07063862
69	0x3d92a5a4	0.071605
70	0xbdbd79be	-0.09251736
71	0x3d6388f6	0.055550538
72	0xbbab89af	-0.005234919
73	0x3d4ab8b8	0.049492568
74	0xbd8a0c28	-0.067406
75	0xbd00e44d	-0.031467725
76	0xbd732095	-0.059357245
77	0x3ae271bb	0.0017276326
78	0xbd5e3d15	-0.05425747
79	0x3daf34da	0.085550025
80	0xbd46f270	-0.04857105
81	0x3bd51ad2	0.0065034414
82	0xbd7ca318	-0.061678976
83	0xbd4c11c4	-0.04982163
84	0xbd9cff1c	-0.07665846
85	0xbc40a4b2	-0.011758016
86	0xbda8aa07	-0.08235555
87	0x39cba2f4	0.00038840587
88	0x3d8b0d00	0.06789589
89	0x3d9ee644	0.077587634
90	0x3d3b00fa	0.04565523
91	0xbda488e7	-0.080339245
92	0x3db08095	0.08618275
93	0xbd2bc9e6	-0.041940592
94	0x3ccec4ca	0.02524032
95	0x3d7b2671	0.061315957
96	0x3bf9335a	0.0076049985
97	0xbd679693	-0.056540083
98	0xbcdff574	-0.02733872
99	0x3d89d52e	0.06730114
100	0x3d5b5127	0.05354419
101	0x3d0c7f0a	0.03430084
102	0x3d3cbb6a	0.04607717
103	0x3d8c90b8	0.068635404
104	0xbda059f0	-0.07829654
105	0xbbd6c3fe	-0.006554126
106	0x3db34cca	0.08754881
107	0x3d5d3022	0.05400098
108	0xbd77d905	-0.0605097
109	0x3d7f6591	0.06235272
110	0xbd100d9f	-0.03516924
111	0x3cb7b0e0	0.022423208
112	0xbcc9d855	-0.024639288
113	0x3d3acbda	0.045604564
114	0xbd8138c9	-0.06309659
115	0xbd4c5cc6	-0.049893163
116	0x3d34bb1a	0.044123746
117	0xbd8010f8	-0.062532365
118	0xbbd7ac20	-0.006581798
119	0xbd8aa57b	-0.06769844
120	0x3d6d7d1d	0.057980645
121	0xbc8b52a2	-0.017007176
122	0xbc8da21c	-0.017289214
123	0x3beb29f1	0.0071766307
124	0xbda56a1c	-0.080768794
125	0xbd204e83	-0.039137375
126	0xbd3a1452	-0.045429535
127	0x3d2cc4d0	0.042179883
128	0x3d7a6376	0.06113001
129	0xbdb0ea34	-0.08638421
130	0xbd45da42	-0.04830385
131	0x3d67c6eb	0.056586187
132	0xbdaf2347	-0.085516505
133	0xbcf5a3f3	-0.029985404
134	0xbd0bba7a	-0.034113385
135	0xbd4f09a7	-0.050546315
136	0xbda83a3c	-0.08214232
137	0x3d7bf415	0.06151207
138	0xbbc5d630	-0.006037496
139	0xbd34c9bd	-0.044137705
140	0xbd6ea1fe	-0.058259957
141	0xbd677da0	-0.05651629
142	0x3c475798	0.01216688
143	0x3d68652b	0.056737106
144	0xbd4d3ffc	-0.05010985
145	0xbd0ca749	-0.034339223
146	0xbd517484	-0.05113651
147	0x3b7f30c0	0.003893897
148	0x3d61b75a	0.0551065
149	0xbcfb847a	-0.030702818
150	0x3d0a83a2	0.03381694
151	0xbd851768	-0.06498605
152	0xbd991a34	-0.07475701
153	0xbb891b58	-0.004184168
154	0xbc35d62a	-0.011098424
155	0xbd3cf110	-0.046128333
156	0x3d972e6f	0.073819034
157	0xbd0ae2e6	-0.033907793
158	0xbcadaf0c	-0.021201633
159	0xbc276160	-0.010216087
160	0x3d40fd5e	0.04711663
161	0x3d88cb03	0.066793464
162	0x3d819e78	0.06329054
163	0x3d2b922a	0.04188744
164	0xbc75761b	-0.014981772
165	0x3cd311d3	0.025765335
166	0x3da3523f	0.079746716
167	0xbd947351	-0.07248557
168	0x3b9ab13b	0.0047208345
169	0xbc5ba5fc	-0.013406273
170	0xbd351251	-0.04420692
171	0xbd9d957e	-0.07694529
172	0x3aad3871	0.0013215673
173	0xbb9421b0	-0.0045206174
174	0x3da4002b	0.080078445
175	0x3d93d2fb	0.07217976
176	0xbcc8ed60	-0.024527252
177	0xbdb3bf9c	-0.08776781
178	0x3a774580	0.00094326586
179	0x3d07d0c8	0.033158094
180	0x3ccff9b8	0.02538763
181	0x3da022b9	0.07819123
182	0x3da72249	0.08160836
183	0xbd2e1c59	-0.042507503
184	0x3bd2d784	0.006434383
185	0x3d910e2f	0.070827834
186	0x3c4709d0	0.012148336
187	0x3acd7273	0.0015674367
188	0x3ca0cad0	0.019627959
189	0x3cf11973	0.02943108
190	0xbcecd5c4	-0.028910525
191	0x3d709442	0.05873514
192	0xbd21fa9e	-0.039545648
193	0xbdae119a	-0.08499451
194	0x3c1f339a	0.009716893
195	0x3b8b39ff	0.004248857
196	0x3d7f87b2	0.06238527
197	0x3cedaf28	0.029014185
198	0x3d038ecf	0.032118615
199	0x3d0ac0b4	0.033875182
200	0xbd8e43d0	-0.06946528
201	0x3cb1b5e2	0.021693174
202	0xbbe3b940	-0.0069495738
203	0x3cdb1bba	0.02674662
204	0xbd5b3239	-0.053514693
205	0x3d8d5739	0.06901402
206	0x3d37006a	0.04467813
207	0xbc87dae0	-0.01658386
208	0xbc8bba60	-0.017056644
209	0xbcabb7a8	-0.020961598
210	0x3c103449	0.008801528
211	0x3c9a2e9e	0.018821057
212	0x3d8e340f	0.06943523
213	0xbba026e0	-0.0048874468
214	0xbd937d0a	-0.07201584
215	0xbd56b9c8	-0.05242327
216	0xbcdf6906	-0.027271759
217	0x3d9d7901	0.07689095
218	0xbc8dac1d	-0.017293984
219	0xbd58a64c	-0.052892968
220	0x3d4aa3f6	0.04947277
221	0x3d6c8972	0.057748266
222	0xbd623033	-0.055221748
223	0x3d71986c	0.05898325
224	0x3caab842	0.020839814
225	0xbd425f26	-0.047454022
226	0x3cf75fd0	0.030197054
227	0x3c323e69	0.010879138
228	0xbda5bb6f	-0.08092391
229	0xbc846f84	-0.016166456
230	0x3ba51040	0.0050373375
231	0x3d5add7b	0.053433876
232	0x3cb0a3b5	0.021562437
233	0x3c6f732f	0.014614864
234	0x3d6863bf	0.05673575
235	0xbc38e908	-0.011286028
236	0x3d136342	0.03598333
237	0x3d51536f	0.05110496
238	0xbc35a69e	-0.011087088
239	0x3d35d6c7	0.04439428
240	0xbd5458ce	-0.051842503
241	0xbcd26e74	-0.025687434
242	0xbcd34c9c	-0.025793366
243	0x3c4569b8	0.012049131
244	0xbdb133f5	-0.08652488
245	0xbd5d34c7	-0.05400541
246	0xbd1ee03b	-0.03878806
247	0xbd58ab7c	-0.052897915
248	0x3cf8deb0	0.030379623
249	0xbc1c78d8	-0.009550296
250	0x3da69175	0.081332125
251	0xbda82e0a	-0.08211906
252	0xbda4fcd0	-0.08056033
253	0xbc80cdc1	-0.015723111
254	0xbcbbace1	-0.022909584
255	0x3d6dcabc	0.05805467

fc.2.bias f4 [128]
0	0xbc8359a9	-0.016033964
1	0xbd462a8e	-0.048380427
2	0x3cbb1f36	0.022842031
3	0x3d39a677	0.04532477
4	0x3d2fdf80	0.042937756
5	0xbdb3e705	-0.08784298
6	0x3c7f60fc	0.015587088
7	0x3d6d22ee	0.05789464
8	0xbd12bee6	-0.035826586
9	0xbd48f280	-0.04905939
10	0x3d81ac5c	0.06331703
11	0xbda3ed05	-0.08004192
12	0xbd9c546d	-0.076332904
13	0x3b3e2617	0.0029014403
14	0x3d13c6e3	0.036078345
15	0x3d68935c	0.056781158
16	0x3db3d55e	0.08780931
17	0xbdb1f1a3	-0.08688667
18	0xbbd3ea0c	-0.0064671095
19	0xbdaea35a	-0.085272506
20	0xbbbb65ee	-0.005718938
21	0xbd90ccaf	-0.0707029
22	0xbd84b695	-0.06480137
23	0x3d798779	0.060920212
24	0xbd164520	-0.036687016
25	0xbd878b48	-0.06618363
26	0x3d1fade2	0.038984187
27	0xbcf811cc	-0.030281924
28	0x3d711caf	0.058865245
29	0x3d672b1c	0.056437597
30	0x3c320510	0.010865465
31	0xbd14b449	-0.036304746
32	0x3d50a400	0.050937653
33	0xbc9cc3b6	-0.019136291
34	0x3d0e5fe9	0.034759436
35	0xbda34a92	-0.079732075
36	0x3db177ec	0.086654514
37	0x3c5420b5	0.012947251
38	0xbd557724	-0.052115574
39	0xbd8c6eea	-0.06857093
40	0xbdad5770	-0.08463943
41	0x3bd7a9a2	0.006581501
42	0xbd9ee3c5	-0.07758287
43	0xbd60eb5c	-0.054911956
44	0xbcd4b394	-0.025964536
45	0xbbcb51c9	-0.006204818
46	0xbcbd9310	-0.023141414
47	0x3d4eeeaa	0.050520577
48	0xbd6dd8bd	-0.058068026
49	0xbc26837b	-0.010163183
50	0x3daa7b88	0.08324343
51	0xbd34bc65	-0.04412498
52	0xbd4950ba	-0.049149252
53	0xbd145f19	-0.036223505
54	0x3d33165c	0.043722495
55	0x3d4b6b11	0.049662653
56	0xbd82596e	-0.063647136
57	0x3c6e5d62	0.014548631
58	0x3c34653f	0.011010467
59	0x3d81efd1	0.063445695
60	0x3db0d24f	0.08633863
61	0xbc38cb95	-0.0112790065
62	0xbd5878f3	-0.05284972
63	0xbd9ed7cf	-0.07756006
64	0x3d2db167	0.042405512
65	0xbd728605	-0.059209842
66	0xbce38298	-0.027772233
67	0xbd778ab0	-0.060434997
68	0x3da2c993	0.079486035
69	0xbd065be7	-0.03280249
70	0x3d915d4d	0.07097874
71	0x3da7b5e4	0.0818899
72	0x3c84e310	0.016221553
73	0x3d58fa0e	0.052972846
74	0x3d169fca	0.03677348
75	0xbd9acbfc	-0.07558438
76	0x3d18f36f	0.03734153
77	0xbc9648e6	-0.018345308
78	0xbcd773e5	-0.02630038
79	0xbd7a2ac4	-0.06107594
80	0x3d605a4b	0.05477361
81	0x3d6083d8	0.054813236
82	0x3da2ba1b	0.07945653
83	0x3d0384c8	0.032109052
84	0x3d5c7639	0.053823683
85	0x3d9569e9	0.072955914
86	0xbd4e6bd7	-0.050395813
87	0x3c21e15d	0.009880391
88	0xbd18091a	-0.037118055
89	0x3bdfb17c	0.0068265777
90	0xbda70503	-0.08155253
91	0xbd20feb6	-0.03930541
92	0x3d38cd7c	0.04511784
93	0x3c12f6d0	0.0089699775
94	0xbd61fc2c	-0.05517213
95	0x3d0079b8	0.03136608
96	0xbd695688	-0.05696729
97	0x3d84d817	0.06486528
98	0x3b0e0743	0.0021671809
99	0xbd1873cb	-0.037219804
100	0x3d7ad1db	0.06123529
101	0x3d3cd76e	0.046103887
102	0xbd15c3ef	-0.03656381
103	0xbdae7fd7	-0.08520477
104	0x3c11f8e7	0.008909441
105	0x3db0b1de	0.086276755
106	0xbc4de7c3	-0.012567463
107	0x3d328f57	0.04359373
108	0x3d995388	0.074866354
109	0x3d4cf5f1	0.050039236
110	0x3d8ac8c6	0.06776576
111	0xbd6cbb47	-0.05779579
112	0xbcc94bb0	-0.024572223
113	0x3db94997	0.09047239
114	0x3d150850	0.03638488
115	0x3bedbeb6	0.0072554005
116	0x38a6c789	7.952663e-05
117	0x3d14e364	0.03634967
118	0x3d8fe9d4	0.07027021
119	0x3db134a1	0.08652616
120	0xbd72608f	-0.059174117
121	0xbdb1ed8b	-0.08687886
122	0x3da43462	0.08017804
123	0xbda6004e	-0.08105527
124	0x3d921019	0.07131977
125	0xbd858eb5	-0.0652136
126	0x3c981e45	0.018569121
127	0xbca063e2	-0.019578878

fc.4.weight f4 [9, 128]
0	0x3bc468eb	0.0059939525
1	0x3d8e7c62	0.06957318
2	0xbdafea76	-0.08589642
3	0x3c1b539b	0.009480382
4	0x3b78a134	0.0037937881
5	0x3b8cead0	0.004300453
6	0x3d1e315f	0.038621303
7	0xbd744b4c	-0.05964212
8	0xbda39b2f	-0.07988583
9	0x3d087820	0.033317685
10	0x3d31c448	0.04340008
11	0xbd9a13c9	-0.07523305
12	0x3d575d3e	0.052579157
13	0xbcf1ce23	-0.029517239
14	0x3d0d6d21	0.0345279
15	0x3d4888fd	0.048958767
16	0x3d9434db	0.07236644
17	0xbd850627	-0.06495314
18	0x3d7381fd	0.05945014
19	0x3daff779	0.085921235
20	0x3d828b2f	0.063742034
21	0x3da2f8e3	0.079576276
22	0xbcbf3625	-0.023341248
23	0xbd259b29	-0.040431175
24	0x3d291bc1	0.041286234
25	0x3dae13e3	0.08499887
26	0x3d499358	0.049212784
27	0x3c166bf2	0.00918101
28	0xbcdf5b27	-0.027265145
29	0x3da73241	0.08163882
30	0xbcc77335	-0.024346927
31	0x3d5b30cc	0.053513333
32	0xbd4abb3c	-0.049494967
33	0x3bb3aac6	0.0054830043
34	0x3d33987d	0.043846596
35	0x3d8c2f61	0.06844974
36	0x3d402a3e	0.046915285
37	0xbc73cc60	-0.01488027
38	0xbcdc05da	-0.026858259
39	0x3d12c791	0.035834853
40	0xbd4a39e1	-0.049371604
41	0xbda12f79	-0.07870383
42	0x3c140d18	0.009036325
43	0xbcfb39ff	-0.030667303
44	0xbc6810e8	-0.014164187
45	0x3be15663	0.006876753
46	0x3c5f5230	0.013630435
47	0xbd9baba5	-0.07601098
48	0x3d0826a5	0.03323998
49	0xbd7d50cf	-0.061844643
50	0x3db389a0	0.08766484
51	0x3d61b344	0.0551026
52	0xbd64500e	-0.05574041
53	0xbd836139	-0.06415028
54	0x3d1fa357	0.038974132
55	0xbce49be8	-0.027906373
56	0xbce0b2fe	-0.0274291
57	0x3d049144	0.0323651
58	0xbd302dc5	-0.0430124
59	0x3c89a96d	0.016804421
60	0x3d92397f	0.07139873
61	0x3da66eef	0.08126628
62	0xbbc714c4	-0.0060754735
63	0xbd8d1619	-0.068889804
64	0xbd812d61	-0.063074835
65	0xbc367a4b	-0.011137555
66	0x3d7e8bd6	0.062145077
67	0xbb8d5810	-0.0043134764
68	0xbd7d845c	-0.061893806
69	0xbc156379	-0.009117954
70	0xbda5b9a8	-0.08092052
71	0x3d8c801b	0.06860372
72	0x3d54aaa7	0.05192056
73	0xbc4e9a92	-0.012610095
74	0xbd982c28	-0.07430297
75	0xbc43fa92	-0.011961596
76	0x3c612272	0.013741123
77	0xbc17e34b	-0.009270499
78	0xbc4a8f35	-0.012363245
79	0x3d1ff4a0	0.039051652
80	0xb9e9c67e	-0.0004458911
81	0x3dadca31	0.084858306
82	0x3d78dfab	0.06076018
83	0x3cee456b	0.029085835
84	0xbdaa93a5	-0.08328942
85	0xbca69669	-0.020335393
86	0x3d29d28b	0.041460555
87	0x3ce6cfd0	0.028175265
88	0xbdaa9268	-0.08328706
89	0xbca006ba	-0.019534457
90	0xbd9c0d40	-0.07619715
91	0x3da6c31f	0.08142685
92	0x3c8ec9e2	0.01743025
93	0xbd13592c	-0.035973713
94	0x3db1e7ae	0.086867675
95	0x3db5e90c	0.08882341
96	0xbd9a8c02	-0.075462356
97	0x3ca81b28	0.020520762
98	0x3b172026	0.0023059933
99	0x3d944059	0.07238836
100	0xbc84e14b	-0.01622071
101	0xbd99fd24	-0.07518986
102	0xbc9135d5	-0.017725864
103	0x3c76f85f	0.015073865
104	0x3c56f5c2	0.013120117
105	0x3cef4992	0.029209886
106	0x3d086802	0.033302315
107	0x3c6ab05e	0.014324276
108	0xbd3b21b8	-0.045686454
109	0x3d15cc96	0.03657206
110	0x3daa9f24	0.08331135
111	0xbc921b31	-0.017835231
112	0xbbeabf40	-0.007163912
113	0xbd1d1d24	-0.03835787
114	0xbcf4b46b	-0.029871186
115	0x3dab7eef	0.0837382
116	0x3bb0cbea	0.005395402
117	0xbd3a2fee	-0.045455866
118	0xbd7e035a	-0.062014915
119	0xbd41f366	-0.047351263
120	0x3d64593e	0.05574917
121	0x3cbf3878	0.023342356
122	0xbd084c47	-0.03327587
123	0x3d0c25c7	0.034215715
124	0x3d97d955	0.074145
125	0xbd61a433	-0.055088233
126	0x3bb5dc89	0.0055499715
127	0xbd53d6c9	-0.051718507
128	0x3d946346	0.072454974
129	0x3daf2ca9	0.0855344
130	0xbbd75088	-0.0065708794
131	0x3caabcfe	0.020842072
132	0xbc081afb	-0.008307214
133	0x3dae5c3f	0.08513688
134	0x3d8d32bc	0.068944424
135	0x3d5d2f7d	0.054000366
136	0x3d44587a	0.04793594
137	0xbb85a554	-0.0040785465
138	0xbc43a5b3	-0.011941361
139	0x3d6bf74a	0.05760888
140	0xbcc23738	-0.023707971
141	0xbd271b39	-0.040797446
142	0x3db52f5f	0.08846926
143	0xbd310f1e	-0.043227307
144	0xbd81af17	-0.06332224
145	0x3d8e17b5	0.069381155
146	0xbd8b48cd	-0.06800995
147	0x3cfc3936	0.030788999
148	0x3d44868a	0.04797987
149	0xbd1c0059	-0.03808627
150	0xbda44efe	-0.08022879
151	0x3d8611a5	0.06546334
152	0x3c83d042	0.016090516
153	0xbd95c68d	-0.07313261
154	0xbd298972	-0.041390844
155	0x3aa9f995	0.0012968058
156	0x3cb84625	0.022494385
157	0xbb7cc9bf	-0.0038572398
158	0xbcc46d6b	-0.023977956
159	0x3c8ea849	0.017414229
160	0x3d86781a	0.06565876
161	0xb9e08a39	-0.00042827593
162	0xbcbc124d	-0.022957945
163	0x3d5da33f	0.05411076
164	0xbca9598b	-0.02067258
165	0xbda4aa13	-0.080402516
166	0x3cf2e811	0.029651674
167	0xbc57527f	-0.013142227
168	0x3d4e2b92	0.05033452
169	0xbd6923f9	-0.05691907
170	0xbce84d62	-0.028357212
171	0xbc8aa939	-0.016926395
172	0xbda5c0aa	-0.080933884
173	0x3d960be2	0.07326485
174	0xbb83ce50	-0.004022397
175	0xbca19405	-0.019723902
176	0x3daa44a0	0.083138704
177	0x3c9e01a7	0.019287897
178	0x3d2a71fd	0.041612614
179	0x3cea4f56	0.028602283
180	0x3d8ba449	0.06818444
181	0x3ce16017	0.02751164
182	0x3c12f411	0.008969323
183	0x3ce4af04	0.027915485
184	0x3c82f898	0.01598768
185	0xbd823e48	-0.063595355
186	0x3d7ef195	0.06224211
187	0xbcb38aea	-0.021916825
188	0x3919d342	0.00014669917
189	0xbd1c9ee5	-0.03823747
190	0xbd78a876	-0.060707532
191	0x3c3359ad	0.010946673
192	0xbc8ae08c	-0.016952775
193	0xbd31efbb	-0.043441515
194	0x38430f46	4.6505847e-05
195	0x3bb4e280	0.005520165
196	0xbd1ba662	-0.038000472
197	0x3d8d42a5	0.06897477
198	0x3cfb0b27	0.030644966
199	0x3d8323db	0.06403323
200	0xbd7e6321	-0.062106255
201	0xbd97b74c	-0.07408008
202	0x3daed711	0.085371144
203	0xbd9a00d0	-0.07519686
204	0xbd180961	-0.03711832
205	0x3dafb437	0.08579295
206	0x3db65500	0.08902931
207	0x3d7920d5	0.060822327
208	0x3da08603	0.07838061
209	0xbc668d01	-0.014071704
210	0xbd9e499c	-0.077288836
211	0xbd19f5d4	-0.037587956
212	0xbd9adbdc	-0.07561466
213	0xbb81a353	-0.0039562373
214	0xbd6d9f31	-0.058013145
215	0x3d3bdbca	0.045863904
216	0x3dbcf2a5	0.09225968
217	0xbd3394f0	-0.04384321
218	0x3d81771d	0.06321547
219	0x3da64a33	0.08119621
220	0x3d2365a0	0.03989184
221	0x3d3566c0	0.044287443
222	0xbd804e65	-0.062649526
223	0xbcc088bb	-0.023502698
224	0x3d9613f9	0.07328028
225	0x3d0a1cce	0.033718877
226	0xbd9aa208	-0.07550436
227	0xbca07cd2	-0.019590769
228	0x3d41a431	0.047275726
229	0xba9180ce	-0.0011101009
230	0xbc93db55	-0.018048922
231	0x3c83a52d	0.016069973
232	0x3d570d82	0.052503116
233	0xbc857779	-0.01629232
234	0xbd446aa8	-0.047953278
235	0xbcb2dc19	-0.021833466
236	0xbd619d23	-0.055081498
237	0xbd6aca59	-0.05732188
238	0x3d12405c	0.03570591
239	0xbcc48552	-0.023989353
240	0x3d939415	0.07205979
241	0xbd12b352	-0.035815544
242	0x3d2bafd1	0.04191572
243	0xbca89c64	-0.020582385
244	0x3da97c6a	0.08275683
245	0xbd58b347	-0.052905347
246	0x3d093065	0.03349342
247	0xbc54c859	-0.01298722
248	0x3db1d606	0.086834
249	0x3d003dc8	0.03130892
250	0xbcccbe4e	-0.024993088
251	0x3d7958de	0.060875766
252	0xbc96420b	-0.018342039
253	0x3d7e9d65	0.062161822
254	0x3db1ca80	0.08681202
255	0xbd307cd2	-0.043087788

fc.4.bias f4 [9]
0	0xbd8134d4	-0.06308904
1	0x3d5e152a	0.054219402
2	0x3d901e5e	0.07037042
3	0x3d14fad2	0.036372013
4	0x3c52fa2b	0.0128770275
5	0xbc80e1b2	-0.01573262
6	0xbc790978	-0.015200011
7	0x3d8bf7ed	0.068343975
8	0xbd9b01c2	-0.07568695
