ppo_model.pth (torch, 205357 bytes, 6 tensors)

fc.0.weight f4 [128, 256]
0	0xbd0e1022	-0.034683354
1	0x3cbeb8c8	0.02328147
2	0xbd1c1151	-0.03810245
3	0x3d4c3cb9	0.049862597
4	0xbd36f0a8	-0.0446631
5	0xbd65d4cb	-0.05611114
6	0xbd1fc348	-0.039004594
7	0x3d5bd21a	0.053667165
8	0x3d15d691	0.03658158
9	0x3b17420d	0.002308014
10	0x3cdaf5dc	0.026728563
11	0x3cc2fa61	0.02380103
12	0x3d6af2d7	0.057360496
13	0x39ed8e2d	0.00045310092
14	0xbd754600	-0.05988121
15	0xbcf22c79	-0.029562222
16	0x3ce616b7	0.028087003
17	0x3bfb8b19	0.007676494
18	0xbd077f23	-0.03308023
19	0xbc5c6e84	-0.013454083
20	0x39a2764d	0.0003098719
21	0x3d2872d0	0.04112512
22	0x3d3be5b9	0.045873377
23	0x3d224518	0.039616674
24	0xbd751a34	-0.059839442
25	0x3c8035cc	0.015650652
26	0x3d75738a	0.05992464
27	0x3c905bc8	0.01762189
28	0x3d76b86d	0.060234476
29	0x3cd11d39	0.02552663
30	0xbd67a25a	-0.056551315
31	0xbd3084fd	-0.043095578
32	0xbce51286	-0.027962934
33	0x3d525931	0.05135459
34	0xbd2e2649	-0.04251698
35	0xbc981c78	-0.018568262
36	0xbd39f73f	-0.045401808
37	0xbd764524	-0.06012453
38	0x3c00ed01	0.007869006
39	0xbd5e2747	-0.054236677
40	0x3d1b8040	0.037964106
41	0xbccf0c65	-0.025274465
42	0xbbf0e1c5	-0.0073511326
43	0x3c2ff7ef	0.010740264
44	0xbc07df76	-0.008293023
45	0x3d17cfa5	0.03706326
46	0x3ce81af4	0.028333165
47	0x3c532ccd	0.012889099
48	0x3d07d775	0.03316446
49	0x3d247452	0.040149994
50	0xbc58c31b	-0.0132301105
51	0xbd06aa27	-0.032877114
52	0x3c649524	0.0139515735
53	0xbce568fe	-0.028004166
54	0xbcb36a4f	-0.021901278
55	0x3b9f606b	0.004863789
56	0x3c899bca	0.016797919
57	0xbcd5c07a	-0.026092757
58	0x3d6d3a57	0.057916965
59	0x3d68dc6f	0.056850847
60	0xbd08df03	-0.033415806
61	0xbd408afa	-0.04700754
62	0x3a89a0da	0.0010500208
63	0x3d5c29ba	0.05375073
64	0xbd12f678	-0.035879582
65	0x3d7091b2	0.058732696
66	0xbcc72ef5	-0.024314383
67	0xbd196e68	-0.037458807
68	0x3a338100	0.00068475306
69	0x3cf9814b	0.03045716
70	0xbd268025	-0.040649552
71	0x3d317d6b	0.0433325
72	0xbc028165	-0.00796542
73	0x3ced2952	0.028950367
74	0xbd496a0d	-0.049173404
75	0xbd4765ab	-0.048680943
76	0x3cdc84b6	0.02691875
77	0x3ad73266	0.0016418218
78	0xbcaae5e6	-0.020861577
79	0x3cad3f2d	0.021148289
80	0x3c6d1858	0.014471136
81	0xbc2ff25d	-0.010738936
82	0xbd6e8fe0	-0.05824268
83	0xbc12331a	-0.008923316
84	0x3d6b6e3f	0.057478186
85	0x3c71bb50	0.014754131
86	0xbd5ff00a	-0.05467228
87	0x3cf0a24b	0.029374262
88	0xbcfc8cc7	-0.030828847
89	0xbb6e6515	-0.0036376168
90	0x3cc2711f	0.023735581
91	0x3c3f8c5f	0.011691182
92	0xbcdfa6b2	-0.027301166
93	0xbd4ffcbd	-0.05077814
94	0xbca791bc	-0.020455234
95	0x3d62b8f2	0.05535216
96	0x3cc71559	0.024302172
97	0x3ce2d54b	0.027689597
98	0xbc4bcaf2	-0.012438523
99	0xbc8f8dd6	-0.017523687
100	0x3d31dac7	0.043421533
101	0xbd2f7ac8	-0.042841703
102	0xbc965fdf	-0.018356262
103	0x3d2226e2	0.039587863
104	0xb7de08dd	-2.646859e-05
105	0x3d7d6a9d	0.061869252
106	0x3ce34519	0.02774291
107	0xbd7aeaeb	-0.06125919
108	0xbc578a12	-0.013155477
109	0xb81b0c72	-3.696647e-05
110	0x3d77bd01	0.060482983
111	0xbd330c21	-0.04371274
112	0x3c0bb515	0.00852706
113	0x3ca89dda	0.020583082
114	0xbcc1e8cf	-0.023670582
115	0xbd21d3de	-0.039508693
116	0x3d204f00	0.03913784
117	0x3d816d27	0.06319647
118	0x3d80adea	0.062831715
119	0x3c1009d4	0.008791406
120	0xbc774181	-0.015091301
121	0xbd6f501f	-0.05842602
122	0x3cb54926	0.022129606
123	0x3d44d5a8	0.04805532
124	0xbc3706b8	-0.0111710355
125	0x3d0c2f50	0.03422481
126	0xbd09705b	-0.033554416
127	0xbd7b42f0	-0.061343133
128	0x3d6ef078	0.058334798
129	0x3d2f455b	0.042790752
130	0xbb469578	-0.0030301493
131	0xbce36fef	-0.027763335
132	0x3d3a9572	0.04555268
133	0x3aeeea40	0.0018227771
134	0x3cd02550	0.025408417
135	0xbcd2bdd8	-0.02572529
136	0xbce18f8d	-0.02753427
137	0xbd2d222e	-0.042268924
138	0x3d673bc6	0.05645349
139	0x3d411e5a	0.047148086
140	0x3d56c69f	0.052435514
141	0x3cd04f36	0.025428396
142	0xbba9e174	-0.005184347
143	0xbc8bc850	-0.01706329
144	0x3cb38210	0.021912605
145	0xbd322c05	-0.04349901
146	0x3d572168	0.052522093
147	0x3cbcfd0a	0.023069877
148	0x3d1d0b79	0.03834102
149	0x3d4600a3	0.04834045
150	0x3d072f8e	0.033004336
151	0x3d84c6ce	0.064832315
152	0xbc2ebe0b	-0.010665427
153	0xbcebd5c3	-0.028788453
154	0xbd3c65ef	-0.04599565
155	0xb6eb173e	-7.0062515e-06
156	0x3b953630	0.004553579
157	0xbd14af72	-0.03630013
158	0x3d2d03a1	0.04223979
159	0x3d3b1718	0.04567632
160	0xbd21a9a6	-0.03946843
161	0xbbb3fc13	-0.005492696
162	0x3b649ce5	0.0034883555
163	0x3d26139b	0.04054604
164	0x3bcd335f	0.0062622274
165	0x3d024c66	0.03181114
166	0xbd111b69	-0.03542653
167	0xbc374550	-0.011185959
168	0xbd43a62f	-0.047765907
169	0xbbc44f6a	-0.005990912
170	0xbcd01384	-0.02539993
171	0xbd225d7a	-0.039639927
172	0xbd0cb2f4	-0.03435035
173	0xbc880db2	-0.016608093
174	0xbce606cb	-0.028079411
175	0x3d58488c	0.05280356
176	0x3c452658	0.012033068
177	0xbd0f1956	-0.03493627
178	0xbcfbdec5	-0.030745873
179	0x3bc0639e	0.0058712503
180	0x3d6b7ae4	0.057490245
181	0xbc6817b8	-0.014165811
182	0xbd352d62	-0.044232734
183	0xbcd50f2c	-0.026008211
184	0x3d664e54	0.056227043
185	0xbc1724a0	-0.009225041
186	0x3d442862	0.047890075
187	0x3c460430	0.012085959
188	0x3ccc0497	0.024904532
189	0x3c7a2cb8	0.015269451
190	0xbd5fdbc2	-0.054652937
191	0x3d746918	0.059670538
192	0xbd534620	-0.05158055
193	0x3c90e5c4	0.017687686
194	0xbc616aa9	-0.01375834
195	0xbcaaef06	-0.020865928
196	0x3cd9500a	0.026527423
197	0xbc2499ed	-0.010046464
198	0xbcdb94fa	-0.026804436
199	0x3c9ce9c0	0.01915443
200	0xbd19fb07	-0.037592914
201	0xbcf669ba	-0.030079711
202	0x3d83c881	0.064347275
203	0x3cc5e4c6	0.02415694
204	0xbd5a9b10	-0.053370535
205	0xbc3f55f7	-0.01167821
206	0x3ca5eb8d	0.02025392
207	0xbd38e77d	-0.04514264
208	0x3d6d9b2e	0.05800932
209	0x3cffea1e	0.031239565
210	0xbd7ed0bd	-0.062210787
211	0x386ec532	5.6927274e-05
212	0x3d829210	0.063755155
213	0x3cf72361	0.030168237
214	0xbd12ffc4	-0.03588845
215	0xbd06d087	-0.03291371
216	0x3d7a1016	0.061050497
217	0xbca1748e	-0.019708898
218	0x3d3d50d4	0.04621966
219	0x3d60ac98	0.0548521
220	0x3cfca50c	0.03084042
221	0x3c222d8b	0.009898554
222	0xbcfe13c0	-0.031015277
223	0xbd0c2ed9	-0.034224365
224	0x3d55e8f1	0.052224103
225	0xbd26a461	-0.040684108
226	0x3d8077fe	0.06272887
227	0xbd44a6a4	-0.048010483
228	0xbd367012	-0.044540472
229	0x3d7ead6d	0.06217711
230	0x3d36db1c	0.044642553
231	0x3d50a52a	0.050938763
232	0xbbed5cb5	-0.0072437176
233	0x3d550795	0.052009184
234	0xbcf57352	-0.029962216
235	0x3d50acc8	0.050946027
236	0x3c264d76	0.010150304
237	0x3d33b037	0.043869223
238	0x3aa7d443	0.0012804348
239	0xbbf13185	-0.0073606395
240	0x3d68a453	0.056797337
241	0xbce98ec0	-0.028510451
242	0xbd36b6a6	-0.04460778
243	0xbd4d0ba7	-0.05005994
244	0xbd48e405	-0.04904558
245	0x3cb3e338	0.021958932
246	0xbd1f7f7e	-0.038939945
247	0x3b8a9750	0.0042294636
248	0x3d6ed03d	0.05830406
249	0xbd49901c	-0.0492097
250	0xbce7f550	-0.028315216
251	0xbd3c9e39	-0.04604933
252	0x3d6617c3	0.056175005
253	0xbd75d70b	-0.060019534
254	0xbc820adf	-0.015874324
255	0x3a3f6000	0.0007300377

fc.0.bias f4 [128]
0	0xbc5d12f2	-0.013493286
1	0x3d6edeb7	0.058317866
2	0x3ce20f5d	0.027595216
3	0x3caa48b5	0.020786623
4	0x3cd36c6b	0.025808534
5	0xbd26c8f9	-0.040719006
6	0xbd4404c3	-0.047856104
7	0x3ceae5c9	0.028674023
8	0x3cd167fb	0.025562277
9	0xbcac2a29	-0.021016197
10	0x3ce23eaf	0.02761778
11	0xbc933046	-0.017967355
12	0x3d31ebba	0.043437697
13	0x3d1fd012	0.03901679
14	0xbd4cf1e5	-0.050035376
15	0xbd88ae5f	-0.06673884
16	0x3c96096e	0.018315043
17	0xbc196a50	-0.009363726
18	0x3c433a32	0.01191573
19	0x3c7bf9a7	0.015379346
20	0xbce84f08	-0.028357998
21	0x3982433e	0.00024845632
22	0xbc5ccaac	-0.013476055
23	0x3d50f2c4	0.05101277
24	0x3c18e144	0.009331051
25	0xbc875bbb	-0.016523233
26	0x3d1097ea	0.035301127
27	0x3c625b2d	0.013815683
28	0x3b4780d1	0.003044177
29	0xbd766424	-0.060154095
30	0x3c9ba724	0.019000597
31	0xbcd5b350	-0.02608648
32	0x3d2fd398	0.0429264
33	0xbc9a67a2	-0.018848244
34	0xbd23bc15	-0.03997429
35	0xbd138f3a	-0.036025263
36	0x3c9480f9	0.018127905
37	0xbd52e11b	-0.05148421
38	0x3d25651c	0.04037963
39	0xbd04d561	-0.032430056
40	0x3d52c213	0.051454615
41	0xbc42ba17	-0.011885188
42	0xbc9d5c3b	-0.019209018
43	0xbd55e1d1	-0.05221731
44	0xbd0127d9	-0.031532142
45	0x3b8f65df	0.0043761577
46	0xbd14075f	-0.036139842
47	0x3cd5d2f8	0.026101574
48	0x3d01eb98	0.03171882
49	0x3c0eafd2	0.008708911
50	0xbbe50f5c	-0.0069903564
51	0xbc9a02ef	-0.018800227
52	0xbcfe6f22	-0.031058852
53	0x3c13760c	0.009000313
54	0x3cd4e83c	0.025989644
55	0xbd3a93a6	-0.045550965
56	0xbd1a07cb	-0.03760509
57	0xbd2d0cb7	-0.042248454
58	0xbced43b3	-0.028962946
59	0x3cceff41	0.025268199
60	0x3cdfe6b1	0.027331682
61	0x3cf9c4c3	0.030489331
62	0x3bd84103	0.006599547
63	0xbd36cae0	-0.04462707
64	0x3ba61467	0.00506835
65	0x3c73c8c5	0.01487941
66	0xbc832061	-0.01600665
67	0x3bfdab03	0.0077413335
68	0xbc9b85c1	-0.018984677
69	0x3b7ccb43	0.0038573302
70	0x3bfc8942	0.007706792
71	0xbd55ae43	-0.052168142
72	0xbd0b70c1	-0.034043077
73	0xbc1ac4a2	-0.009446295
74	0xb9a10756	-0.0003071378
75	0x390a0017	0.00013160739
76	0x3d65df2f	0.056121048
77	0xbcee00f8	-0.029053196
78	0x3d71ced7	0.05903515
79	0x3cdae8d3	0.026722347
80	0xbd182d16	-0.037152372
81	0x3d721f6d	0.059112
82	0x3cd19ed4	0.02558843
83	0x3d8c671f	0.06855606
84	0xbd7baa7c	-0.061441883
85	0xbd57e207	-0.05270579
86	0xbc74e027	-0.01494602
87	0xbc86f906	-0.016476166
88	0xbd6d7eea	-0.057982363
89	0xbd4e8100	-0.050415993
90	0x3cc2e85e	0.023792442
91	0xbc69696f	-0.014246329
92	0xbce79720	-0.028270304
93	0xbd3b5f19	-0.04574499
94	0xbcb22f00	-0.021750927
95	0xbb31c87d	-0.0027127557
96	0x3af7681e	0.0018875634
97	0x3c9756ea	0.018474061
98	0x3d573b56	0.05254682
99	0xbd57771e	-0.052603833
100	0x3d10b322	0.035327084
101	0xbd31d0ac	-0.043411896
102	0x3d09d0e6	0.033646487
103	0x3d21c858	0.039497703
104	0xbd1eea05	-0.038797397
105	0xbcb58522	-0.02215821
106	0xbc6f1463	-0.014592263
107	0x3d4838ab	0.048882168
108	0x3d0214a2	0.03175796
109	0xbd0b6cfd	-0.034039486
110	0xbd3b4702	-0.045722015
111	0xbc7c45f8	-0.015397541
112	0xbcae9569	-0.021311479
113	0xbc83dc00	-0.016096115
114	0xbd782110	-0.060578406
115	0x3d2f3b4e	0.042781167
116	0x3d53942d	0.051654983
117	0x3ca46a44	0.020070203
118	0xbd029b60	-0.03188646
119	0x3d445eaa	0.04794184
120	0x3d0c0eb2	0.034193702
121	0x3cc13f28	0.023589686
122	0x3d2eac9b	0.04264508
123	0xbd823fbd	-0.06359813
124	0x3d32ae0e	0.043623023
125	0xbbd10527	-0.006378788
126	0x3ba10803	0.004914285
127	0xbd70b380	-0.058764935

fc.2.weight f4 [128, 128]
0	0xbd88bfdf	-0.066772215
1	0xbcacd9fa	-0.021100033
2	0x3d20d70a	0.039267577
3	0xbca540f1	-0.020172568
4	0xbd1b3ba5	-0.03789868
5	0x3d9a3ce5	0.07531146
6	0x3d05587f	0.0325551
7	0x3b075f04	0.0020656
8	0xbd6fc04f	-0.05853301
9	0x3cfeae68	0.031089023
10	0xbd0a3d9c	-0.03375016
11	0x3cd78f0a	0.026313324
12	0xbda08e62	-0.07839657
13	0xbd8b1da1	-0.06792761
14	0xbc550052	-0.013000565
15	0xbd4921c4	-0.049104467
16	0x3d7c3552	0.061574288
17	0xbdaec338	-0.08533329
18	0x3cf77964	0.03020925
19	0xbd7e8915	-0.06214245
20	0x3bd9c2ce	0.006645537
21	0xbd6781a2	-0.05652011
22	0x3d04e1e5	0.032441992
23	0x3adc548c	0.0016809865
24	0xbd6e623e	-0.05819916
25	0xbd360f1f	-0.044448014
26	0xbc6bdd4d	-0.014396024
27	0xbd7dadcd	-0.061933327
28	0x3d2c17ec	0.042015
29	0xbb804504	-0.0039144773
30	0x3d026c4f	0.031841572
31	0xbd606120	-0.054780126
32	0x3d9958b7	0.07487624
33	0xbdb1686d	-0.08662496
34	0xbd40411c	-0.046937093
35	0xbd296cfd	-0.041363705
36	0xbd7fa67a	-0.062414624
37	0x3cb96279	0.022629963
38	0x3d758b4e	0.059947304
39	0xbc2707f8	-0.010194771
40	0x3c913c9f	0.017729102
41	0xbc95ea40	-0.018300176
42	0xbce2ec94	-0.0277007
43	0xbd96b126	-0.07358007
44	0x3c0a1668	0.008428194
45	0x3d345347	0.044024732
46	0x3cffd380	0.03122878
47	0xbc3dcdd8	-0.0115847215
48	0xbc809f07	-0.01570083
49	0x3d8b7e41	0.068111904
50	0xbd557427	-0.052112725
51	0x3c15ae66	0.009135818
52	0xbcfc3dff	-0.03079128
53	0x3d6c70a6	0.057724617
54	0x3db51faa	0.0884393
55	0x3d9a9545	0.07548002
56	0x3dadc48a	0.084847525
57	0xbda21711	-0.07914556
58	0xbd99552e	-0.0748695
59	0xbc380190	-0.011230841
60	0x3cb0fc42	0.02160466
61	0x3ae63507	0.0017563411
62	0xbda40156	-0.08008067
63	0xbd14599a	-0.036218263
64	0xbd12f3d1	-0.035877053
65	0x3cb3df55	0.021957079
66	0x3d88cea0	0.066800356
67	0xbc8910a4	-0.016731568
68	0xbc766ca9	-0.015040555
69	0x3d6455a2	0.05574573
70	0x3daa2b1a	0.08309002
71	0x3d42de7a	0.04757545
72	0xbda6c178	-0.0814237
73	0x3c8c785b	0.017147234
74	0xbc99955b	-0.018747976
75	0xbbddc46b	-0.0067677996
76	0x3ca2705e	0.019828971
77	0x3d57f8f7	0.052727666
78	0x3c77eb7f	0.01513183
79	0x3cf6bfbc	0.030120723
80	0xbd836269	-0.064152546
81	0x3be359d0	0.0069381967
82	0xbc042b81	-0.008067013
83	0x3db78001	0.08959962
84	0x3d2d37aa	0.042289414
85	0xbc18fb98	-0.009337328
86	0xbd80bf3b	-0.06286474
87	0x3da264ad	0.07929359
88	0xbbe26b3a	-0.006909755
89	0xbd0b7056	-0.03404268
90	0x3ce41fea	0.027847249
91	0x3d314a6b	0.04328386
92	0x3d1dd285	0.038530845
93	0x3d670fc6	0.056411527
94	0xbccb0d4e	-0.024786618
95	0xbdaa7da7	-0.083247475
96	0x3d7473c5	0.05968072
97	0xbcc32958	-0.023823425
98	0x3ceff7e8	0.029293016
99	0xbcff8b38	-0.031194314
100	0x3d8c2e6c	0.06844792
101	0x3d2374bf	0.03990626
102	0x3d8676e7	0.065656476
103	0xbd5f2028	-0.054474026
104	0xbcc40c99	-0.023931788
105	0x3d63cae4	0.055613413
106	0x3d9ab98f	0.07554924
107	0x3d6c562c	0.057699367
108	0xbc1df8a5	-0.009641801
109	0x3ccf2e72	0.025290702
110	0xbd87a3d1	-0.066230424
111	0xbd7cce04	-0.06171991
112	0x3cb79ef0	0.022414654
113	0xbd50743b	-0.050892096
114	0xbd15cb7d	-0.036571015
115	0xbd4f9bc2	-0.05068565
116	0x3cc86ae9	0.024465041
117	0xbbf5846f	-0.007492594
118	0xbd749504	-0.059712425
119	0x3cbbc84f	0.022922663
120	0xbd879a69	-0.06621248
121	0x3d8705e5	0.06592921
122	0xbd55a7e7	-0.052162077
123	0x3d91beb7	0.07116454
124	0x3d59ad1d	0.05314361
125	0x3c18d6e4	0.009328578
126	0x3cf35a30	0.02970609
127	0xbc46b9b0	-0.012129232
128	0x3cb4e675	0.022082547
129	0xbd948fe1	-0.07254005
130	0x3d8673d2	0.0656506
131	0x3bb34e8c	0.00547201
132	0x3d5f21fb	0.054475766
133	0xbdb6b3bc	-0.08921
134	0x3d83c0ad	0.06433234
135	0x3b53a023	0.0032291494
136	0xbd4691fc	-0.048479065
137	0xbc5f9d03	-0.013648274
138	0xbc301905	-0.010748153
139	0x3d8d7806	0.06907658
140	0xbd9affd6	-0.07568328
141	0x3cf7d545	0.030253062
142	0xbca3898c	-0.019963048
143	0xbd6ec8c5	-0.058296937
144	0xbd25cb0a	-0.040476836
145	0x3d734227	0.05938926
146	0x3c813d8b	0.015776416
147	0x3cc513b8	0.024057254
148	0x3ce2160e	0.027598407
149	0xbcd90949	-0.026493685
150	0xbc25d2d1	-0.010121063
151	0xbc1ea921	-0.009683878
152	0x3c5e6d27	0.013575829
153	0x3d16d9a6	0.03682866
154	0x3da12430	0.0786823
155	0x3bdfe9b4	0.0068332795
156	0xbd8c91a9	-0.0686372
157	0xbda34a38	-0.079731405
158	0xbd4cde58	-0.05001673
159	0xbd17e1f8	-0.037080735
160	0xbd388a53	-0.04505379
161	0xbc5ea2c2	-0.013588609
162	0x3ca1ead4	0.019765295
163	0xbc866bfa	-0.01640891
164	0x3d65dd6c	0.056119367
165	0xbd8ee848	-0.06977898
166	0xbd09401f	-0.033508416
167	0x3b8ee5d3	0.0043608933
168	0xbda1b220	-0.07895303
169	0x3d03ffa0	0.032226205
170	0x3c8a87f3	0.016910529
171	0xbc09f121	-0.008419306
172	0x3c4366c7	0.0119263595
173	0x3d73d120	0.05952561
174	0xbd91eac2	-0.071248546
175	0xbce30593	-0.027712619
176	0xbd10c884	-0.035347477
177	0x3d6f0ebd	0.058363665
178	0x3d827fe8	0.063720524
179	0x3b31c28d	0.0027124018
180	0xbd0caa9b	-0.03434239
181	0x3d626ed0	0.05528146
182	0x3a8600e8	0.0010223659
183	0x3c0d2383	0.008614424
184	0xbd8d86d4	-0.06910482
185	0xbd8e7e7f	-0.06957721
186	0x3d495942	0.04915739
187	0x3c39278c	0.011300933
188	0x3d2d330c	0.04228501
189	0xbd0d308d	-0.03447013
190	0x3c84f62c	0.016230665
191	0xbcea7956	-0.02862231
192	0xbd45dae7	-0.048304465
193	0x3d2212b9	0.039568637
194	0x3d82e563	0.06391408
195	0x3d0f76a8	0.03502527
196	0xbd56fc29	-0.052486572
197	0xbcbedfca	-0.02330007
198	0xbc92d298	-0.017922685
199	0xbd681f6c	-0.05667059
200	0x3ca3ef9b	0.020011714
201	0xbd8d8b04	-0.06911281
202	0x3d55aa02	0.052164085
203	0x3d2e5435	0.042560775
204	0xbd25d2c3	-0.0404842
205	0xbd98575c	-0.074385375
206	0x3d718d3f	0.058972593
207	0xbd379eaf	-0.044829067
208	0xbce2247a	-0.027605284
209	0x3c609938	0.013708405
210	0x3d712a72	0.05887837
211	0xbd69fb4f	-0.057124432
212	0xbdad86e9	-0.08472998
213	0x3d03e0a5	0.03219666
214	0xbdb4584a	-0.08805902
215	0xb98a32eb	-0.00026359348
216	0xbd12a06d	-0.035797525
217	0x3d8da3a4	0.069159776
218	0x3d7e3059	0.062057827
219	0x3d385d1c	0.04501067
220	0xbd1e3799	-0.03862724
221	0xbd4ee8b5	-0.050514895
222	0xbd8943b5	-0.06702367
223	0xbca079f4	-0.019589402
224	0x3cfce8df	0.03087276
225	0x3d7c40ce	0.06158524
226	0xbb6e892c	-0.0036397679
227	0xbd60cdba	-0.054883696
228	0x3d8f3184	0.06991866
229	0xbbe2bc28	-0.0069194026
230	0x3d70120a	0.058610953
231	0x3da5532f	0.08072507
232	0x3c342d36	0.010997107
233	0x3d912eae	0.070889816
234	0xbdadd423	-0.084877275
235	0x3c352e04	0.011058334
236	0xbc1a7e10	-0.00942947
237	0xbca0f4b9	-0.019647943
238	0x3da2abf2	0.07942952
239	0xbda8d5b7	-0.08243888
240	0x3c30a9d4	0.010782678
241	0xbcf1b745	-0.029506335
242	0x3c94c31d	0.018159444
243	0x3d80e654	0.062939316
244	0x3da1ce4b	0.079006754
245	0xbcf2de86	-0.029647123
246	0xbd1eeb8b	-0.03879885
247	0x3d87673b	0.066114865
248	0xbd4202cf	-0.04736596
249	0xbd0616d7	-0.032736626
250	0x3cbb51bd	0.022866124
251	0x3d729739	0.05922625
252	0x3cb509dc	0.022099428
253	0x3cbba48b	0.022905609
254	0x3ca8e2ef	0.020616023
255	0xbceeef4f	-0.029166846

fc.2.bias f4 [128]
0	0xbd8f7c7c	-0.070061654
1	0x3cc58f20	0.024116099
2	0xbd98645c	-0.07441017
3	0xbd03b7a1	-0.032157544
4	0xbd9a9e60	-0.07549739
5	0xbc83ea61	-0.016102972
6	0xbc9c3a54	-0.019070782
7	0x3d749144	0.05970885
8	0x3db9bbe0	0.090690374
9	0xbd26c809	-0.040718112
10	0x3cefd49f	0.02927619
11	0xbcc695c5	-0.024241338
12	0xbd67d1fe	-0.05659675
13	0x3c030219	0.007996106
14	0xbd883c80	-0.066521645
15	0xbc0657e9	-0.00819967
16	0xbd2a9b8d	-0.04165225
17	0xbcb3ff2c	-0.021972261
18	0x3d39e088	0.045380145
19	0xbd372ae2	-0.04471863
20	0x3c2b249e	0.010445742
21	0xbc9aaae7	-0.01888032
22	0xbcc304c7	-0.023805989
23	0x3c0f3fb7	0.008743218
24	0xbdaf5e7b	-0.085629426
25	0x3d109f3a	0.0353081
26	0xbd909a0a	-0.070606306
27	0xbd9bd077	-0.07608121
28	0xbd6f9a80	-0.058496952
29	0x3c8f78a8	0.017513588
30	0x3d021c5f	0.031765338
31	0x3cc9ccf3	0.02463386
32	0xbd5dc6c4	-0.054144636
33	0x3db09319	0.08621807
34	0xbd85bb5c	-0.065298766
35	0x3d7396c2	0.059469946
36	0xbd91c199	-0.07117004
37	0xbc09f004	-0.008419041
38	0xbd6a0758	-0.05713591
39	0xbcabf475	-0.02099059
40	0x3d89081f	0.06691002
41	0x3ba0c4a4	0.004906254
42	0xbd9276ab	-0.0715154
43	0xbc59f877	-0.013303868
44	0xbc9173fc	-0.017755501
45	0xbd1d838e	-0.03845554
46	0x3d2741f8	0.040834397
47	0x3c4e6381	0.012596966
48	0xbceff2cb	-0.029290577
49	0x3b203424	0.002444514
50	0xbd82565c	-0.06364128
51	0xbd118c5a	-0.03553424
52	0xbd54a19d	-0.05191194
53	0xbaed67ad	-0.0018112563
54	0x3d8fbe56	0.070187256
55	0xbd88d615	-0.06681458
56	0xbc8967c6	-0.016773116
57	0xbad38778	-0.0016138395
58	0xbd982922	-0.074297205
59	0x3b335ab5	0.0027367298
60	0x3d2c11ec	0.04200928
61	0x3cbb8dbd	0.022894735
62	0xbcfc80d6	-0.030823153
63	0x3d1c8c0a	0.03821949
64	0x3a9da727	0.0012027965
65	0x3d93a2c3	0.07208779
66	0x3da9a60a	0.082836226
67	0x3cbe3203	0.023217207
68	0xbd9ebdce	-0.07751046
69	0x3dac0a27	0.08400374
70	0xbd991bb8	-0.0747599
71	0xbd0f03b4	-0.03491564
72	0x3d486f55	0.0489343
73	0xbd44d178	-0.048051327
74	0xbd48464d	-0.04889517
75	0xbd860900	-0.06544685
76	0xbd637f3b	-0.05554126
77	0x3aad6a54	0.0013230541
78	0xbca46241	-0.020066382
79	0x3d920fb6	0.07131903
80	0xbb7e377b	-0.0038790393
81	0x3c0342d6	0.00801154
82	0x3d94be7c	0.072628945
83	0x3d166a20	0.036722302
84	0x3dab6be5	0.083701886
85	0x3d42669f	0.04746115
86	0x3d92f07a	0.071747735
87	0xbd778731	-0.060431663
88	0x3cc6150a	0.024179954
89	0x3d03f078	0.03221175
90	0x3c7760e0	0.01509878
91	0xbd75b06e	-0.05998271
92	0xbd7f49eb	-0.062326353
93	0x3daee9aa	0.08540662
94	0x3d86b562	0.06577565
95	0x3cabaf84	0.020957716
96	0x3d8c753a	0.06858297
97	0x3d8e7bb8	0.06957191
98	0x3d346dd3	0.04405005
99	0x3d18af9f	0.03727686
100	0xbd9165e6	-0.07099514
101	0x3d8656a5	0.06559495
102	0x3db3ac73	0.087731265
103	0xbd5ba044	-0.053619638
104	0x3d96f39f	0.07370686
105	0x3c100994	0.008791346
106	0x3d93d7e0	0.07218909
107	0x3c72f2d7	0.014828405
108	0xbd6aca5f	-0.057321902
109	0x3caab051	0.020836027
110	0xbd372f47	-0.04472282
111	0xbdba806c	-0.09106526
112	0xbcfeb3a6	-0.031091522
113	0xbd020635	-0.0317442
114	0xbc3a5fcf	-0.011375382
115	0x3cadf644	0.021235593
116	0x3d32ef2d	0.043685127
117	0x3d21391c	0.039361104
118	0x3c109d49	0.008826562
119	0x3c9a4cdc	0.018835478
120	0x3d77e1c1	0.06051803
121	0xbd130afb	-0.035899144
122	0xbd10c098	-0.03533992
123	0xbd162759	-0.03665862
124	0xbd15411b	-0.036439043
125	0x3d2eee96	0.042708002
126	0x3d717f54	0.05895932
127	0x3cb33db3	0.021880006

fc.4.weight f4 [9, 128]
0	0x3d919444	0.071083575
1	0x3d976186	0.07391648
2	0x3da1bb12	0.07897009
3	0x3c5bad72	0.013408052
4	0x3d0f1aeb	0.03493778
5	0x3db6d657	0.08927601
6	0x3d86e36e	0.065863475
7	0xbd533844	-0.05156733
8	0x3da9cf88	0.082915366
9	0xbd89e841	-0.06733752
10	0xbccf9b3a	-0.025342572
11	0x3d80219e	0.06256412
12	0x3d29c30f	0.041445788
13	0xbd0dfc15	-0.034664232
14	0x3d56620e	0.052339606
15	0xbd065808	-0.032798797
16	0x3d894fda	0.067046836
17	0xbd67bc0c	-0.05657582
18	0x3d9dc563	0.07703664
19	0x3d6815ea	0.056661524
20	0xbcb44ce8	-0.022009328
21	0xbd5cdcee	-0.053921632
22	0xbbdc5d1d	-0.006724967
23	0xbc438ce4	-0.011935446
24	0xbd03d399	-0.032184217
25	0x3d58e310	0.05295092
26	0x3d1eb416	0.038745962
27	0x3d3e8792	0.04651601
28	0x3d33bcb5	0.043881137
29	0xbc8e40fb	-0.01736497
30	0x3d4e4dfe	0.050367348
31	0x3d6d05b2	0.05786676
32	0x3d2f590e	0.04280954
33	0x3d8bf5d6	0.06833999
34	0xbd3d0515	-0.046147425
35	0xbd6a326d	-0.057176996
36	0xbd6475fd	-0.055776585
37	0x3d5f85ff	0.054571148
38	0x3ca21e15	0.019789735
39	0x3dafdfa6	0.085875794
40	0xbd6d90ae	-0.057999305
41	0xbd136f57	-0.035994854
42	0xbd775405	-0.06038286
43	0x3cb2441d	0.021760995
44	0xbce05813	-0.027385747
45	0xbd7b7212	-0.061388083
46	0xbd8f2ba8	-0.06990749
47	0x3d3b6a7d	0.045755852
48	0x3d3bec72	0.04587979
49	0x3d596b76	0.053081
50	0x3dac3cb3	0.08410015
51	0x3d9bc488	0.07605845
52	0xbd99ee2c	-0.07516131
53	0x3c91069d	0.017703349
54	0xbc9760a0	-0.018478692
55	0x3d279c59	0.04092059
56	0x3d4e687b	0.05039261
57	0x3d4e5532	0.050374217
58	0xbd3e75d1	-0.046499077
59	0x3d697b3f	0.057002302
60	0x3cc2cd93	0.023779666
61	0xbd92d55f	-0.071696036
62	0xbd7e3dad	-0.062070537
63	0xbcadcb0b	-0.021214982
64	0xbd2df22b	-0.042467277
65	0x3cf603c9	0.030031102
66	0xbda1c2fd	-0.07898519
67	0x3c8eb3a5	0.017419646
68	0x3c84748d	0.016168857
69	0x3cb548c3	0.022129422
70	0x3cb59e6d	0.02217027
71	0xbda38aa4	-0.07985428
72	0x3db9db50	0.09075034
73	0xbc9e4cd8	-0.019323751
74	0xbd2d32b0	-0.042284667
75	0x3d086009	0.03329471
76	0xbc45a063	-0.012062165
77	0xbcc4b04a	-0.024009842
78	0x3cfcb481	0.03084779
79	0x3d9676f8	0.0734691
80	0xbab0e160	-0.0013494901
81	0xbc803611	-0.01565078
82	0xbcdb52e0	-0.026772916
83	0x3da4d00f	0.080474965
84	0xbc429c27	-0.01187805
85	0xbc1156ee	-0.008870823
86	0x3da08c6b	0.078392826
87	0x3d1f88c7	0.0389488
88	0x3c78e48e	0.01519121
89	0x3d99e9ca	0.07515295
90	0x3d83932d	0.06424556
91	0xbd3bc3a3	-0.04584087
92	0xbd5bbdfd	-0.053647984
93	0xbc60d9fb	-0.013723846
94	0xbd5c12aa	-0.053728737
95	0xbc03131e	-0.008000163
96	0x3c09beb6	0.008407285
97	0x3ccfe7e1	0.025379123
98	0xbcfbc20a	-0.030732173
99	0xbcfcd012	-0.030860934
100	0x3d8f81cb	0.07007178
101	0xbd8d2f46	-0.06893782
102	0xbc1bbc09	-0.00950528
103	0x3ca29d44	0.01985038
104	0xbd89d7c7	-0.067306094
105	0xbda36a10	-0.07979214
106	0xbcad4cfe	-0.021154877
107	0xbd442e54	-0.047895744
108	0xbb2be8e2	-0.0026231338
109	0x3d119f3d	0.035552252
110	0xbd654c72	-0.055981107
111	0xbd844a5e	-0.06459497
112	0x3ccb493c	0.024815194
113	0x3cce2b91	0.025167258
114	0x3cba3aa8	0.022733048
115	0x3db35e8e	0.08758269
116	0xbd5bac7e	-0.0536313
117	0xbd9539de	-0.07286428
118	0xbd752546	-0.05985
119	0xbd893433	-0.06699409
120	0x3d7dc324	0.06195368
121	0x3d1f0a29	0.03882805
122	0x3c41d8bc	0.011831459
123	0x3cbfecf4	0.023428418
124	0x3dae2b8a	0.08504398
125	0x3b9c38b0	0.0047675
126	0x3d8b7964	0.06810263
127	0xbd91c066	-0.07116775
128	0xbd4a826a	-0.04944078
129	0xbc682120	-0.014168054
130	0x3c3dfee6	0.011596417
131	0xbc5192a5	-0.01279131
132	0x3d87caa8	0.066304505
133	0xbd843e39	-0.064571805
134	0xbdb8b508	-0.09018904
135	0x3cd935a4	0.026514836
136	0x3d8dd5ee	0.069255695
137	0x3c8e145f	0.017343698
138	0x3d73b144	0.059495226
139	0xbd119509	-0.03554252
140	0xbda299ae	-0.07939468
141	0xbd982074	-0.07428065
142	0x3d6ae7da	0.057350017
143	0xbd82a4a2	-0.063790575
144	0x3cb66fbd	0.022270078
145	0x3d68325f	0.056688663
146	0xbd88e4f2	-0.06684293
147	0x3d9ca862	0.07649304
148	0x3cc6d422	0.024271075
149	0x3c1d084b	0.009584497
150	0x3d0c6ae0	0.03428161
151	0xbd9ead39	-0.07747883
152	0x3d4e3f06	0.050353073
153	0x3d91a54f	0.07111608
154	0x3cfb6df8	0.030692086
155	0x3d989048	0.074493945
156	0x3ccff176	0.025383692
157	0xbd9f1414	-0.077675015
158	0xbc9fb73c	-0.019496553
159	0x3ce235a2	0.027613465
160	0xbda5d822	-0.08097865
161	0xbd8a19ec	-0.067432255
162	0x3cf9e118	0.03050284
163	0x3b53beb8	0.0032309722
164	0x3c97d294	0.018533029
165	0xbdaa0d78	-0.0830335
166	0xbd3a2ee4	-0.045454875
167	0xb97dd5ba	-0.0002420758
168	0x3c4f66f4	0.012658823
169	0x3d43a015	0.047760088
170	0x3d1b0df2	0.037855096
171	0x3da3a2f0	0.07990062
172	0xbd7cea9f	-0.06174719
173	0x3c54738d	0.012967003
174	0x3d359944	0.04433562
175	0xbd44dd41	-0.048062567
176	0x3cc97006	0.02458955
177	0xbc389925	-0.011266981
178	0xbd26edbe	-0.040754072
179	0xbd549f2d	-0.051909614
180	0x3d0699c6	0.032861494
181	0x3d209b44	0.039210573
182	0x3cdbfacf	0.026852993
183	0xbd207794	-0.03917654
184	0xbd83f506	-0.06443219
185	0x3dad3959	0.08458204
186	0xbd984aeb	-0.074361645
187	0xbd9d1a86	-0.076710746
188	0x3ceed480	0.029154062
189	0xbb316ed7	-0.0027074122
190	0xbd8052bb	-0.062657796
191	0xbcdfed49	-0.027334826
192	0x3bae7431	0.0053239097
193	0x3d84d1ea	0.064853504
194	0xbd02ca17	-0.03193101
195	0x3daa0fa8	0.083037674
196	0xbbf6f788	-0.0075368322
197	0xbdb2e58d	-0.087351896
198	0xbd0b4324	-0.033999577
199	0xbdb2a4ac	-0.08722815
200	0xbd0c82e5	-0.03430452
201	0x3d4318e2	0.047631152
202	0xbbf849c6	-0.007577154
203	0xbd0a6a71	-0.033792917
204	0xbd2b5b17	-0.041834917
205	0xbafd439d	-0.0019322518
206	0xbbc92714	-0.0061386917
207	0xbdafa98b	-0.0857726
208	0x3d4f2e3c	0.050581202
209	0xbc0467a0	-0.008081347
210	0xbd21a454	-0.039463356
211	0xbcec9e35	-0.028884033
212	0xbd2ed03c	-0.042679057
213	0x3d316399	0.043307874
214	0x3da561f1	0.080753215
215	0x3d887ceb	0.06664451
216	0xbc842c64	-0.016134448
217	0x3ccccbb6	0.02499948
218	0x3cfcfd11	0.03088239
219	0xbd35fb97	-0.044429388
220	0x3d2ea85c	0.04264103
221	0x3d5e051a	0.054204084
222	0x3c1bb6ce	0.009504033
223	0xbcd197c5	-0.025585065
224	0x3bb7a414	0.0056042764
225	0x3d377e0e	0.04479795
226	0x3d9184a0	0.07105374
227	0x3ce1cdf3	0.027564025
228	0xbcbc4119	-0.02298026
229	0xbc05353a	-0.008130366
230	0xbc53f83a	-0.0129376
231	0x3d8eef7e	0.06979273
232	0x3d5dca82	0.054148205
233	0xbd2d0e1d	-0.042249788
234	0xbda5103c	-0.08059737
235	0xbd286a2b	-0.041116875
236	0xbd8e6878	-0.069535196
237	0xbd98d5bb	-0.07462641
238	0xbcd9bfb7	-0.026580675
239	0xbcf4f4b2	-0.029901836
240	0x3d8455f9	0.064617105
241	0xbc389927	-0.011266983
242	0xbd984791	-0.07435525
243	0x3d8e150e	0.069376096
244	0x3d88dd7f	0.06682872
245	0xbd8dabd1	-0.06917537
246	0x3d26ae65	0.04069366
247	0x3ce95812	0.028484378
248	0x3d87175e	0.06596254
249	0xbd74d079	-0.059769128
250	0x3d9528c9	0.0728317
251	0xbc8b2010	-0.016983062
252	0xbd4168ba	-0.047219016
253	0xba2546f4	-0.00063048233
254	0x3d8b57b0	0.068038344
255	0xbd76d7a8	-0.06026426

fc.4.bias f4 [9]
0	0xbd3a9752	-0.045554467
1	0x3d95b256	0.073094055
2	0x3c52bbd3	0.012862164
3	0x3c8da4b0	0.017290443
4	0x3d4a1b94	0.049342707
5	0xbcc13c50	-0.02358833
6	0xbd5caa9c	-0.053873643
7	0xbd87fc65	-0.06639937
8	0xbcad5f73	-0.021163678
