qmix_agent_q_net.pth (torch, 22401 bytes, 6 tensors)

net.0.weight f4 [64, 5]
00000000: 51ad 2d3f af15 de3e e0ed afbe e15a 7dbe
00000010: 309f cbbe f80a 563d 587e 083b d054 12be
00000020: d04b 1abe 0c13 e33e 6935 81bf 8145 9c3d
00000030: 574f 22be 787b 073f 8824 873d 98b2 d63d
00000040: e575 ddbe 4410 a2be 8462 793e bad7 ab3e
00000050: be87 ab3c 0d8e 563f 5076 c7be 2eb0 9ebc
00000060: d019 ef3c dc79 6abe 4fd6 9ebe 782e de3d
00000070: cc0d 453e 0a41 8c3e 4454 8abd 8094 d0bb
00000080: 70f1 723e 9aa8 82be 9e40 c7be a58a d6be
00000090: bef3 a0be a048 18bd 0988 5cbe 6016 c13e
000000a0: 4cde b1be debc b1be e0ea b6be f433 223e
000000b0: 30de b03e a5f6 123e bea3 003e b8f7 dcbd
000000c0: d9ad fa3d bf4a ddbe aebe 86bf 32d6 27bf
000000d0: 3c52 ed3e 6dc7 153f 7c50 d1bd 1121 583d
000000e0: c3a0 75be ab76 783d 54b2 b4bd d462 243e
000000f0: 34e9 b9be 0c3a 3b3e 71a0 e0be 54b7 d8bd
00000100: c49e 80be e8d9 ef3e 5c2f ff3b 9620 c03e
00000110: 9aac ae3e ee4b b7be b8e5 bb3c d421 5f3e
00000120: a777 81be 675b bbbe c087 e1be 5bd1 c9be
00000130: a2d3 443c a3f0 a63d 1f5a c53e d4ac edbd
00000140: c6cb d8be dab2 1fbf b336 993c e9a4 0d3f
00000150: feef 3cbe 7eb4 2bbf 3b29 393f 954c 1fbf
00000160: 5114 e8ba f299 93be 5359 c43e f3cc 8f3e
00000170: 6988 12bf 9ab5 06be 90f0 9bbe 972f 9f3d
00000180: fae7 9c3e 3201 333e 6922 36be 7056 613e
00000190: e428 ddbe f6aa 30bf 7faf f73e 077d cfbe
000001a0: d829 7bbd b969 4cbe e933 253f 76ba a1be
000001b0: 41c7 5ebe 10e9 5e3e 6a2a 7dbe 01cc 0dbf
000001c0: f0ff 0bbe 82c3 83be f7a4 c3be c0d6 833e
000001d0: eccb cabe f98b f33e 944c e43d 0249 48be
000001e0: 24b3 b03e 11a1 c43e 9b24 fe3d 619f d7be
000001f0: 1045 a43e 6736 09bf 8ec5 f83e 8fdf dd3e
00000200: adf6 dd3e 54eb 753e 3067 ce3e d1ef 233f
00000210: 2752 0cbf faa6 87be 9703 e0be 9ccc a8be
00000220: 125c 1b3e 8bf6 3dbc ca89 3ebe 14d9 abbd
00000230: 439d 1abe abab 81be a7a1 593e 2462 87be
00000240: 206e ab3d 8315 1f3f f8b7 64bc 3930 1c3e
00000250: dc5f cd3e 4091 963c 0a14 8cbe 7b88 86bd
00000260: 6d48 923d b94b eb3c b029 6dbe 7412 d8be
00000270: 30e9 ed3e c643 77be 8c10 ec3e 2afd 9e3e
00000280: 9d2c dabd c618 703f c0eb 28bd cf74 5abd
00000290: e8b8 8ebd 1524 24bd 49e9 353f d4f4 03be
000002a0: 503a ddbc c0c5 b2bd ea37 fa3b 5e76 98bd
000002b0: 0a01 783e ac47 c0be 515d a5be 88df 3b3d
000002c0: 0bfe fbbd aad8 e4be 56b0 c5be 6acf 50be
000002d0: c4ae 933e c87f acbe f116 a33e 9630 f63d
000002e0: 7ab7 a33e 236a 06be 4717 a0bf 735e 2ebd
000002f0: 0c55 f13e ace7 9c3e b812 103f 466e 8fbb
00000300: b7a1 f4be 01e9 883e ec6b 80bd 9605 84bd
00000310: 02b8 94bd a3ba 883b 69d3 7d3e 18a4 42be
00000320: 96cc 74be 7689 493e 0ee3 c53e f667 393e
00000330: b513 c4be cdeb 4e3d 441a 5fbe 222e d4bd
00000340: b984 dc3d c064 203c cf11 77bf e5f4 983d
00000350: bb19 b53e afd8 833e 2815 83be 5bee 003d
00000360: 405c ec3e 0ba2 c93d fc5b 793c 8035 1a3e
00000370: 04c0 27be deee 103c aa63 a93d f076 1fbe
00000380: 18f2 b93d f6e7 9bbe 4cbf 353e 275d 60be
00000390: 2354 61be d062 913e cd66 c5be 4592 bf3e
000003a0: e4e6 423d bd15 f23d 8409 923e 8af3 e4be
000003b0: c025 cabb 08ff cc3e 26e5 a9be 0f01 9ebe
000003c0: d41f 0ebd 4e42 22bf 8f5f b1be 298c 94be
000003d0: 65e8 c9be ca73 35be 1d40 b93e 883a b8bd
000003e0: 8f0f 87bd f435 553e 46a0 04bf 96b4 60bd
000003f0: 63d3 a8bd ec3e 93bc c0e6 ddbb 65bf 48be
0.67842585 0.43375918 -0.34361172 -0.24741699 -0.39769888 0.052256554 0.002082726 -0.14290166
-0.15067983 0.4435047 -1.0094424 0.07630444 -0.15850578 0.52922773 0.06598765 0.10483283
-0.4325401 -0.31653035 0.24353987 0.33563024 0.02093875 0.838105 -0.38957453 -0.019371118
0.029187113 -0.22898048 -0.3102288 0.10848707 0.19243544 0.2739337 -0.06754354 -0.006365359
0.23724914 -0.25519258 -0.38916487 -0.41902652 -0.3143596 -0.037178636 -0.21536268 0.37712383
-0.34739912 -0.34714407 -0.3572607 0.15840131 0.34544516 0.143519 0.12562463 -0.10789436
0.1224019 -0.4322109 -1.0526941 -0.6556121 0.46351802 0.58507425 -0.10220429 0.05276591
-0.23987107 0.060660046 -0.08823076 0.16053325 -0.36310732 0.18283862 -0.43872407 -0.10581842
-0.2512113 0.46845937 0.007787628 0.3752486 0.3411606 -0.35800117 0.022936687 0.21790248
-0.252866 -0.36593172 -0.44048882 -0.39417538 0.012013348 0.081513666 0.3854532 -0.1160523
-0.42342967 -0.6238228 0.01870284 0.5532976 -0.18450925 -0.67072284 0.7232854 -0.6222623
-0.001770625 -0.28828388 0.383494 0.2808605 -0.57239395 -0.13155213 -0.30456972 0.07772749
0.30645734 0.17480925 -0.17786564 0.2200563 -0.4319526 -0.69010866 0.4837608 -0.40525076
-0.061319202 -0.19962205 0.64532334 -0.3158757 -0.21755697 0.21768594 -0.24723211 -0.5538941
-0.13671851 -0.25735098 -0.38211796 0.2574978 -0.39608705 0.47567728 0.111474186 -0.195591
0.34511673 0.38404134 0.12409326 -0.42113784 0.3208394 -0.53598636 0.48588222 0.43334624
0.4335226 0.24015552 0.403131 0.64037806 -0.54812855 -0.2649458 -0.4375274 -0.32968605
0.15171841 -0.011594425 -0.1860725 -0.08391014 -0.15099053 -0.25326285 0.21253072 -0.26442063
0.08370614 0.621422 -0.013959877 0.1525277 0.40112197 0.018379807 -0.2735904 -0.06569
0.0714272 0.02872263 -0.23160434 -0.4220158 0.4646697 -0.24146947 0.46106374 0.31052524
-0.106530406 0.937878 -0.041240454 -0.053334054 -0.06968862 -0.040073473 0.7105909 -0.12886363
-0.027005345 -0.08729124 0.00763606 -0.07444452 0.24219146 -0.3755468 -0.32297757 0.045867473
-0.12304314 -0.44696552 -0.38611096 -0.20391622 0.28844273 -0.3369124 0.3185344 0.12020986
0.3197592 -0.13126425 -1.2507104 -0.042570543 0.47135198 0.30645502 0.5627856 -0.0043771593
-0.4777963 0.26740268 -0.062705845 -0.06446378 -0.07261659 0.0041726395 0.24787678 -0.1900791
-0.23906168 0.19681343 0.3864979 0.18106064 -0.38296285 0.050517846 -0.21787363 -0.10360362
0.10767502 0.009789646 -0.9651155 0.07468585 0.35371193 0.25751254 -0.25602078 0.031477313
0.4616413 0.0984536 0.015219685 0.15059471 -0.16381842 0.008846013 0.082709625 -0.15572715
0.09079379 -0.3045041 0.17748755 -0.21910535 -0.22004752 0.283957 -0.38554993 0.37416282
0.047583476 0.118205525 0.28522885 -0.44717056 -0.006169051 0.40038323 -0.3318264 -0.30860183
-0.034698322 -0.6338242 -0.34643218 -0.29013184 -0.39435115 -0.17719951 0.36181727 -0.08995539
-0.065947644 0.20821363 -0.5180706 -0.05485972 -0.08243444 -0.01797434 -0.0067718923 -0.19604261

net.0.bias f4 [64]
00000000: 8009 9c3d 2665 353e a603 73be 5c67 b2be
00000010: 5026 92be 93b7 d2be 40b2 ddbe 586d 4ebd
00000020: aaec 98be 9cf3 cbba e9ef 33bd 5a55 e9bd
00000030: f671 69be 7c34 a7be f6b1 7c3e 3f01 9e3e
00000040: 5df8 e2bd 6d65 273e f70c 07be d6a5 123e
00000050: 8fd0 94bb feeb bc3e 3ffc 923e 3055 83be
00000060: 4db4 03bf 15b3 a7be 0721 73be 2e7d ba3e
00000070: e62c cf3e 4102 27bf 19e8 6a3e 0a06 0dbe
00000080: 7313 b73d 1321 193e 5732 81be fd67 243e
00000090: b4cc 863e 0660 71bc f330 c8be 607a 823c
000000a0: 3d8b 31be 6d46 283e e09f 08bd dd97 0bbe
000000b0: 4bbe a23e 0eb7 38be 9bdf 9e3e 8455 e1be
000000c0: 9335 893e 9586 823e 5926 d83e a964 6dbe
000000d0: 71e3 29be cdd2 893e 88b4 d13e a424 8e3e
000000e0: db0c ccbe b678 80be 4be1 e7bd 5d22 953e
000000f0: 27aa ecbd b835 33bc 41f0 493d 2a32 873e
0.076189995 0.17714366 -0.2373186 -0.34844482 -0.28544855 -0.4115568 -0.43300056 -0.050397247
-0.2986806 -0.0015560272 -0.043929968 -0.11393233 -0.22797379 -0.3265723 0.24677262 0.30860326
-0.11082528 0.16347285 -0.1318854 0.14321074 -0.0045414637 0.36898798 0.28708073 -0.2565093
-0.5144699 -0.32753816 -0.23743068 0.3642363 0.40463942 -0.65237814 0.229401 -0.13771835
0.089392565 0.14954023 -0.2523372 0.16055293 0.2632805 -0.014732366 -0.39099845 0.015927494
-0.17338271 0.16433115 -0.033355594 -0.1363215 0.31785807 -0.1803858 0.31029972 -0.44010556
0.26798686 0.25493303 0.42216757 -0.2318293 -0.16590668 0.2691864 0.40958047 0.2776233
-0.39853558 -0.25092095 -0.11322268 0.2912778 -0.115558915 -0.0109381005 0.04930139 0.2640546

net.2.weight f4 [64, 64]
00000000: c7fe 613e c4a0 d43d c28a 34be d095 673c
00000010: 28da 8cbe 96c4 bebd 3c04 1a3d c0e4 fb3d
00000020: d4d7 2cbd 6783 cf3d afa5 a73c e684 d53c
00000030: 12a8 953d d891 05be 2c73 563e 1f30 d23d
00000040: 238d 8cbd 4740 0cbc b6c2 9ebd 81e1 153e
00000050: 34a5 013e 75f5 823e 9c88 503e 5b64 3cbc
00000060: 8389 b2be 0edc 32bf 3b0c 913e d795 493e
00000070: c881 a53d d4eb e43c f386 063e 8372 b4bd
00000080: f7d6 abbc 4dd1 133e cc65 a33d 8b9d e43c
00000090: f225 553d ea20 90be 11a7 bcbe 760e 813d
000000a0: 1aa2 f9bd 418a 443e 17ea 453d 1b8e 783e
000000b0: 2818 363e 5ca8 7abd 1ac4 e63d 4001 aebb
000000c0: 9a4a 0dbc 62ba 9c3d 0423 403e be97 9d3c
000000d0: c186 54be fdfd 19bc 16f4 9f3d f4ab f4bb
000000e0: 5beb 58bd fc54 39be 66e8 2e3e efae 283e
000000f0: f6f9 f73c b160 493d cfb2 803e 4699 4d3d
00000100: c0d8 6bbd d88b e83d ebdf 83be 24d0 62bd
00000110: 409a 6bbe c8c5 713d 1e11 963d 20ef b83c
00000120: b088 0e3c 62d8 a0bb 0910 93bf 56ae 993c
00000130: 6036 2fbd a96e 613d 0015 ea3d c549 ad3e
00000140: 0ae5 a83e 13b8 8b3d ce56 55be 7e8a 613c
00000150: d908 443c f852 ee3d 6643 febc 28ac 25bd
00000160: 22b5 9cbe 6fad b9be f444 0a3e ef5c 4b3b
00000170: 723f ce3d b4e8 5dbe b1e0 653d cc7e c33d
00000180: 98e5 3fbd 4199 2d3e 832c cabc 92dd 3ebd
00000190: 7b21 4e3e 814b 9ebd 8ce6 403e 6966 1f3e
000001a0: d95a 013e 5bf1 f03d 671a c33d ea17 053e
000001b0: 6f6d 0e3e 5a8f 8cbd 8b60 563e 10cc 0dbd
000001c0: a74e 733d 0885 843b 27a7 b83d 7ec8 d33c
000001d0: 52db 59bd e4da 713d b882 fc3d c61e 893d
000001e0: 552f 0c3e 0aab f6bd f63e d13d 76c8 b53d
000001f0: 54c1 2ebd bd7f 04be e490 7139 b5ac 0d3e
00000200: 3565 253e 93e1 1ebd a8f8 07bd 90d5 c63d
00000210: e075 bfbe be87 98bd 0665 863d e09a 8d3d
00000220: 9013 bcbd 1e68 2a3d 021f b23e 9b0a 113d
00000230: 9a69 babd 6fe4 b4bd d338 f23d 8fc4 803d
00000240: 0cd6 24be 39e7 3b3d 2474 99be 6610 263d
00000250: 5217 20be e944 e63d 2313 653e d51a a93d
00000260: efdd 31be 7f8e 03bf e143 a03e da97 ed3c
00000270: f3e7 a23d e2c6 6b3e 3562 ae3c 5ec2 bbbc
00000280: 816d ab3d 73f5 003e 388c 00bd 3f7e fcbc
00000290: 8fc9 2e3e f6b7 bcbe 0287 c9be b274 20be
000002a0: 0f95 6abe 894c 46bd 0753 863d 73af 343e
000002b0: 3b1d 253e 0057 52bc 56dc 3d3d b2cd c93d
000002c0: 1135 b1bd d702 1a3e b04a 343e e13b d23b
000002d0: fb9f f1bd 75a9 193e 259c 483d 70a8 d53b
000002e0: 0338 b4bd bbbb fabd f92e ec3d b502 163e
000002f0: 7bcd 543c 0eae 31bd 689b 60bd 7870 503d
00000300: b827 1dbe 739d 20be 7251 493e d888 d6bd
00000310: f4a6 9b3d 409f 38bc 00e9 3d3d 1ee2 b23d
00000320: 0043 5a3b 57fd f0bd b5a7 6d3f f75c 7dbd
00000330: 40b7 ed3d e89c 033e 5ee7 41bd 2766 483e
00000340: fab0 2e3d 4efb 9e3e 5485 e7be 6d8b 083e
00000350: c950 2e3f e3f0 0a3e 615c c0be 50ee 3b3e
00000360: e00a 103e 403b 1e3d d800 dabf eb69 fc3d
00000370: fb7b 153e dd78 833e cbd5 1dbc fac8 c73e
00000380: 506f 03bd b5fb c9bd b946 1c3d 7c49 5ebf
00000390: de6d 3a3e 0342 c53e 50fc e7bc 1555 923c
000003a0: 819d 293e 1f2f 72bd a138 093f 158d 343e
000003b0: c274 ed3d d441 b13d b01b 443e aa4d b4bd
000003c0: 3143 29bf 31a9 7fbd 71ad 083e f877 203e
000003d0: be36 853d 859c 65be 7138 1c3e 4c4a 6bbd
000003e0: 1b79 56be e692 40be c919 3c3d dbf2 09bf
000003f0: fb77 b03e e694 f03d 23a3 573e f037 003e
0.22069846 0.10382226 -0.17631057 0.014134839 -0.2751019 -0.093148395 0.037601694 0.1229949
-0.042198017 0.10132485 0.020464746 0.026064347 0.073074475 -0.13043916 0.20942372 0.102630846
-0.06862857 -0.008560247 -0.07751982 0.14636804 0.12660676 0.25577894 0.20364612 -0.011498536
-0.34870538 -0.69867027 0.28329644 0.19686066 0.080813944 0.027944483 0.13137417 -0.08810904
-0.020976527 0.1443531 0.079784006 0.027907154 0.05203814 -0.2815011 -0.36846212 0.06301586
-0.121891215 0.19193365 0.04831895 0.24272959 0.17782652 -0.061195716 0.11267872 -0.0053102076
-0.008623743 0.07652737 0.18763357 0.019237395 -0.2075453 -0.009398934 0.078102276 -0.0074667875
-0.052958827 -0.18098825 0.1708084 0.16472982 0.030270558 0.049164478 0.2513642 0.050195
-0.057579756 0.11354798 -0.25756773 -0.05537428 -0.2300806 0.05902651 0.073274836 0.022574961
0.008699581 -0.0049086073 -1.1489269 0.018759888 -0.042776465 0.055037174 0.11429787 0.33845344
0.32987243 0.06822219 -0.20833895 0.013765929 0.011965 0.11636919 -0.031037997 -0.040447384
-0.30606943 -0.36265132 0.13502866 0.0031030735 0.10070695 -0.216708 0.056122486 0.09545669
-0.046849817 0.16952993 -0.024679428 -0.046598025 0.2012996 -0.07729245 0.18837947 0.1556641
0.12632312 0.11764785 0.0952652 0.12997404 0.13908933 -0.0686328 0.20935266 -0.034618437
0.05940118 0.004044179 0.09016257 0.025852438 -0.053187676 0.05904664 0.1232962 0.06695323
0.1368993 -0.12044342 0.10217087 0.088761255 -0.04266484 -0.12939353 0.00023037527 0.13835414
0.16151889 -0.038789343 -0.03319612 0.097087026 -0.3739462 -0.07447766 0.065622374 0.06914306
-0.09183419 0.0416032 0.34789282 0.035410505 -0.09102173 -0.08832633 0.118272446 0.062874906
-0.16097277 0.045874808 -0.2997142 0.040542983 -0.15633896 0.11243612 0.22370581 0.08257071
-0.17369817 -0.51389307 0.31301787 0.029003073 0.07954397 0.23025087 0.021287063 -0.02291983
0.083704956 0.12593631 -0.031383723 -0.030821918 0.17069076 -0.368591 -0.39360815 -0.15669516
-0.22908424 -0.048412833 0.06558805 0.17645054 0.16124432 -0.012838125 0.046352707 0.098536864
-0.086527 0.15040146 0.17606616 0.0064158295 -0.11798092 0.15006049 0.048977036 0.0065203235
-0.08799746 -0.12242838 0.11532397 0.1464947 0.0129884435 -0.043378882 -0.054835707 0.05088851
-0.15347183 -0.15685062 0.19659975 -0.104753196 0.07600203 -0.011268437 0.046364784 0.08734535
0.0033304095 -0.11767071 0.92834026 -0.061856236 0.11607218 0.12852824 -0.04733979 0.19570218
0.042649247 0.31051105 -0.4521891 0.13334437 0.6809202 0.13568453 -0.3757048 0.18352628
0.14066648 0.038630724 -1.7031507 0.1232489 0.14598076 0.2567815 -0.009633492 0.3902052
-0.032088578 -0.098624624 0.038153384 -0.8683088 0.18205974 0.38526925 -0.028318554 0.017862836
0.16563989 -0.05912697 0.53602034 0.17631944 0.115945354 0.08655134 0.19151187 -0.08803876
-0.6611815 -0.062417213 0.13347413 0.15670764 0.06504582 -0.22422989 0.15255906 -0.057443902
-0.20944636 -0.18806037 0.04592303 -0.53886193 0.34466538 0.1174715 0.21058325 0.12521338

net.2.bias f4 [64]
00000000: fca7 923d 4601 b43d 3be7 463d d9bc a8bc
00000010: ae54 dbbd b44a 35bb 0814 eebc e8b2 45bd
00000020: 1fc1 f63d 0060 723e 5a8a 053e c7af 313e
00000030: 96c9 0e3d f859 223d 9e84 f9bd f05a 8fbd
00000040: 37b9 523e 2d89 723d 3783 a0bc 3679 faba
00000050: 3890 38bd d81c 52ba c746 0dbd f7f8 44be
00000060: 9265 0ebd 0e40 dbbd b472 bfbd 2912 2f3d
00000070: 3e55 5dbd 0c8f 823e 8cd1 e1bd c1e9 1d3c
00000080: 67c0 e53b 3f5a 3d3e 6b1e 9bbd c276 c0bc
00000090: 14a3 723e 37e2 d03c e1c9 a3bd 056a 0dbe
000000a0: 97d4 ec3a a47d 553e caa4 583e 9e38 713d
000000b0: d124 313e 926f 103e 33da be39 b4d8 283e
000000c0: c983 b93d c44c ff3d 4c8b c5bd 87d8 d83d
000000d0: 3ca2 263e 7b7e 853d 016b 033e 6e9b ff3d
000000e0: 8823 d13d 6f96 143e 8228 1e3e 66f1 bbbd
000000f0: 35dd 22be 732f 003e 5e29 58bd 891f a73b
0.07160947 0.087893054 0.048560362 -0.020597862 -0.10709511 -0.0027662935 -0.029062286 -0.04826632
0.12048554 0.23669434 0.13041058 0.1735221 0.034860216 0.039636582 -0.12183498 -0.06999767
0.20578466 0.059212852 -0.019593818 -0.001910961 -0.045059413 -0.00080151623 -0.034491327 -0.19235598
-0.034764834 -0.10705577 -0.0934805 0.04274193 -0.05403637 0.2549976 -0.11026296 0.009638251
0.0070114615 0.18491457 -0.07574161 -0.023494128 0.23695022 0.025498493 -0.0799749 -0.13809974
0.0018068728 0.2084871 0.21156612 0.058891885 0.172992 0.1410506 0.00036402195 0.16488916
0.09058339 0.12465814 -0.096457094 0.10588174 0.16272825 0.06518265 0.12833788 0.12480818
0.10211855 0.14510511 0.1544514 -0.091769025 -0.15904696 0.125181 -0.052773826 0.005100195

net.4.weight f4 [4, 64]
00000000: fff5 2d3e 9cbc 1f3e dedd c13d 4126 913e
00000010: 1284 e5bd 9cbe 7f3d 6442 9f3d f832 d0bc
00000020: eada e13d ad50 603e 9167 80bc 2bb1 933d
00000030: 329e bfba 7505 b33d 8a28 cb3d 19bb 233e
00000040: 18c5 563d 1467 92bd 2a35 a7ba d325 6b3e
00000050: 8ca5 413d c114 2f3f 4d70 863e b489 f3be
00000060: 7d11 da3d 06a6 87bd d654 8c3d 5041 643e
00000070: 3baa f23c 5569 7c3e 6481 6fbd 7f49 453d
00000080: aae9 583d b0ae 44bc 5637 0bbf 4b52 97bc
00000090: 3457 743d 563a f03d 2349 a73e b9ca bcbd
000000a0: 716a 8dbe 81e1 b63d 772d 643e 0291 913e
000000b0: d38a 9b3d 6d56 8a3d f9e8 ccbd 25f7 f43d
000000c0: f041 3d3e be6f 423e 4433 2a3c 7b39 1b3e
000000d0: f327 05bd a7bd 613d c74c 1f3d b3cd c6bd
000000e0: 279c d0bd 63db f93c 898f c53d e476 ff3d
000000f0: 7fec 173f 910c 2d3e 52d6 9d3e 10c9 49bd
00000100: c6ad f93d 4c65 4d3e cbc2 473d 96a8 8fbe
00000110: 8c80 273d e97a b93d e603 993d deb4 80bd
00000120: d3f2 2a3e 14dc 503c 14c6 ed3d 45ce 3f3e
00000130: fe2b 6a3f 96c4 adbd 8491 e83c d8a2 923e
00000140: 39cf 3c3e feb8 263e 24c5 0abd 1037 16bd
00000150: d842 e0bd 5b44 693f 8705 01bf beb9 c1be
00000160: bc04 58bd 7fd4 01bc 2e2e 8ebd 55d1 4b3d
00000170: 79ad 9fbc 7126 483e 1b2a 0abd b5a0 c03d
00000180: 28a5 983b 0f95 253e faa3 83bf c069 4bbc
00000190: 8846 dc3d fb1a fa3d 300b 833e ae92 93bd
000001a0: 1538 80bf 759a 3e3e 0502 023e fb50 cabc
000001b0: 42d2 963d a41c 3a3e 94bb 6d3c 72e3 603e
000001c0: aad0 193e 60fa 7a3c f8ec 97bd 4321 aa3d
000001d0: 8624 a8bc dfd6 263e 757c ba3d b8f0 1e3e
000001e0: cd9f ce3c 6e6e 0e3e 3e88 eb3c d458 85bd
000001f0: ba8d d1be a197 283e 87f1 79bf 9411 85bc
00000200: 4e19 6e3e 1b75 963d e96f 103e c007 9f3e
00000210: 685f 18bd 95e7 a63d b2c7 e2bd 80ae 7abc
00000220: a32d 743d 7689 fd3d 3afc 813e ad35 863d
00000230: 6574 0fbd a467 32bd d8e3 4ebd 6fe2 b83e
00000240: 70aa 663e 6961 2a3e 5d5f 5b3d fcf3 203e
00000250: 0023 a6bb 03f5 0a3f fb4d 803e 57e7 96be
00000260: ea2e 0dbd 72fd f8bb eab3 f6bd a081 bc3d
00000270: 6f1d bb3d 6a10 853d 9091 543d 5b0d ed3d
00000280: ead2 a23d 92b1 35b9 4187 c13e 00c8 73bc
00000290: 7fb9 4f3e 3a4a 6f3e 6982 fd3d 5fbf d33c
000002a0: d1bc 6ebe 482a cb3d 8b30 313e 0738 e0bd
000002b0: 7113 263e e8d1 013e 5af0 cc3d f2a3 b1bc
000002c0: a7fd 903d 450f 323e 7ef9 cdbd 11f2 223e
000002d0: b2af e63d e313 433e 419b 0a3e 0428 1e3e
000002e0: f408 babc 1c51 573e e62f 603e a00f d1bd
000002f0: de29 04bf 7c45 383e 62da 863d c804 ecba
00000300: 25fb 183e c11a 5cbc 9dce 0f3e fcf8 08be
00000310: f6e8 9d3d 4fa6 f83d 7260 a4bd 188a 9abc
00000320: 0c35 e13d 6b85 1f3e 7f8c b43d d17f 57bd
00000330: f18b 04bf 6bde 02b9 788a 103d 3bc0 2ebe
00000340: c6f4 8f3d 9abc 823e cbb3 893c 1859 debe
00000350: 5a96 f13d 0cb1 323f ae84 c13d 3514 96be
00000360: cff9 a03d 9a5f 933d 707a fe3c 4dc7 d93d
00000370: c938 8e3c 1a5c fc3d 465d f13d cf13 583c
00000380: 4bb9 533d e210 6f3e 4975 f8ba bc24 e73c
00000390: b93f 783e 541c 12bf 8284 dcbe efd2 82bd
000003a0: feb8 0440 b4ef a03c 9ddd 523e ef4a 823d
000003b0: 58f7 813d 9b50 6f3d ad6c a5bd a107 563e
000003c0: 8e0c 383e c8b3 5fbe ad45 bbbd e79c 693e
000003d0: e4b0 503d a268 843c 1897 063d 8f32 fa3d
000003e0: d4e2 26bd 2ffc 503e 8cb8 2d3e 9c5d de3d
000003f0: 2a95 6c3f af89 92bc ab60 f43d e56a 2fbb
0.16988371 0.15599293 0.09466146 0.28349498 -0.11206831 0.06243764 0.07776335 -0.025414929
0.11028083 0.21905775 -0.015674384 0.072115265 -0.001461929 0.08741275 0.099198416 0.15989341
0.052434057 -0.07148567 -0.0012756933 0.22963648 0.04727702 0.6839104 0.26257554 -0.47565997
0.10647867 -0.06623463 0.06852119 0.2229054 0.029622188 0.24649556 -0.058473006 0.048165794
0.052957214 -0.012004539 -0.5438131 -0.018471858 0.059653476 0.11729877 0.32672986 -0.09218354
-0.2762027 0.0892973 0.22282968 0.28430945 0.07594838 0.06754766 -0.100053735 0.119612016
0.18482184 0.18987939 0.010388199 0.15158646 -0.0325088 0.055112507 0.03889158 -0.09707203
-0.10186034 0.03050012 0.09646518 0.124738485 0.5934524 0.16899325 0.30827576 -0.049264014
0.12191348 0.20058173 0.048769753 -0.28058308 0.040894076 0.090566464 0.07471447 -0.06284498
0.16694193 0.012747783 0.11610046 0.1873103 0.91473377 -0.084847614 0.0283897 0.28639865
0.18438424 0.16281506 -0.033879414 -0.036673605 -0.109502494 0.9111993 -0.5039906 -0.37837023
-0.05273889 -0.007924198 -0.06942402 0.04976018 -0.019491898 0.19545914 -0.03373156 0.094056524
0.00465836 0.16170143 -1.0284417 -0.0124153495 0.1075564 0.12212177 0.25594473 -0.07205711
-1.0017115 0.18613608 0.12696083 -0.024696818 0.07364322 0.18174988 0.014510054 0.21961764
0.15021005 0.015318483 -0.07418245 0.083071254 -0.020525228 0.16292904 0.091057695 0.15521514
0.025222683 0.13909313 0.028751489 -0.06511083 -0.4092844 0.16464092 -0.97634166 -0.016243733
0.2325184 0.07346555 0.1410519 0.310606 -0.03720036 0.081496395 -0.11073245 -0.015300393
0.059613835 0.12379734 0.25387746 0.065532066 -0.03502311 -0.04355587 -0.050510257 0.36110255
0.22525954 0.16638722 0.053557742 0.15718073 -0.0050700903 0.5428011 0.25059494 -0.29473373
-0.03446857 -0.0075985724 -0.12046035 0.092044115 0.091364734 0.06497271 0.05189663 0.11574813
0.07950385 -0.00017327655 0.37798503 -0.014879227 0.20285605 0.23368159 0.123783894 0.025848089
-0.23314215 0.09920174 0.17303674 -0.10948186 0.16218354 0.12677729 0.10006781 -0.02168462
0.0707963 0.17388637 -0.100573525 0.15912654 0.1126398 0.19050555 0.13535787 0.15444952
-0.022709347 0.21027035 0.21893272 -0.10208058 -0.51626384 0.17995256 0.06584622 -0.0018006796
0.14939554 -0.013434113 0.1404366 -0.1337623 0.077104494 0.12141096 -0.08026208 -0.018864676
0.10996446 0.15578239 0.0881586 -0.05261213 -0.51776034 -0.00012480623 0.035288304 -0.17065518
0.07029109 0.25534517 0.016809365 -0.43427348 0.117962554 0.698014 0.09449135 -0.29312292
0.07860147 0.07195969 0.031064242 0.10633717 0.017361062 0.123222545 0.117853686 0.0131883165
0.05169038 0.23346284 -0.0018955852 0.028215759 0.24243058 -0.57074475 -0.43069845 -0.06387889
2.073791 0.01964555 0.20592351 0.06361949 0.06346005 0.05842648 -0.08077369 0.20901348
0.17973539 -0.21845925 -0.09144149 0.2281376 0.050949946 0.016163174 0.032858938 0.122166745
-0.040743664 0.204087 0.1696493 0.10857698 0.92415106 -0.017887918 0.119325005 -0.0026766595

net.4.bias f4 [4]
00000000: 1c14 b63e 796b 393e c163 553e c412 673e
0.35562217 0.18107404 0.20838834 0.22565752
