qmix_agent_q_net_last.pth (torch, 22461 bytes, 6 tensors)

net.0.weight f4 [64, 5]
00000000: 931a 39bf 8d64 efbf 8152 913c 29cd 68bd
00000010: b0e0 573d 822c 9fbf 76e1 1c3f 861f 903b
00000020: c4b1 633f 0059 d9bb 3c8a 24c0 8195 3ebf
00000030: 642d b13e 7fa8 433f 96f6 a2be cd5a 453f
00000040: 4d9e 343f 0be2 13bc bd5c 873e 2090 bf3c
00000050: ec8f 913e 34fe 83be 5e52 64be 58cf 543d
00000060: 009b 72bb 4e5b 6e3f a820 98bd 2926 ea3e
00000070: 251d f93e 8a3a 8e3e c158 8abd cd5c ab3e
00000080: e3e0 6ebd a793 0a3e 3832 393e 3abc 9dbd
00000090: 1ec1 b23e 2dec f2be 05dd 573e b079 383e
000000a0: b9de 103f 4ccf 743e 4902 4dbc 4b1e c63e
000000b0: b197 7ebe 6061 573e 27eb 833e 408a ce3d
000000c0: 7c39 22bf 8428 c0be 3a6c 74be 3b3f c03d
000000d0: 1c66 b33d 746e 05bf 225f 47be 4e43 ba3c
000000e0: dbd7 9f3e b9af 1fbf ac02 4fbe 586a 943d
000000f0: 25b4 66be b35e 453c ba86 003f 5594 13bf
00000100: 40a5 d8bd 50d2 9cbd bf97 25c0 fc7c d1be
00000110: ff2d c6be 4cf1 6b3e f87b 023d a76b 003d
00000120: 1071 b83e 80b3 283b e4f3 4f3e b3f3 6cbd
00000130: 0cd6 983e 81e1 783e 4e18 babe 1406 86be
00000140: 81fb 0e3f 0e43 d4bf e149 433e faef b2be
00000150: f2ce 6cbe d69b 933e 8a1a 283f d775 b7bd
00000160: 3529 b03c 2e8f 833e 9bf3 453d 45dd a7bd
00000170: 8a5c 9ebe 1547 4c3e dc41 00be e984 06bd
00000180: e416 1b3e a486 39bd b2b7 aa39 4479 89be
00000190: 370e 20be b80e 8b3e a981 a7be 2be2 15be
000001a0: a04c 9fbe 457c 323d fa41 22bd ce77 debd
000001b0: c282 dbbe 2800 b93d e49f 7ebf 5a12 e83e
000001c0: 6645 dc3e 7a46 aa3e c484 03be 2293 17c0
000001d0: 7475 ee3e d6b1 233e d8e5 3abe 24bb c5be
000001e0: a236 ddbe 89a1 563e fb8c 45be d797 f33d
000001f0: 040a 323e 6f93 3c3e a409 e93e 6cb8 7cbe
00000200: 45fb 5a3e 9070 673d e041 97bd f693 c8be
00000210: fc9a bdbe 245e 0a3e dfd9 8ebe b55e 843f
00000220: 42c9 36be 9e24 92be af9e bb3d 7399 bfbe
00000230: 4b94 dac0 7f7e 863e dabc c93e b45a ff3e
00000240: a018 fc3d ccba b7be d14b e0bf e882 103f
00000250: 301a 383f d768 7bbe 2196 903d f146 833f
00000260: 947c f0be 69d0 173e 8016 7f3e 47c1 d8be
00000270: f018 1d3e 687e c2be 088a d0be ead8 b73e
00000280: 501c b93c b3c1 56be 1851 173d d858 aebe
00000290: a48f e33e e6e2 a0be 54a9 803e 4021 cf3b
000002a0: 20df a63d b0f7 e63c f535 2cbd 20e0 e3bd
000002b0: b0e0 15bf 6e26 433d 5aa5 d2be 71ee 52be
000002c0: 4010 f6bd b820 283e 6673 50be 9d30 b8be
000002d0: 8a56 8bbe e152 e0be 9a89 5ebe a07d 633d
000002e0: e408 c7bd a91c 863d b02b 8a3d e784 27bf
000002f0: 24df a6be 380e e3bd e136 8ec0 029e 883e
00000300: c0b5 f5bd 71e0 00bf 5047 15be e893 e43d
00000310: 7baf 9fbe 9054 823d 7813 dbbd ce28 853e
00000320: 4fea 4abf 4017 04be 2907 59bd 8ddd 563c
00000330: a2c6 d6be 6f59 283f e8e4 de3e 0b61 abbe
00000340: 2e2f bebd 68df cc3d 81ac 69be cdfd 243f
00000350: ecd4 8bbe e53d 2d3e 019b d8be 4ffa ca3f
00000360: 33f7 7e3e cb15 2a3e ca56 31be 2e76 bb3e
00000370: e465 933e f23e 473f 19d0 ce3d e144 d8bd
00000380: 54a4 a7be 2997 9bbe 11e6 ab3e 142b 2ebe
00000390: 0e49 0e3d 7eec d73e 189b 61be 77a3 443c
000003a0: c917 cebd f68f 0ebd 7e5b 8dbe 1a88 843e
000003b0: 2232 6bc0 baf0 05bf ed39 263f c055 89bd
000003c0: bcca 41bf 4776 563d 000b ab3e c355 403f
000003d0: 95ee debe 309e 13be 01a0 a43e d03b 2cbd
000003e0: 857d 2abf dc6f 22be 0fd4 03c0 f8dc 21bf
000003f0: fdac 693e db60 8c3f 641f 803e 991a de3d
-0.72306174 -1.8702561 0.017739536 -0.05683628 0.052704513 -1.2435458 0.61281526 0.004398289
0.88943124 -0.006632924 -2.5709372 -0.74446875 0.34604943 0.7642898 -0.31828755 0.77091676
0.7055405 -0.009026061 0.2643794 0.023384154 0.28430116 -0.2577988 -0.22297046 0.05195555
-0.0037018657 0.9310807 -0.07428104 0.4573224 0.48655048 0.27779037 -0.0675521 0.3346924
-0.058319937 0.13532887 0.18085563 -0.07701917 0.34912962 -0.47445813 0.21080406 0.1801517
0.5658985 0.23907202 -0.012512752 0.38694987 -0.24862553 0.2103324 0.25765345 0.10084963
-0.63368964 -0.3753091 -0.2386941 0.0938706 0.0875971 -0.52121663 -0.19469884 0.022737172
0.31219372 -0.62377506 -0.20215863 0.07246846 -0.22529657 0.012046504 0.50205576 -0.5764821
-0.10578394 -0.076573014 -2.5873868 -0.40915668 -0.38706967 0.23041266 0.031856507 0.031352665
0.3602376 0.0025741756 0.2030788 -0.057849597 0.29850805 0.24304773 -0.36346668 -0.26176512
0.55852515 -1.6582963 0.19071151 -0.34948713 -0.23125818 0.2882983 0.65665495 -0.08958023
0.021504024 0.25695175 0.048328023 -0.08196501 -0.30929977 0.1994899 -0.12525123 -0.032841597
0.15145451 -0.04529442 0.0003256179 -0.2685033 -0.15630423 0.27159667 -0.3271611 -0.14637057
-0.31113148 0.043575544 -0.0396137 -0.10862695 -0.42873198 0.09033233 -0.99462724 0.453265
0.43021697 0.33256894 -0.12843615 -2.3683553 0.46573985 0.15985808 -0.18251741 -0.3861934
-0.43205744 0.20960058 -0.19292061 0.118941955 0.17386633 0.18415616 0.45515168 -0.24679726
0.21384914 0.056503832 -0.073856115 -0.39175385 -0.37032306 0.13512474 -0.27900597 1.0341402
-0.17850211 -0.28543562 0.09161126 -0.3742176 -6.830602 0.26268384 0.39401895 0.49873888
0.12309384 -0.35884702 -1.7523137 0.5644975 0.7191496 -0.24551712 0.07059885 1.0256025
-0.46970046 0.14825596 0.24910927 -0.4233496 0.15341544 -0.37987065 -0.4073031 0.3590768
0.022596508 -0.20972328 0.03694257 -0.34052157 0.44445527 -0.3142311 0.25129187 0.0063211024
0.081480265 0.028194278 -0.042043645 -0.11126733 -0.5854597 0.04764407 -0.41141778 -0.2059877
-0.12014818 0.16418731 -0.20356521 -0.3597459 -0.27214462 -0.43813232 -0.21732178 0.055539727
-0.097184926 0.06548435 0.06746614 -0.6543717 -0.32592118 -0.110866964 -4.444199 0.2668305
-0.11997557 -0.5034247 -0.14577985 0.111610234 -0.31188568 0.06363785 -0.10697073 0.26007694
-0.79263777 -0.12899494 -0.052985344 0.013114345 -0.4194842 0.65761465 0.43534017 -0.33472475
-0.092863426 0.10003549 -0.22819711 0.6444977 -0.27310884 0.16918142 -0.4230576 1.5857638
0.24898987 0.16609876 -0.17318264 0.366136 0.28788674 0.7783042 0.10098285 -0.105600126
-0.3274256 -0.30388764 0.33573964 -0.1700862 0.03473764 0.42172617 -0.2203182 0.012001864
-0.100631304 -0.03480526 -0.27608865 0.25885087 -3.6749349 -0.52320445 0.6493214 -0.06705809
-0.75699973 0.05235889 0.3340683 0.7513086 -0.435414 -0.14415812 0.32153323 -0.04204923
-0.6659778 -0.15862983 -2.059818 -0.63227797 0.22819896 1.0967058 0.2502395 0.10844917

net.0.bias f4 [64]
00000000: b1f0 b03e ef19 b6be eccd c1bd f918 fcbe
00000010: 7031 cbbe db40 a9be cf3a b5bc a152 e4bd
00000020: a6b0 debe 0fd2 263d ed93 24bc a3a0 853e
00000030: 670e bbbd 82d2 953e 20ad e0be 6e86 2c3d
00000040: d73c bebe 5e13 933e ddb7 8abe c811 1ebe
00000050: eb5d 8cbc bb87 40bd 8035 33bf 8053 fc3d
00000060: 10ae 443e 68b7 493e 710c a6be a16a e63d
00000070: 3cca e4bd 36fe 1cbd dac9 5d3d 8c4f b7be
00000080: b2da ccbe 0e78 b6be 39b5 48bd 9d1b 55be
00000090: 0519 5fbe b6ca 023f 3772 1fbd 7786 b7be
000000a0: 7fb4 243d a9c0 04be 434d 553e 72ab 81be
000000b0: 2328 e6be 1a2b 5d3e 303c 55bc 0beb 86be
000000c0: e58d ebbe 29ab 973e 8234 47be 82ba 4abf
000000d0: 924d b1be fb08 8abe e5d4 00bd 0c63 fd3d
000000e0: f4fc 90be 4438 a1be 506e 31bd 263e 17bf
000000f0: aff6 e0be c997 07bf b5f5 56be a7aa f6be
0.34558633 -0.3556666 -0.094631046 -0.49237803 -0.39686155 -0.33057293 -0.022122769 -0.11148573
-0.43494147 0.04072767 -0.010045034 0.2609912 -0.091336064 0.29262167 -0.43882084 0.04212039
-0.37155792 0.28725713 -0.27093402 -0.1543647 -0.017134627 -0.047004443 -0.7000351 0.12320614
0.19207025 0.1969887 -0.32431367 0.112508066 -0.11171386 -0.038328372 0.05414758 -0.35802877
-0.400106 -0.3563847 -0.049000952 -0.20811315 -0.21786888 0.5109056 -0.038927283 -0.35844776
0.040211197 -0.12964119 0.20830254 -0.25326115 -0.44952497 0.21598473 -0.013014838 -0.263512
-0.46006694 0.29622772 -0.19453624 -0.7919084 -0.34629494 -0.26959977 -0.031453032 0.12372407
-0.28317988 -0.3148824 -0.043318093 -0.59079206 -0.43938205 -0.5296598 -0.20992167 -0.48177072

net.2.weight f4 [64, 64]
00000000: 463a d0be dd6b 7b3c 784c 903f 3397 8cbe
00000010: 104a 85bd b4aa 5bbf d04d 2dbd e64c d7be
00000020: ed62 cfbf e9f1 a33c 7807 1cbe 0a2c 8c3e
00000030: bd2d 87be 21ab 7bbe 0fd0 b53d b698 ab3d
00000040: 8aa4 83bf 4702 1d3d e495 923c 4302 3f3d
00000050: 3391 d4bd 1197 abbd 7afc 8dbf a0a8 063f
00000060: f6ae 29be 8c32 ba3c 089f 4d3d e819 cc39
00000070: d818 73be dc95 0dbf 044f 273f 3ca9 5b3d
00000080: dc22 9a3d 784e a63d f538 35be 5407 033d
00000090: 7061 ff3c 3de3 c23e 2058 f33d ec96 a43d
000000a0: 56c5 98be c17f 073e c0a1 0b3e 575b 8dbd
000000b0: 8983 2cbf 6f23 8c3d a95f 2b3e 1b5f febe
000000c0: 95ca c4be 9df5 9f3e 7bcf 243f 30de a93f
000000d0: 81a5 51bf 7ca8 7a3e 2c50 97be 1955 423e
000000e0: 1611 703f fd4f 783e 40e8 62bc b3bb 69bf
000000f0: 9f82 1ebd 2bbb 6bbf a03b debd 81c3 86bd
00000100: 1449 86be 96e0 04bf 3cac dabf dd32 40be
00000110: debb f4bd 26e2 853e 948b e0be 0a73 8fbd
00000120: be53 ed3e 5f4c 17be 4045 df3d d466 9ebe
00000130: 72ce 9a3e 288a cabe dbff 75bd 82d7 a53e
00000140: 69c0 90bf 27d2 febd 3afb fabc 2d79 c5be
00000150: d43f 1ebe 4254 aabd 361a cabf af01 99be
00000160: faed 5ebe 73a5 2ebe 4017 6a3b 8179 f5be
00000170: 23c2 31be e856 923e bf25 95be de93 b33d
00000180: 3c81 323d 68c4 a43c d90f ad3d 2437 a33d
00000190: a0b1 51bc 0642 40be a416 84bf dcea 883d
000001a0: 293b 03bf 2c12 9fbf 7885 42be 1d1a 7b3e
000001b0: 858d a7bf c442 b5bc 16f2 89be e9a3 163c
000001c0: 6f36 ff3d 46e1 2c3d cc4e 953d c5b5 853f
000001d0: 3c2c 81bf ec4f 973e d06d e9be 7d6c 583d
000001e0: e12c 39bf 4359 a0bf fa96 fabd 9159 8cbf
000001f0: 69b6 873d f7a5 e9bf 44f2 c8bd 416d fabe
00000200: bab0 733d e8e5 123e fc58 95be 1c58 86bf
00000210: 3012 8cbc 3113 b0be 2064 4fbc e160 3e3e
00000220: 4242 483f ca40 b1bd e9e0 ec3d b3b0 e8bd
00000230: b891 3b3e a12f cfbe a9b6 7dbb b811 5f3e
00000240: c816 b6bf 52cc 0b3e f81c bbbd b4fa 44bd
00000250: aa53 28be ae48 7dbe 39c0 273e e690 c6bd
00000260: a79e 9a3d 3695 54bd 400e af3c 76f3 0dbf
00000270: 8b92 9c3f d91a 4a3e 717c ed3e 100a e6bd
00000280: 8e57 fb3d 8408 bbbd 9e70 1fbd e07d 143c
00000290: c437 18bd 6422 b2be f762 85bf 88fc e13c
000002a0: a409 72be 7f2f a8be 88b8 be3c 3be0 ccbe
000002b0: 90aa c6be e566 c63c c8a1 5cbe ab5a a93f
000002c0: 509b 8dbe 7404 c0bc d6aa a0be be79 c33e
000002d0: 7f0c efbd 9ebf 063d 5b32 43be f4c5 d8be
000002e0: b757 2f3f 857b 3ebe e091 5b3d 262e 87bd
000002f0: c0c2 85bd 1bdc fabe e79c 44be 50a0 b23f
00000300: f700 31be 7ecf bbbf 9cf7 0ec0 2f78 283f
00000310: 5044 773d dae8 e0be 4e69 103e 6f15 14bf
00000320: 8bb3 38be 88a2 ee3c a5d1 71bd 17ca 0abf
00000330: 2ead 333d fc29 a43d 43ad 41bd 8e87 66bd
00000340: d34b 26bf 0a4d 3fbd 38b6 9cbc b8d6 013e
00000350: 8a84 bfbe 82c8 3ebe 5ed9 79bd 56ac 4cbf
00000360: 524d 1cbf 11a4 34be 489f 9abd ed67 95be
00000370: d75d 753f e7f0 663d e978 253f 5ef9 843d
00000380: 7084 303c 0227 b83d 5ff8 3bbe 047f c93d
00000390: eaa8 ccbd 0fda 26bf 411e 97bf f45f 703d
000003a0: e757 2ebf 58d0 cdbd c631 bcbd 9668 ab3e
000003b0: d6d8 5c3f 8d17 ecbd ef31 cabd 827c b53d
000003c0: 65af efbd fe68 20be 0f6d 4bbf f164 fd3f
000003d0: 9a7e f1be 8aee 1bbf 2abd 89bf ab8c 05be
000003e0: 11f3 3ebe f174 f03d e424 443d 6893 823f
000003f0: 460c 6e3d 0751 cebf 2799 88be 7588 6ebd
-0.4066946 0.015345541 1.1273336 -0.27459106 -0.06508267 -0.8580735 -0.042310536 -0.42050856
-1.6202065 0.020012813 -0.15237224 0.2737735 -0.26402083 -0.24576999 0.08877575 0.08378737
-1.0284588 0.03833225 0.017893739 0.046633016 -0.10379257 -0.08378423 -1.1092675 0.5260105
-0.16570649 0.02272918 0.050200492 0.00038929214 -0.23739946 -0.5530679 0.65354943 0.05362819
0.0752618 0.081204355 -0.17697509 0.03198941 0.031174392 0.38063994 0.11882043 0.080365986
-0.29838055 0.13232328 0.13635921 -0.06902187 -0.67388207 0.06842696 0.1673571 -0.49681935
-0.38435808 0.31242076 0.6437909 1.3270931 -0.81893164 0.24478334 -0.29553354 0.18977775
0.9377607 0.24249263 -0.013849318 -0.9130203 -0.03869879 -0.9208247 -0.10851216 -0.06580258
-0.2622763 -0.5190519 -1.7083812 -0.18769403 -0.11949895 0.261491 -0.4385649 -0.07004364
0.46352953 -0.14775227 0.1090188 -0.30937827 0.3023563 -0.3955853 -0.060058456 0.32390982
-1.1308719 -0.12442427 -0.030637372 -0.38569012 -0.15454036 -0.08316852 -1.5789249 -0.29884097
-0.21770468 -0.17055301 0.0035719424 -0.47944263 -0.17359214 0.2858193 -0.2913036 0.08768438
0.04358028 0.020113185 0.08450288 0.079695016 -0.012798697 -0.18775186 -1.0319409 0.06685421
-0.51262146 -1.2427421 -0.18996227 0.2452168 -1.3090063 -0.022126563 -0.2694251 0.009194353
0.12461554 0.042207025 0.0729042 1.0446097 -1.0091624 0.29553163 -0.45591593 0.052837837
-0.72334105 -1.252724 -0.12235828 -1.0964833 0.06626589 -1.8253773 -0.098118335 -0.4891148
0.05949471 0.14345515 -0.29169452 -1.0495639 -0.017098516 -0.34389642 -0.012658149 0.18591644
0.782261 -0.08654936 0.11566336 -0.11361828 0.18317306 -0.40466025 -0.003871361 0.21784103
-1.4225702 0.13652161 -0.09136385 -0.04809065 -0.16438165 -0.24734756 0.16381921 -0.09695606
0.07549792 -0.05190011 0.0213691 -0.55449617 1.2232221 0.19736804 0.46384004 -0.11232388
0.12272559 -0.091324836 -0.03892576 0.009063214 -0.037162557 -0.34791863 -1.0420827 0.027586237
-0.2363649 -0.32848737 0.02328135 -0.40014824 -0.38802004 0.024218986 -0.2154609 1.3230795
-0.27657557 -0.023439623 -0.31380337 0.3817882 -0.11672305 0.032897584 -0.19062178 -0.42338526
0.6849322 -0.18601806 0.053605914 -0.06600599 -0.06531286 -0.48996052 -0.19200478 1.3955173
-0.17285524 -1.4672697 -2.2338629 0.65808386 0.060367882 -0.43927652 0.1410267 -0.57845205
-0.1803724 0.029130235 -0.059037823 -0.54214615 0.04386633 0.080158204 -0.047284376 -0.05628162
-0.6495945 -0.04670433 -0.019129857 0.12679565 -0.37405807 -0.18631175 -0.060998313 -0.79950464
-0.6105548 -0.17640711 -0.07549912 -0.29180852 0.95846313 0.056382086 0.6463762 0.064928755
0.010773763 0.08991815 -0.18356465 0.098386794 -0.09993155 -0.6517648 -1.1806108 0.058685258
-0.6810288 -0.10049504 -0.09189181 0.3347823 0.86268365 -0.115279295 -0.09872805 0.088616386
-0.11703376 -0.15665051 -0.79463285 1.979643 -0.47166902 -0.60910857 -1.0760853 -0.13041942
-0.1864741 0.11741055 0.047886744 1.0201235 0.058117174 -1.6118478 -0.26679346 -0.058235604

net.2.bias f4 [64]
00000000: e8ca 903e fbf8 773e bf5d 513e 833e acbe
00000010: 9f8f cebc 3d5d 403e 511d 65bd b224 4bbc
00000020: 983a 1abc 0c5c 30bc 2f9e 3ebc f7ca 37be
00000030: 607d f03e e344 fbbd 2aa4 debd 04e0 93bd
00000040: 5ccb 053d 45a4 a9bd b06f ffbd 84f6 bd3e
00000050: ad89 de3e c717 103f e476 a53e 06ba f43c
00000060: ea0b 7c3e 092d d1bd 3da1 09be 925d 1a3d
00000070: 929b 643e 0128 063f 95db 0b3f cdb9 963c
00000080: 20d3 19be d6d2 abbd 227e 09be 6a89 3cbd
00000090: 632d 293e b55c 0ebd aea4 eb3d a3fa cc3d
000000a0: 4825 f7bd ec28 993d 7da2 5a3c 9ca1 0dbe
000000b0: eec5 a9bd 2e4c d2bd 58ea 29bc f655 d4bd
000000c0: 1f8b 55bd 3e8e 833d 7e47 c2bd 3371 0cbe
000000d0: 6957 843e bbf7 28be c822 e0bd b8cf 1abe
000000e0: 603a 053f ab42 ee3e c90d fb3e abe0 ccbd
000000f0: ef8c a63d 72a0 83bd 4393 0b3f f708 a3bd
0.28279805 0.24216072 0.20445918 -0.33641443 -0.025214968 0.18785568 -0.05593616 -0.012398886
-0.009413384 -0.010764133 -0.011634394 -0.17948519 0.46970654 -0.122689985 -0.108711556 -0.07220462
0.03266464 -0.08283285 -0.124724746 0.3710214 0.43464413 0.5628628 0.3231727 0.02987386
0.2461392 -0.10213668 -0.13440414 0.03768689 0.2232497 0.5240479 0.5463193 0.018399144
-0.15021944 -0.08389823 -0.13427022 -0.046029486 0.1652122 -0.03475638 0.115060195 0.10008743
-0.12067658 0.07478508 0.013344404 -0.1383118 -0.08289705 -0.10268436 -0.010370813 -0.10367958
-0.05213463 0.06423615 -0.09486292 -0.13715057 0.2584794 -0.16500752 -0.10944134 -0.15118301
0.520422 0.4653524 0.49033955 -0.100037895 0.0813235 -0.06427087 0.5452158 -0.07960694

net.4.weight f4 [4, 64]
00000000: c5fc a93e 800e bfbe 5338 9e3e f747 793e
00000010: ccd0 3c3d d054 083f fadc d1bd 42a7 92bd
00000020: ab29 c6bb d58b 65bd 9fc2 883d 0ef2 bdbe
00000030: a689 d53e 02bb c53c 1f43 b73d e89f 8fbd
00000040: c9ce 03bd 6d1e 34bd 36d6 063e 0b98 903e
00000050: e3f7 c63e d71a a83e ea0c af3e 83b0 253d
00000060: 46a2 8b3e 91cf a83d 42b4 9fbd 73f9 b2bd
00000070: 291a 143f 1733 c63e 692a 983e cc79 a4bc
00000080: ee41 d63b 6de3 d53c 86db acbd 01af 20bc
00000090: 914e 343e 5f11 7abd 3431 2e3e bfbc 0c3f
000000a0: 7795 f1bb b3dd 063d af6e ba3d c368 bd3e
000000b0: 473b 34bd 8c37 2f3b 3ca9 fe3d 1508 e6bc
000000c0: d0ab a83d 6b41 2cbd 9300 5dbd d45a a6bd
000000d0: cadd 683e e598 383e 00a2 7b3a cb4d 913e
000000e0: bbfd 043f e176 a43e 4522 a23d 41e0 fcbe
000000f0: 6995 673e 59d5 06be b5dc e53e a6c6 0dbd
00000100: ad8e 17bd 002f 0c3d 2334 d8be 3cd1 b03f
00000110: 782b a83d 2df8 ec3e 844e 5b3d b90e 88c0
00000120: 7f09 bebd f432 32bd 05d0 52bc cb88 22c0
00000130: cec4 ef3e 50e1 b9bd f877 39bd 3a55 89be
00000140: 9d39 8fba 7d25 d6be e3e5 1fbd 303d 1b3f
00000150: 0228 3f3e 4909 f13e 13c2 ff3e bae0 87bd
00000160: 5065 b93e dd86 9f3d 382e d03c d0e2 913d
00000170: 594b 643e 1cae 983e 5f86 eb3e da37 b93d
00000180: e0eb 36bc c7aa 00bd 96de adbd 9104 f73d
00000190: 5f37 82be 21bf 913d 25f7 4ebf 058b 2e3e
000001a0: 6088 80bc 3399 9abd 329f 9bbd 170d 2bbf
000001b0: d85d c83c ad7a 6839 44b8 843c 3e8a debd
000001c0: 441c 5dbd db2e b2bd 18e9 62bd 664b 413d
000001d0: 5006 3dbd 3823 70be 144a 073d 799d b0bf
000001e0: 695d 9c3e 9a8f f03e b22c b13e ef9c 4f3f
000001f0: bb07 e3bd 366c 1abe f0c0 cd3e 1f15 d4bb
00000200: 114e 513e 4a63 dcbb cafb dabe 23c9 99bf
00000210: f53c 3bbd 5a5e a63e 6128 cdbc f40a adbd
00000220: ee83 8fbd 3cbb 723d 041f 60bd 7f9a ee3c
00000230: 9ca3 283f d0ee 7d3c 7644 803d d193 f1bd
00000240: 711c 6d3c 94c4 5e3e 7720 553f 59eb 173d
00000250: 18b2 103f 5985 b63e 2548 353d 6886 8d3d
00000260: b183 703e 9a30 ecbc ca1c 4fbd 51b7 91bd
00000270: 29b7 2c3e 72df ea3e 05b2 c03e 58f4 0a3c
00000280: 9064 bc3d 7f11 bc3d 2c27 efbd 5d0a ccbd
00000290: 5998 c53e 727f 94bc a272 b53e e81a 0cbf
000002a0: c181 903d c237 003e 8a50 c0bd c08f 8ebe
000002b0: f85b b6bd 245d 34bc b42f 59bc c403 f3bc
000002c0: b7b4 aabd d7ac bbbd 2f7b adbd a0e8 90bc
000002d0: 28a7 a03e a0f3 25bf 88ed 643d a985 853e
000002e0: 3d58 aa3e 96f9 d73c 8aee cf3e 6f40 5ebd
000002f0: aaae 153e f68c a4bc 1033 eb3e c334 e9bd
00000300: 012e f63e afb9 34be 5ea3 96bd c13f 223f
00000310: 5c6d a53d 98e5 153f 0041 ef3a 1a8f 3d3f
00000320: 092b afbd e629 893d 0b3f b7bd 969a fb3f
00000330: 3b9e dd3e e0f2 fbbd 9b58 a6bd 5a35 0b3e
00000340: 84de 983d 1c91 043e 6f31 7ebf a922 b33e
00000350: 14a5 f03c f092 e63d d473 0b3f 51bc b5bd
00000360: 3921 923e 90f1 14bc e860 c63d 801d 3cbd
00000370: 7150 9c3e e1e4 8b3e 2f73 b43e fd3c 313d
00000380: dbe5 b9bd 851d 963d 80a7 303b 904f b13d
00000390: 1016 78bd 4aa0 b7bd f0a9 67bf 2acb 033f
000003a0: 662c 973d 072d b3bd 9e71 613d b6e6 a73e
000003b0: d1ba 7d3d 7d0b 88bd 12a7 a63c 7ed1 c7bd
000003c0: d0ef 973d a63d c9bd be98 d33d c065 fabd
000003d0: 5f60 bdbd c2bd e53e b84b f73c 0e28 8c3f
000003e0: 3617 023f dd81 7e3e 6bed 0e3f 5d63 3b3e
000003f0: c9fa 4bbe 11da b63d 8b5f a83e 4374 7dbd
0.3320066 -0.3731575 0.30902347 0.24343859 0.04609756 0.53254414 -0.10247226 -0.07160808
-0.0060474477 -0.056041557 0.06677746 -0.37098736 0.4170658 0.024137024 0.08948349 -0.070129216
-0.032179628 -0.04397433 0.13167652 0.28241 0.38860998 0.32832977 0.3418954 0.040451538
0.27272242 0.08242715 -0.07798053 -0.08738985 0.5785242 0.38710853 0.29719856 -0.020077609
0.006538621 0.026109422 -0.08440308 -0.009807349 0.17608096 -0.061051723 0.17010957 0.54975504
-0.007372554 0.032926273 0.091031425 0.3699399 -0.044001844 0.002673599 0.12434623 -0.028080026
0.08235896 -0.042054575 -0.053955626 -0.08122793 0.22740856 0.18027075 0.000959903 0.28379664
0.5194966 0.32121947 0.07916693 -0.49389842 0.22615589 -0.13167323 0.4489495 -0.034613274
-0.0370013 0.03422451 -0.42227277 1.3813853 0.08211416 0.46283093 0.053541675 -4.251797
-0.09279155 -0.043505624 -0.0128669785 -2.5395992 0.46829838 -0.09076178 -0.045280427 -0.26822835
-0.0010927204 -0.41825476 -0.039037596 0.6064024 0.18667606 0.47077397 0.49952754 -0.0663466
0.36210108 0.07789395 0.025412664 0.07123339 0.22294368 0.29820335 0.46000955 0.09043856
-0.011164635 -0.031412866 -0.084897205 0.12061418 -0.2543287 0.07116533 -0.8084586 0.17045219
-0.015690029 -0.07548752 -0.075987235 -0.6681685 0.02445881 0.00022170944 0.016201146 -0.10866211
-0.053982034 -0.08700343 -0.055398077 0.047191046 -0.0461486 -0.23450935 0.03302963 -1.3798057
0.30540016 0.4698456 0.34604412 0.81098837 -0.11085459 -0.15080342 0.40186262 -0.0064722444
0.20439936 -0.0067257034 -0.42770225 -1.2014507 -0.04571243 0.3249386 -0.025043668 -0.08449355
-0.070075855 0.059260592 -0.05471708 0.029126404 0.6587465 0.015498832 0.06263058 -0.11795772
0.014472113 0.21754676 0.8325266 0.03708968 0.5652175 0.3564861 0.044258256 0.069104016
0.23487736 -0.028831769 -0.050564565 -0.07115043 0.16866745 0.458736 0.37635818 0.008481108
0.09198868 0.091830246 -0.11677393 -0.09962914 0.38592795 -0.018127177 0.3543902 -0.54728556
0.070559986 0.1252127 -0.093903616 -0.27844048 -0.089042604 -0.011008535 -0.013256002 -0.029664882
-0.0833525 -0.09163826 -0.08470761 -0.01768905 0.3137753 -0.6482487 0.05589059 0.26078537
0.33270445 0.026364129 0.40611678 -0.054260667 0.1461741 -0.020086747 0.45937395 -0.113870166
0.48081973 -0.17648958 -0.073553786 0.6337853 0.08077499 0.5855346 0.0018253624 0.7404648
-0.0855313 0.066974446 -0.08947571 1.9656551 0.43284783 -0.12302184 -0.08122369 0.13594571
0.074643165 0.1294598 -0.9929418 0.3498738 0.02937559 0.11258495 0.54473615 -0.08873809
0.28540972 -0.009090796 0.09686452 -0.04592657 0.30530122 0.27323058 0.35244128 0.043271054
-0.090770446 0.07329849 0.0026955307 0.086577535 -0.060567915 -0.089661196 -0.9049368 0.5148188
0.07381515 -0.08748823 0.055039994 0.32793206 0.06194574 -0.06642816 0.020343337 -0.09756754
0.074187875 -0.09826212 0.10331868 -0.122264385 -0.09246897 0.44871336 0.030187473 1.0949724
0.5081667 0.24854226 0.5583102 0.18299623 -0.19919886 0.089283116 0.32885394 -0.061878454

net.4.bias f4 [4]
00000000: 5d9c 0c3f 5c29 563e a132 393f 7202 0b3f
0.5492609 0.20914215 0.7234288 0.54300606
