qmix_agent_q_net_best.pth (torch, 22461 bytes, 6 tensors)

net.0.weight f4 [64, 5]
-0.06875494 -0.27613273 0.1980471 0.28199893 0.052704513 -0.30593503 0.36134636 -0.4221182
0.38486058 -0.006632924 -0.37103787 -0.14141929 0.16399455 0.35237956 -0.31828755 0.3831475
0.5174701 -0.16620633 -0.20406495 0.023384154 0.28430116 -0.2577988 -0.22297046 0.05195555
-0.0037018657 0.48287356 0.2527918 0.33079875 0.18277824 0.27779037 0.031617235 0.4510632
0.14736623 0.43410474 0.18085563 -0.050529066 -0.22542681 -0.4130567 0.27885914 0.1801517
0.26158062 0.29376566 0.14055175 0.23071921 -0.24862553 0.25260353 0.20827201 0.3025093
-0.32854575 -0.3753091 -0.22936174 -0.0454931 0.22108048 -0.32583994 -0.19469884 -0.20246796
-0.24578011 -0.39368123 -0.10702881 0.07246846 -0.2140486 -0.25319135 0.40345478 -0.43431303
-0.10578394 0.2499115 -0.19919226 -0.0719232 0.18500525 0.23041266 0.07427293 0.066314876
0.39894933 0.0025741756 0.2030788 -0.23119536 0.046073336 0.4226039 -0.36246705 -0.26176512
0.35206696 -0.29131743 0.12724912 -0.22898842 -0.23125818 0.36292222 0.43850702 -0.2563819
0.006518781 0.25695175 0.09306574 -0.052290976 -0.30929977 0.24362034 -0.12525123 0.040430404
0.36651957 0.13126087 -0.06113544 -0.2685033 0.06381541 0.13832277 -0.13495484 0.097562134
-0.31113148 0.21155678 -0.09818355 0.2807417 -0.33220354 0.09033233 0.36126325 0.28277057
0.1441983 0.19372916 -0.12843615 -0.35082784 0.21603096 -0.18300185 0.12689704 -0.3861934
-0.3269137 0.21284495 -0.13883814 0.30940515 0.17386633 0.18251662 0.3464478 -0.2102194
0.34363467 0.056503832 -0.073856115 -0.39175385 -0.37032306 0.13512474 -0.27900597 0.3709489
-0.25538158 -0.038088977 0.2597713 -0.3742176 -0.3199304 0.3692749 0.021151006 0.30856395
0.12309384 -0.1920546 -0.12171373 0.19037056 0.25478715 -0.24551712 -0.27742234 0.48240525
-0.4397032 0.23200524 0.24910927 -0.4233496 0.15341544 -0.37987065 -0.4073031 0.3590768
0.022596508 -0.20972328 0.03694257 -0.34052157 0.44445527 -0.3142311 0.25129187 0.0063211024
0.081480265 0.028194278 0.1193556 -0.002785019 -0.36881283 0.4141854 -0.41141778 -0.2059877
-0.12014818 0.16418731 -0.20356521 -0.3597459 -0.27214462 -0.43813232 -0.21732178 0.055539727
-0.097184926 -0.121623546 -0.36089587 -0.42730445 -0.3884258 -0.110866964 -0.33324 0.28002983
-0.32130462 -0.18992293 -0.14577985 0.111610234 -0.31188568 0.06363785 -0.10697073 0.26007694
-0.32149178 0.123257674 0.054781616 0.24557227 -0.4194842 0.25522703 0.30884725 -0.24773747
-0.16820166 0.10003549 -0.3211298 0.34649536 -0.09511584 0.23101771 -0.4230576 0.32800317
0.018163642 -0.31067526 -0.012024939 0.366136 0.15776245 0.3957362 0.22158217 -0.21461695
-0.3274256 -0.27402478 0.2542499 -0.3333814 0.04006183 0.42172617 -0.29185387 0.15398125
-0.067014426 0.02660808 -0.27608865 -0.087638825 -0.31566024 -0.2599858 0.31616318 -0.06705809
0.34917158 0.26306522 0.28286391 0.3764001 -0.435414 -0.305841 -0.06730651 0.0055463016
-0.39905018 -0.15862983 -0.076405436 -0.35250443 0.2959804 0.17903209 0.2502395 0.122625545
00000000: 64cf 8cbd 4561 8dbe dccc 4a3e 2a62 903e
00000010: b0e0 573d 84a3 9cbe 6402 b93e e01f d8be
00000020: 720c c53e 0059 d9bb adf8 bdbe 38d0 10be
00000030: 30ee 273e 186b b43e 96f6 a2be e92b c43e
00000040: ec78 043f fe31 2abe 67f6 50be 2090 bf3c
00000050: ec8f 913e 34fe 83be 5e52 64be 58cf 543d
00000060: 009b 72bb 343b f73e ed6d 813e 745e a93e
00000070: 382a 3b3e 8a3a 8e3e 1381 013d c1f1 e63e
00000080: 2ce7 163e fa42 de3e 3832 393e 91f7 4ebd
00000090: 49d6 66be 2b7c d3be a0c6 8e3e b079 383e
000000a0: e5ed 853e 7468 963e ccec 0f3e a841 6c3e
000000b0: b197 7ebe 4055 813e 4245 553e 80e2 9a3e
000000c0: 2637 a8be 8428 c0be cedd 6abe f956 3abd
000000d0: ec62 623e 7ed4 a6be 225f 47be c353 4fbe
000000e0: c8ad 7bbe 9690 c9be ec31 dbbd 586a 943d
000000f0: 8e2f 5bbe 4ca2 81be a091 ce3e 475e debe
00000100: 40a5 d8bd cde8 7f3e 0ef9 4bbe 784c 93bd
00000110: 0472 3d3e 4cf1 6b3e 681c 983d 18d0 873d
00000120: 1643 cc3e 80b3 283b e4f3 4f3e 7abe 6cbe
00000130: 65b7 3c3d 8a5f d83e 4895 b9be 1406 86be
00000140: 1f42 b43e 8f27 95be 984d 023e f17b 6abe
00000150: f2ce 6cbe f1d0 b93e fe83 e03e 7d44 83be
00000160: 809b d53b 2e8f 833e 4099 be3d 102f 56bd
00000170: 8a5c 9ebe 9c77 793e dc41 00be 5a9a 253d
00000180: 74a8 bb3e 4069 063e 2869 7abd 4479 89be
00000190: a7b1 823d 7ca4 0d3e 9a31 0abe a8ce c73d
000001a0: a04c 9fbe 57a2 583e 7514 c9bd 60bd 8f3e
000001b0: 9516 aabe 2800 b93d 7ff7 b83e 4ec7 903e
000001c0: b8a8 133e f060 463e c484 03be b59f b3be
000001d0: 3837 5d3e d664 3bbe 4cf1 013e 24bb c5be
000001e0: 3c61 a7be 07f4 593e 962b 0ebe 5a6a 9e3e
000001f0: 040a 323e a3e5 3a3e 9b61 b13e c143 57be
00000200: e2f0 af3e 9070 673d e041 97bd f693 c8be
00000210: fc9a bdbe 245e 0a3e dfd9 8ebe 04ed bd3e
00000220: 60c1 82be 3003 1cbd be00 853e 7399 bfbe
00000230: ebcd a3be 9a11 bd3e e044 ad3c 18fc 9d3e
00000240: a018 fc3d f6a9 44be 0c45 f9bd 80f0 423e
00000250: 7673 823e d768 7bbe 4d0a 8ebe d2fd f63e
00000260: c720 e1be c892 6d3e 8016 7f3e 47c1 d8be
00000270: f018 1d3e 687e c2be 088a d0be ead8 b73e
00000280: 501c b93c b3c1 56be 1851 173d d858 aebe
00000290: a48f e33e e6e2 a0be 54a9 803e 4021 cf3b
000002a0: 20df a63d b0f7 e63c b570 f43d de84 36bb
000002b0: 09d5 bcbe 1c10 d43e 5aa5 d2be 71ee 52be
000002c0: 4010 f6bd b820 283e 6673 50be 9d30 b8be
000002d0: 8a56 8bbe e152 e0be 9a89 5ebe a07d 633d
000002e0: e408 c7bd c415 f9bd 58c7 b8be a6c7 dabe
000002f0: bfdf c6be 380e e3bd 6f9e aabe 1260 8f3e
00000300: 0a82 a4be 287b 42be 5047 15be e893 e43d
00000310: 7baf 9fbe 9054 823d 7813 dbbd ce28 853e
00000320: 929a a4be 856e fc3d b062 603d 4c77 7b3e
00000330: a2c6 d6be 1ead 823e 3a21 9e3e e4ae 7dbe
00000340: 0e3d 2cbe 68df cc3d 206b a4be d767 b13e
00000350: 18cc c2bd e88f 6c3e 019b d8be 08f0 a73e
00000360: ebcb 943c d410 9fbe 4004 45bc 2e76 bb3e
00000370: 7b8c 213e ef9d ca3e 70e6 623e 8cc4 5bbe
00000380: 54a4 a7be fa4c 8cbe 0b2d 823e f8b0 aabe
00000390: e017 243d 7eec d73e df6d 95be 43ad 1d3e
000003a0: dc3e 89bd 30f9 d93c 7e5b 8dbe fc7b b3bd
000003b0: 389e a1be dc1c 85be 24e0 a13e c055 89bd
000003c0: 9ec6 b23e 7cb0 863e 8ad3 903e 84b7 c03e
000003d0: 95ee debe 3197 9cbe ffd7 89bd c0bd b53b
000003e0: 4e50 ccbe dc6f 22be 747a 9cbd 767b b4be
000003f0: be8a 973e 3054 373e 641f 803e 1a23 fb3d

net.0.bias f4 [64]
0.34404138 -0.41782987 -0.004074532 -0.25553045 -0.39686155 -0.17465228 0.29886243 0.35914037
0.27643105 0.3276642 0.32943618 0.44966048 -0.091566145 0.07588355 -0.4001091 0.26574725
0.28205597 0.44214883 -0.22680333 0.23225369 0.46122327 0.53534335 0.08108819 0.032809686
0.3689106 0.45570743 -0.32431367 0.25537077 -0.40100226 -0.013598293 -0.045842327 -0.35802877
-0.400106 -0.3563847 0.25551316 -0.20811315 -0.21786888 0.5132053 0.010078117 -0.35844776
0.41389388 0.3727775 0.30911022 0.091760114 0.3114625 0.28387314 0.32102883 -0.16902596
-0.010827098 0.3959262 -0.33984837 -0.31027213 0.123648554 -0.15756549 0.34523377 0.36204425
-0.12586758 0.43991923 -0.043318093 0.22770472 -0.4235057 -0.22973363 0.25669608 -0.34714162
00000000: 3126 b03e cced d5be a783 85bb e3d4 82be
00000010: 7031 cbbe 0cd8 32be 7f04 993e 3fe1 b73e
00000020: 5f88 8d3e 9ac3 a73e dcab a83e e639 e63e
00000030: 0887 bbbd d668 9b3d 1adb ccbe 0610 883e
00000040: a469 903e 5561 e23e 223f 68be e9d3 6d3e
00000050: 7525 ec3e 430c 093f 9111 a63d 7363 063d
00000060: dae1 bc3e 7c52 e93e 710c a6be f5bf 823e
00000070: 2b50 cdbe 60cb 5ebc 2ac5 3bbd 8c4f b7be
00000080: b2da ccbe 0e78 b6be 9fd2 823e 9d1b 55be
00000090: 0519 5fbe 6c61 033f b01e 253c 7786 b7be
000000a0: e6e9 d33e b1dc be3e b243 9e3e baec bb3d
000000b0: 0378 9f3e d257 913e e45d a43e 2415 2dbe
000000c0: 2464 31bc d7b6 ca3e 9b00 aebe fddb 9ebe
000000d0: 743b fd3d d958 21be 7bc2 b03e dd5d b93e
000000e0: 6ee3 00be 183d e13e 506e 31bd 6d2b 693e
000000f0: bdd5 d8be 4b3f 6bbe ab6d 833e 8cbc b1be

net.2.weight f4 [64, 64]
0.25252223 0.045170754 0.0012790114 -0.18717365 -0.06508267 -0.23792404 0.17779128 0.07804815
0.06110063 0.045075063 0.08034231 0.24805039 0.061347574 -0.10743455 0.10125163 0.22163016
0.1216639 -0.041856937 0.008009285 0.11473673 0.1999313 -0.032006647 0.009145558 0.17095226
0.08801303 0.0176094 0.050200492 0.018555414 0.0069737434 -0.07651907 0.1440658 0.05362819
0.0752618 0.081204355 -0.034207035 0.03198941 0.031174392 0.23952194 0.18600163 0.080365986
0.099065684 0.07804475 0.20258544 -0.035668973 -0.07559782 0.22961882 0.24035284 0.060023367
-0.11561601 0.3099536 -0.05936919 -0.1567121 -0.028243411 -0.15447655 0.16771221 0.24743998
0.021695374 0.060930558 -0.013849318 -0.02799886 -0.022996232 0.007319227 -0.0001447275 0.04841225
0.034299336 -0.03613159 -0.109600134 0.07588065 -0.11949895 0.081181675 0.11447797 0.12570162
0.14583938 0.020335473 0.048578616 0.00693703 0.012286648 -0.050047778 -0.052770525 0.19878113
0.010614275 0.021145048 -0.02665019 -0.02609915 0.12171011 -0.034324408 0.09334317 0.026280925
0.020230511 0.17984922 0.0035719424 0.002509603 0.11509685 -0.09075993 -0.13326426 0.08768438
0.04358028 0.020113185 0.15233779 0.079695016 -0.012798697 0.080749966 -0.011020692 0.06685421
0.1227958 0.11029318 -0.036959585 0.10181612 0.034496997 0.15740858 0.030937135 -0.038362935
0.08984936 0.06730118 0.025408715 -0.21930523 -0.08190219 -0.20809908 0.15079828 0.14112143
-0.09729626 0.088800825 -0.12235828 0.09786767 0.081871346 -0.06210901 -0.013731813 -0.031767145
0.13450293 0.1007579 0.125414 0.112734884 -0.017098516 -0.030950386 0.02837484 0.12650391
0.007873154 -0.02985628 0.23570824 0.16142735 -0.100823924 0.014252427 0.005446762 0.16311236
0.05494358 0.17611066 -0.088419035 0.15983044 0.07197665 -0.0039079 -0.0009211915 -0.18035603
0.06810241 0.08065401 0.0213691 -0.04768093 -0.058691368 0.01125133 0.07658613 -0.11232388
0.12272559 -0.091324836 0.017147599 0.009063214 -0.037162557 -0.004308823 -0.109414704 0.027586237
0.026402954 0.10068022 0.12288691 0.013676442 -0.038269285 0.1697895 -0.010093402 0.022042766
0.036328334 0.071317784 0.06229493 0.118557364 0.09666222 0.09065623 -0.0075701703 0.16875768
-0.078362346 0.13797145 0.053605914 0.031444862 -0.04998164 -0.083522245 0.0840169 0.094034076
0.104013644 -0.06333415 0.111483276 0.06201315 0.060367882 0.039200306 0.177677 0.2070224
0.004376915 0.10055173 0.08996172 0.14557421 0.02428396 0.03673451 -0.037673026 0.045817398
0.00587029 0.030058267 -0.016055644 0.043344274 0.08173993 0.06351447 0.062465176 0.021292392
0.058030505 -0.042368777 -0.07549912 0.09029768 0.08651543 0.06571457 0.059444215 0.064928755
0.010773763 0.08991815 0.09493744 0.098386794 -0.09993155 0.0881775 -0.04991835 0.058685258
-0.013569934 -0.04142879 0.021990728 0.08306853 0.0414262 0.063467175 0.12778059 0.009948164
0.08266308 0.09109366 -0.06786059 -0.15434323 0.11376442 -0.20908588 0.08620819 0.20613246
-0.03934957 0.14991714 0.047886744 0.021949122 0.07373989 0.08852184 0.1484168 -0.067126796
00000000: 984a 813e f804 393d 80a4 a73a 73aa 3fbe
00000010: 104a 85bd 5ca2 73be eb0e 363e b5d7 9f3d
00000020: a744 7a3d a1a0 383d 828a a43d ec00 7e3e
00000030: 9847 7b3d a506 dcbd 045d cf3d 04f3 623e
00000040: ec2a f93d 2e72 2bbd 6039 033c 17fb ea3d
00000050: caba 4c3e 6719 03bd 40d7 153c 1c0e 2f3e
00000060: 2d40 b43d 9741 903c 089f 4d3d 8601 983c
00000070: 0084 e43b 08b6 9cbd fc85 133e 3ca9 5b3d
00000080: dc22 9a3d 784e a63d ad1c 0cbd 5407 033d
00000090: 7061 ff3c 3d45 753e 3677 3e3e ec96 a43d
000000a0: f3e2 ca3d edd5 9f3d 8f72 4f3e a119 12bd
000000b0: 08d3 9abd 3221 6b3e 0e1f 763e 10db 753d
000000c0: 16c8 ecbd 3db2 9e3e 1c2d 73bd 2379 20be
000000d0: ba5e e7bc 1a2f 1ebe c0bc 2b3e e860 7d3e
000000e0: 7fba b13c 5292 793d 40e8 62bc de5d e5bc
000000f0: 9862 bcbc 20d6 ef3b fec1 17b9 ec4b 463d
00000100: 767d 0c3d b8fe 13bd 0976 e0bd 5067 9b3d
00000110: debb f4bd 9442 a63d 6d73 ea3d edb7 003e
00000120: eb56 153e 9496 a63c 5ffa 463d 0650 e33b
00000130: f04d 493c e6fe 4cbd e825 58bd 488d 4b3e
00000140: 7fe7 2d3c 6138 ad3c 8051 dabc e2cd d5bc
00000150: 2643 f93d c097 0cbd b42a bf3d 184b d73c
00000160: 75ba a53c 652a 383e 4017 6a3b 2778 243b
00000170: e6b7 eb3d 58e0 b9bd 6d76 08be de93 b33d
00000180: 3c81 323d 68c4 a43c 70fe 1b3e 2437 a33d
00000190: a0b1 51bc 3d60 a53d 2290 34bc dcea 883d
000001a0: 5d7c fb3d 64e1 e13d ef62 17bd f884 d03d
000001b0: b94c 0d3d b72f 213e e06f fd3c 7422 1dbd
000001c0: f102 b83d 33d5 893d f025 d03c 8d91 60be
000001d0: 56bc a7bd ed17 55be dd6a 1a3e 2382 103e
000001e0: 4343 c7bd 35dd b53d fa96 fabd d86e c83d
000001f0: 2aac a73d 0466 7ebd 66fb 60bc 441e 02bd
00000200: 23bb 093e 285a ce3d 876c 003e 8ce1 e63d
00000210: 3012 8cbc aa8b fdbc 5a72 e83c 3e8a 013e
00000220: 67fe 003c 2895 f4bc 805d 713e 364d 253e
00000230: c67c cebd 0383 693c c07a b23b ed06 273e
00000240: 850c 613d 5a56 343e 0a15 b5bd 97aa 233e
00000250: 7e68 933d d70d 80bb 1d7c 71ba 40af 38be
00000260: 4779 8b3d ee2d a53d 400e af3c 144d 43bd
00000270: 5c66 70bd 8057 383c 30d9 9c3d 100a e6bd
00000280: 8e57 fb3d 8408 bbbd 1f79 8c3c e07d 143c
00000290: c437 18bd 0731 8dbb d114 e0bd 88fc e13c
000002a0: 024b d83c 6e31 ce3d 22ac fb3d 2813 603c
000002b0: 41c0 1cbd 4cdd 2d3e cc5e 25bc 0893 b43c
000002c0: 05cd 143d 0f0f 923d f828 7f3d 34ce f23d
000002d0: d8f6 c53d f9a9 b93d 310f f8bb d0ce 2c3e
000002e0: 707c a0bd 6348 0d3e e091 5b3d 54cc 003d
000002f0: 8cb9 4cbd b60d abbd 0d11 ac3d f094 c03d
00000300: 1b05 d53d 56b5 81bd 5851 e43d 8001 7e3d
00000310: 5044 773d 8090 203d f6f0 353e aefd 533e
00000320: 396c 8f3b 11ee cd3d da3d b83d 6811 153e
00000330: 28ef c63c ed76 163d 084f 1abd 06ab 3b3d
00000340: 905b c03b c13c f63c 2087 83bc c489 313d
00000350: 4467 a73d e013 823d 7cdb 7f3d 626d ae3c
00000360: 65b1 6d3d e28a 2dbd 489f 9abd fded b83d
00000370: 002f b13d 5c95 863d c77b 733d 5ef9 843d
00000380: 7084 303c 0227 b83d 8f6e c23d 047f c93d
00000390: eaa8 ccbd 6896 b43d 2f77 4cbd f45f 703d
000003a0: 6e54 5ebc 3cb1 29bd e625 b43c d51f aa3d
000003b0: 85ae 293d 14fb 813d ead8 023e a0fd 223c
000003c0: 434b a93d 508f ba3d 7efa 8abd 270c 1ebe
000003d0: 52fd e83d 9c1a 56be eb8d b03d 6314 533e
000003e0: 042d 21bd e183 193e e424 443d a5ce b33c
000003f0: f004 973d f04a b53d 93fa 173e c679 89bd

net.2.bias f4 [64]
0.1741182 0.13812289 0.12578872 0.059391245 0.027725104 -0.040359132 -0.02417837 0.11493482
0.015366683 0.06794999 0.004247972 0.0010956377 0.053011212 -0.10680783 -0.06937283 0.059400164
0.095594436 0.04307645 0.095112436 0.04655003 0.1874406 0.1591701 0.05112819 0.077516034
-0.032247543 -0.058575593 -0.11853713 0.094377056 0.059798583 0.15668198 0.13023892 0.09727108
-0.11173123 -0.06089908 -0.11838788 -0.0147168785 -0.01996596 -0.018882114 0.04292109 -0.008273164
-0.082299516 0.11340723 0.049715146 -0.0692302 -0.045870706 -0.045806434 0.01666219 -0.07191777
-0.012030885 0.09599399 -0.04893641 -0.12126827 0.11070665 -0.12474695 -0.10944134 -0.01573219
0.18774673 0.10980236 0.085619874 -0.030557545 0.024680374 0.002673025 0.090862185 -0.054724272
00000000: 0b4c 323e 1670 0d3e c2ce 003e 3c44 733d
00000010: c21f e33c 9e4f 25bd b811 c6bc f262 eb3d
00000020: 8ac4 7b3c 5d29 8b3d 9232 8b3b 809b 8f3a
00000030: 4922 593d 10be dabd 5813 8ebd 964d 733d
00000040: 04c7 c33d ee70 303d 4fca c23d 3fab 3e3d
00000050: 6ef0 3f3e 7dfd 223e cb6b 513d bac0 9e3d
00000060: 0016 04bd f6ec 6fbd 98c3 f2bd c248 c13d
00000070: 5cef 743d 3e71 203e 5a5d 053e 0f36 c73d
00000080: 58d3 e4bd 5071 79bd 5875 f2bd 101f 71bc
00000090: a78f a3bc aaae 9abc 06ce 2f3d 2a8c 07bc
000000a0: a68c a8bd 0d42 e83d 1ca2 4b3d 90c8 8dbd
000000b0: ece2 3bbd 879f 3bbd 257f 883c a049 93bd
000000c0: 301d 45bc 7f98 c43d 8c71 48bd 805b f8bd
000000d0: 2bba e23d 547b ffbd c822 e0bd cbe0 80bc
000000e0: ae40 403e 0fe0 e03d 7959 af3d d153 fabc
000000f0: 7f2e ca3c eb2d 2f3b f415 ba3d 8f26 60bd

net.4.weight f4 [4, 64]
-0.008669056 0.04150039 0.14177914 0.07796427 0.07862158 0.19519193 -0.115421444 0.004562095
-0.02148581 -0.094653256 0.08198011 -0.108125106 0.03767929 0.03998527 0.09668641 -0.061156902
0.021104679 -0.05984741 -0.08149338 0.14671566 0.047216833 0.08130988 0.11810682 0.054864895
-0.06473297 0.076585695 -0.07798053 -0.088221565 0.1614635 0.1580536 -0.030881004 -0.07031034
-0.009835541 0.0072980076 -0.100213125 -0.030319361 0.02231791 -0.061051723 0.055603325 0.041402664
0.026884615 0.045185007 0.10047301 0.13508579 -0.08785246 0.054650683 0.110643685 -0.043819398
-0.012565225 -0.048216604 -0.044714496 -0.08122793 0.23639125 -0.018411793 0.000959903 -0.107874595
0.09412529 0.13643497 0.0029380813 -0.060463823 0.22338949 -0.124078 0.18705873 -0.07720499
0.16004673 0.09590628 0.043115374 0.10425551 0.08211416 0.033559017 0.053541675 0.0640284
-0.10866838 -0.054397054 -0.0128669785 0.024402931 0.19524828 -0.09076178 -0.04719743 -0.08395348
0.069327 0.18067162 0.14470655 0.100051366 0.03497374 0.21059996 0.084068924 -0.0663466
0.17315388 0.10768852 0.025412664 0.07123801 0.07303842 0.06433216 0.20190798 0.08283347
-0.011164635 -0.060784146 -0.084897205 0.12061418 0.0013038102 0.059508342 0.041508906 0.09442487
0.0077187717 -0.09972838 -0.07044462 -0.06869136 0.03909239 -0.05301385 0.03185235 -0.10866211
-0.03673166 -0.08700343 -0.077848 0.063070714 0.009716601 -0.105600946 0.03302963 -0.35544145
0.08105626 0.21757236 0.20054659 0.047817692 -0.029983604 -0.16613944 0.12891772 0.013267071
-0.025140012 0.14008588 0.16562386 0.14590578 -0.07704191 0.13160509 -0.040925324 0.09634021
-0.08628814 0.07739381 -0.05471708 0.061005786 0.1596749 0.015498832 0.07897796 0.06874322
-0.021976322 0.0982097 0.10242178 0.0039542853 0.16236359 0.09605323 -0.028992755 0.09056938
0.110235915 -0.06058143 -0.064869806 -0.12279464 0.07344471 0.13579665 0.11773015 -0.026774833
0.09198868 0.04399222 -0.11677393 -0.09962914 0.16942169 -0.002639612 -0.072243705 0.05375132
0.10346115 0.12503105 -0.09216331 -0.09788796 -0.097242355 -0.026109824 -0.013256002 -0.0452628
-0.10582651 -0.09163826 -0.115251586 -0.01768905 0.14308648 -0.116912775 0.05589059 0.19453831
0.0792751 0.014199765 -0.04394695 -0.065673955 0.14996152 -0.012342131 0.14853925 -0.10638796
0.1995689 0.028574307 0.05283529 0.039596662 0.08077499 0.11070543 0.0018253624 0.104212925
-0.06619988 0.06221326 -0.08947571 -0.089903936 0.127194 -0.12302184 -0.09978722 0.06693316
0.08633302 0.14239497 0.006951275 0.10085443 0.16134639 -0.045425277 0.21058883 -0.08680324
0.01190816 -0.002923414 0.09686452 -0.04592657 0.18219636 0.1302769 0.013213689 -0.041424844
-0.10028145 0.11981703 0.0026955307 0.086577535 0.1960604 -0.10182852 -0.045477834 0.05741703
0.054743126 -0.11306114 0.06634282 -0.081584565 -0.0023701042 -0.06102391 0.036225997 -0.09756754
0.088391885 -0.107640676 0.12082416 -0.122264385 0.088171296 0.08005247 0.030187473 0.23188579
0.1666655 -0.021202752 0.10820066 0.048186064 0.15799443 0.099632375 0.09444585 -0.07908851
00000000: a808 0ebc 50fc 293d 8d2e 113e bbab 9f3d
00000010: 5a04 a13d 65e0 473e 1462 ecbd a07d 953b
00000020: 0203 b0bc 91d9 c1bd 30e5 a73d b270 ddbd
00000030: 9955 1a3d 98c7 233d 8603 c63d a97f 7abd
00000040: b8e3 ac3c 8f22 75bd 00e6 a6bd a13c 163e
00000050: 7066 413d cb85 a63d fde1 f13d 03ba 603d
00000060: b892 84bd f6d8 9c3d 42b4 9fbd 82ad b4bd
00000070: b056 253e ced8 213e 29fa fcbc defe 8fbd
00000080: 4025 21bc 2024 ef3b 8a3c cdbd 4f60 f8bc
00000090: 0dd4 b63c 5f11 7abd 50c0 633d d795 293d
000000a0: 203d dc3c ea13 393d cbc4 cd3d ee53 0a3e
000000b0: feeb b3bd 65d9 5f3d 2899 e23d f87b 33bd
000000c0: 60de 4dbc c67e 45bd 8c26 37bd d45a a6bd
000000d0: 8c10 723e 54d4 96bc 00a2 7b3a 5bed dcbd
000000e0: c3c4 c03d 9cb5 0b3e d38c 403b eaa8 77bd
000000f0: 37c0 643e 9b1c febd 538c 3f3e a61d 9ebd
00000100: 4ae3 233e 836a c43d bf99 303d ea83 d53d
00000110: 782b a83d 2e75 093d 844e 5b3d 5221 833d
00000120: 878d debd 72cf 5ebd 05d0 52bc a8e8 c73c
00000130: 2aef 473e 50e1 b9bd 1852 41bd cdef abbd
00000140: 50fb 8d3d fb01 393e f42d 143e bbe7 cc3d
00000150: a040 0f3d 84a7 573e 542c ac3d bae0 87bd
00000160: 404f 313e cc8b dc3d 382e d03c 3ce5 913d
00000170: 2b95 953d 94c0 833d f7c0 4e3e 98a4 a93d
00000180: e0eb 36bc ccf8 78bd 96de adbd 9104 f73d
00000190: 9ce4 aa3a 05bf 733d 3e05 2a3d d461 c13d
000001a0: c0ed fc3b 653e ccbd 4545 90bd 0eae 8cbd
000001b0: 581f 203d 0d25 59bd 9c77 023d 3e8a debd
000001c0: f073 16bd db2e b2bd c66e 9fbd 382b 813d
000001d0: 6132 1f3c 4f45 d8bd 144a 073d 6cfc b5be
000001e0: d300 a63d 4acb 5e3e 165c 4d3e 7cdc 433d
000001f0: 2da0 f5bc 7520 2abe 0203 043e 215e 593c
00000200: 6df2 cdbc ac72 0f3e 4d99 293e 5368 153e
00000210: 26c8 9dbd 7cc3 063e 50a1 27bd 044e c53d
00000220: d6b7 b0bd a580 9e3d 041f 60bd 34e1 793d
00000230: d181 233e d0ee 7d3c 32bf a13d 3fc9 8c3d
00000240: b007 b4bc 2b22 c93d 83c2 d13d f392 813b
00000250: a442 263e 8eb7 c43d 3782 edbc 707c b93d
00000260: 5ec3 e13d 3c24 78bd 76da 84bd c27b fbbd
00000270: 2e6a 963d 470e 0b3e 811c f13d e556 dbbc
00000280: 9064 bc3d 3031 343d 2c27 efbd 5d0a ccbd
00000290: e17c 2d3e 57fd 2cbb 82f4 93bd 582a 5c3d
000002a0: 70e3 d33d 2408 003e 1ec0 bcbd 7c79 c8bd
000002b0: 0027 c7bd 45e4 d5bc b42f 59bc 7c65 39bd
000002c0: 92bb d8bd d7ac bbbd 0609 ecbd a0e8 90bc
000002d0: 4385 123e f76f efbd 88ed 643d 0d35 473e
000002e0: fc5a a23d 22a6 683c b801 34bd 1180 86bd
000002f0: 838f 193e a636 4abc ac1a 183e eee1 d9bd
00000300: ca5b 4c3e aa14 ea3c d169 583d 1c30 223d
00000310: 5c6d a53d 87b9 e23d 0041 ef3a 966d d53d
00000320: cd93 87bd 55d3 7e3d 0b3f b7bd 8e1f b8bd
00000330: 253f 023e e0f2 fbbd 3e5d ccbd 4114 893d
00000340: 5ecf b03d fdcf 113e 85c7 e33b c48c ce3d
00000350: fd37 253e db0f 3abd 99a4 573e e6c5 b1bd
00000360: 711a 433c c096 3fbb e860 c63d 801d 3cbd
00000370: af91 3a3e 4f67 053e 3b7e 583c 19ad 29bd
00000380: 5c60 cdbd a262 f53d 80a7 303b 904f b13d
00000390: 0fc4 483e 798b d0bd f746 3abd 1f2e 6b3d
000003a0: 543a 603d 998c e7bd bfde 873d cf15 a7bd
000003b0: c053 1bbb 35f4 79bd b661 143d 7ed1 c7bd
000003c0: ce06 b53d b772 dcbd a872 f73d c065 fabd
000003d0: 2793 b43d 8df2 a33d b84b f73c 7873 6d3e
000003e0: 5caa 2a3e 65b1 adbc 4f98 dd3d c05e 453d
000003f0: 4bc9 213e 0f0c cc3d d36c c13d 28f9 a1bd

net.4.bias f4 [4]
0.051883236 0.09272885 -0.039077647 0.112354256
00000000: 8483 543d a0e8 bd3d e20f 20bd fd19 e63d
