qmix_agent_q_net.pth (torch, 22401 bytes, 6 tensors)

net.0.weight f4 [64, 5]
0	0x3ee336f1	0.44377854
1	0xbecbfc92	-0.39841133
2	0xbeb23066	-0.3480255
3	0xbe4a41b0	-0.1975162
4	0x3e0a085c	0.13479751
5	0xbf74e9e0	-0.95669365
6	0xbdc9bfa8	-0.09851009
7	0x3ea596d9	0.3234165
8	0x3e082afe	0.1329765
9	0x3e99f566	0.30070037
10	0xbe47b7c0	-0.19503689
11	0xbe51fa8e	-0.20505735
12	0xbe6e058d	-0.23244305
13	0xbe96de1d	-0.29466334
14	0x3ec35760	0.381526
15	0xbf9fd937	-1.2488164
16	0x3f2efbc5	0.6835292
17	0xbece0110	-0.40235186
18	0xbf1e0566	-0.6172699
19	0xbedd2a2d	-0.4319624
20	0x3d83654a	0.06415804
21	0xbe1b3808	-0.15158093
22	0xbd8be7e8	-0.06831342
23	0x3d899caf	0.06719338
24	0xbe8e8276	-0.2783391
25	0xbf0e17a7	-0.5550484
26	0xbebd143a	-0.36929494
27	0x3ed49832	0.41522366
28	0xbecf71e1	-0.4051657
29	0xbc80c840	-0.015720487
30	0xbec2eb50	-0.38070154
31	0x3e361163	0.1778007
32	0x3e419190	0.18903184
33	0xbecc2c16	-0.39877385
34	0xbeae4456	-0.3403651
35	0xbd18b594	-0.03728254
36	0xbe108a30	-0.14115214
37	0xbdf62fbc	-0.12020823
38	0xbd83a8d1	-0.064286835
39	0xbeb4a7c3	-0.35284242
40	0xc0916221	-4.5432286
41	0x3d8fc1da	0.07019396
42	0x3f087abc	0.5331228
43	0x3ed8f44b	0.4237388
44	0x3ebe5042	0.37170607
45	0x3eab8812	0.3350225
46	0x3f0b402a	0.5439478
47	0xbf55a69d	-0.83457357
48	0xbf4e564e	-0.8060044
49	0x3e0dbf64	0.13842541
50	0xbe8158d5	-0.25263086
51	0x3f363f89	0.71190697
52	0x3cdee707	0.027209772
53	0xbc340a67	-0.010988808
54	0xbd5ee240	-0.054414988
55	0xbd545129	-0.051835213
56	0x3b42db65	0.002973282
57	0x3cd8192b	0.026379189
58	0xbe3aba6e	-0.1823518
59	0xbe46f5c2	-0.19429687
60	0xbf92b6eb	-1.1462072
61	0x3c9cf652	0.019160423
62	0x3eadb299	0.33925322
63	0x3f327240	0.6970558
64	0xbed56720	-0.4168024
65	0xbea170f4	-0.3153149
66	0x3c81d021	0.015846314
67	0xbe3cf362	-0.18452218
68	0xbe9896a7	-0.2980244
69	0xbd837208	-0.06418234
70	0xbf17c742	-0.5928842
71	0x3e92fe03	0.2870942
72	0xbeb1382a	-0.34613162
73	0x3c85a978	0.01631616
74	0x3e576714	0.21035415
75	0xbeb5a5db	-0.354781
76	0xbd3a8f95	-0.045547087
77	0xbe901f5b	-0.28148922
78	0xbe515c5f	-0.20445393
79	0x3e4006ec	0.1875264
80	0x3f3e7282	0.74393475
81	0x3f5848ca	0.8448607
82	0x3d730642	0.05933214
83	0x3efadb8b	0.48995623
84	0x3ed21f14	0.41039336
85	0xbd4cf016	-0.05003365
86	0xbd6b984e	-0.057518296
87	0x3d5a9f8e	0.05337482
88	0xbf075396	-0.52861917
89	0x3b635080	0.0034685433
90	0x3e32710c	0.17425936
91	0x3f9171b2	1.1362822
92	0xbdbad03f	-0.09121751
93	0xbddcddbd	-0.10784481
94	0x3d178608	0.036993057
95	0x3f27f224	0.6560385
96	0xbe84d99c	-0.25947273
97	0x3e704756	0.23464713
98	0xbeeb737c	-0.45986545
99	0xbeaf2628	-0.34208798
100	0x3ead7249	0.33876255
101	0x3eb1a63c	0.3469714
102	0x3d211cfa	0.039334275
103	0xbf03c194	-0.5146725
104	0xbec475fa	-0.3837126
105	0x3f8093ea	1.004514
106	0x3f6514ae	0.8948468
107	0x3e8bb01f	0.27282807
108	0xbe6f1a39	-0.23349847
109	0xbeb8bcaa	-0.3608144
110	0x3f6b2979	0.9186016
111	0xbec38b72	-0.38192326
112	0x3d3b50c0	0.045731306
113	0x3f190c73	0.5978462
114	0xbe7b8972	-0.2456415
115	0x3e90a654	0.28251898
116	0x3eaf336f	0.34218928
117	0xbd972180	-0.073794365
118	0xbee96fa9	-0.45593002
119	0xbe80df6c	-0.25170457
120	0xbe824586	-0.25443667
121	0x3f364c7a	0.71210444
122	0xbc93c1f0	-0.018036813
123	0xbe911242	-0.28334242
124	0xbebbd7a2	-0.36687952
125	0x3ea985eb	0.33109984
126	0xc086a930	-4.208153
127	0x3ed1d0e3	0.4097968
128	0x3f23124d	0.636998
129	0xbd150580	-0.0363822
130	0xbf4ee338	-0.8081546
131	0xbfa89ddc	-1.3173175
132	0xbefe2da5	-0.496442
133	0x3ed9f3f1	0.42568925
134	0xbeb49cfb	-0.35276017
135	0xbe3d2a86	-0.18473253
136	0xbd999df4	-0.0750083
137	0x3ded9048	0.11599785
138	0xbe7ee997	-0.24893795
139	0xbe35f59e	-0.17769477
140	0x3dcbaef8	0.09945482
141	0xbfaaa120	-1.3330421
142	0x3ef0a85e	0.47003454
143	0x3ed49d9b	0.41526493
144	0x3e8d9070	0.2764926
145	0xbf3f5b56	-0.7474874
146	0x3f8990f5	1.0747362
147	0x3eb63f53	0.35595188
148	0x3d9e3fdd	0.07727025
149	0x3e1c1848	0.15243638
150	0xbf02455d	-0.5088709
151	0xbf9aab0f	-1.2083453
152	0xbe234c9a	-0.1594719
153	0xbc44bd85	-0.012008076
154	0xbdb34dc0	-0.08755064
155	0xbe060a82	-0.13089946
156	0xbfb8f052	-1.444834
157	0xbf371399	-0.7151428
158	0x3f2888da	0.6583382
159	0xbdbf42bc	-0.093389004
160	0xbf8c27c9	-1.0949641
161	0x3e0cbfb0	0.13744998
162	0xbd971b8b	-0.073783
163	0xbda37cae	-0.07982765
164	0x3ea5c0fa	0.32373792
165	0x3e5ecd1c	0.2175793
166	0xbea2c53a	-0.31791097
167	0xbc719d80	-0.014747024
168	0xbc896720	-0.016772807
169	0x3ed4492c	0.41462076
170	0xbfc4d0b8	-1.5376196
171	0x3f636df7	0.8883967
172	0x3e584cd1	0.21123053
173	0x3e094d02	0.13408282
174	0x3e11ff90	0.14257646
175	0xbed11127	-0.408334
176	0xbf984d88	-1.1898661
177	0xba15fc53	-0.0005721498
178	0x3e320829	0.17385925
179	0xbe7bb782	-0.24581721
180	0xbec09e98	-0.37620997
181	0xbe6ba420	-0.23011827
182	0xbe426916	-0.189854
183	0xbdf9b458	-0.12192601
184	0xbdbe89b4	-0.093036085
185	0xbdc09554	-0.09403482
186	0xbea37680	-0.31926346
187	0xbe3186a4	-0.17336518
188	0xbd7f83f8	-0.062381715
189	0xbe7d3693	-0.2472785
190	0x3e081a6b	0.13291328
191	0x3e6a5a4e	0.22886011
192	0xbd948e4a	-0.07253702
193	0xbf1c5b7c	-0.61077094
194	0xbe963570	-0.29337645
195	0x3ef77d69	0.48337868
196	0x3e77c7b7	0.24197279
197	0x3e5213c4	0.20515352
198	0xbf34b267	-0.7058472
199	0x3e45f994	0.19333488
200	0xbedd4ec7	-0.43224165
201	0xbeb7ba0e	-0.35884136
202	0xbec763c0	-0.3894329
203	0xbe8514fa	-0.25992566
204	0x3dbed620	0.09318185
205	0xbd4d8e48	-0.050184518
206	0x3dd237f0	0.102645755
207	0x3afad300	0.0019136369
208	0xbe2898e8	-0.16464579
209	0xbeabcfbb	-0.33556923
210	0xbf7a5e0b	-0.9779975
211	0x3f5e425c	0.86820006
212	0x3efecba0	0.4976473
213	0xbdd05c82	-0.101738945
214	0xbe456592	-0.19277027
215	0xbf9e98cf	-1.2390383
216	0xbf556b47	-0.8336682
217	0x3e83054a	0.25589973
218	0xbeba181d	-0.36346522
219	0x3d4c1228	0.049822003
220	0xbe9ea85e	-0.3098783
221	0x3f0944f9	0.5362087
222	0xbc4c09f0	-0.012453541
223	0x3ed8c33e	0.42336458
224	0x3da75430	0.08170354
225	0x3e9f8dc7	0.31162855
226	0x3f0759af	0.5287122
227	0xbf391d14	-0.72309995
228	0x3dd5b7fc	0.10435483
229	0xbdf3e334	-0.1190857
230	0x3ee67bb7	0.45016262
231	0xbba1ceac	-0.0049379673
232	0xbe3ae044	-0.18249613
233	0xbdf04e18	-0.11733645
234	0xbe910a46	-0.2832815
235	0xbe0b3ce1	-0.13597442
236	0x3f30fa7b	0.691322
237	0xbd8e41e2	-0.0694616
238	0x3e28cae5	0.16483648
239	0x3e02f090	0.1278708
240	0x3fa491a7	1.285695
241	0x3f89118c	1.070848
242	0xbd105407	-0.035236385
243	0x3d31f7c3	0.043449175
244	0xbe950308	-0.29103875
245	0x3df9d627	0.121990494
246	0x3f8668dc	1.050075
247	0xbda6a4d3	-0.081369065
248	0xbc18497d	-0.009294865
249	0x3da3ed88	0.0800429
250	0xc0020661	-2.0316393
251	0x3ec1d382	0.3785668
252	0x3e390368	0.18067706
253	0xbe2877ed	-0.16451998
254	0xbe7953e4	-0.24348408
255	0xbe56076a	-0.20901266

net.0.bias f4 [64]
0	0x3e2d653f	0.16933154
1	0x3d6f033d	0.058352698
2	0xbee3ef7b	-0.44518647
3	0x3df5e802	0.120071426
4	0xbe152744	-0.1456576
5	0xbe500b35	-0.20316775
6	0xbe146cf0	-0.14494681
7	0xb9f450c7	-0.0004659949
8	0xbe901181	-0.28138354
9	0xbd2cef6b	-0.042220514
10	0x3c9906e6	0.018680047
11	0xbd035c2a	-0.032070316
12	0xbe581644	-0.21102244
13	0x3eb5f0e4	0.35535347
14	0x3dcce8c0	0.10005331
15	0x3e64846f	0.22316144
16	0xbf02d6c7	-0.51108974
17	0x3e269fe1	0.16271926
18	0xbf13fb04	-0.57804894
19	0xbeee22dd	-0.46510974
20	0x3d8f11e7	0.069858365
21	0xbea90b84	-0.33016598
22	0xbf2bb0ce	-0.6706666
23	0xbdc2259a	-0.09479828
24	0xbe7bf803	-0.24606328
25	0xbe8ba443	-0.2727376
26	0xbe4fa82d	-0.20278998
27	0xbe81e5c8	-0.25370622
28	0xbd3fe416	-0.04684838
29	0xbeb28ca6	-0.3487293
30	0x3ec89f11	0.39183858
31	0xbe2bfaa1	-0.16794826
32	0x3e66c165	0.22534712
33	0xbebf6db7	-0.37388393
34	0xbea31333	-0.31850585
35	0x3e54215d	0.20715852
36	0xbe80ebe0	-0.25179958
37	0xb7a48000	-1.9609928e-05
38	0x3e9bbd2f	0.30417773
39	0xbe9df9cc	-0.30854642
40	0xbd8d6cbc	-0.06905505
41	0xbeae9114	-0.3409506
42	0xbee281a7	-0.44239542
43	0x3dd9dfd5	0.10638396
44	0xbedd238b	-0.4319118
45	0xbea28bdc	-0.3174733
46	0xbee6e8d9	-0.45099524
47	0xbe55b767	-0.20870744
48	0x3e07575a	0.13216916
49	0xbdae9dcf	-0.08526193
50	0x3d43a52a	0.047764935
51	0xbbdfefb8	-0.0068339966
52	0xbd4b8196	-0.04968413
53	0xbed9f9d8	-0.42573428
54	0xbd888664	-0.06666258
55	0x3dab0ac4	0.08351663
56	0xbf23f312	-0.6404277
57	0x3cf035be	0.029322501
58	0xbd4b19ed	-0.04958527
59	0x3e5aa5e4	0.21352345
60	0xbf5267e0	-0.8218975
61	0xbf0644a1	-0.5244847
62	0x3ea1063f	0.31450078
63	0xbd3db434	-0.046314433

net.2.weight f4 [64, 64]
0	0x3dd1eebc	0.10250613
1	0xbb9856bc	-0.0046490114
2	0x3cb66a38	0.022267446
3	0xbd96dbe8	-0.073661625
4	0xbdf1fac6	-0.11815409
5	0xbddfd2a6	-0.1092885
6	0x3d0baae5	0.034098525
7	0x3cbf02dc	0.023316793
8	0x3b77f340	0.0037834197
9	0x3ddb7493	0.10715594
10	0x3cb79d0a	0.02241375
11	0xbdd976c1	-0.10618354
12	0x3cebd9bf	0.028790353
13	0xbc066ff2	-0.008205401
14	0x3dafdbca	0.08586843
15	0x3dce2d67	0.100672536
16	0xbc723910	-0.014784113
17	0xbdfecc37	-0.12441295
18	0xbcf69aa7	-0.03010304
19	0xbd2c8434	-0.042118266
20	0x3d118f65	0.035537142
21	0x3c985f00	0.018599987
22	0x3d64cee0	0.055861354
23	0x3d951604	0.0727959
24	0x3d3d4081	0.046204094
25	0x3c730dc0	0.014834821
26	0xbd26c350	-0.04071361
27	0xbd93b838	-0.07212871
28	0xbcf92a18	-0.03041558
29	0xbdc5a3cb	-0.09650382
30	0x3d1f2d19	0.038861368
31	0xbda8f72c	-0.08250269
32	0x3dd6d201	0.10489274
33	0x3d89c592	0.06727137
34	0x3da0ef1c	0.078581065
35	0x3dc50c98	0.09621543
36	0xbdd30dea	-0.10305388
37	0xbd751f80	-0.059844494
38	0xbdc94d42	-0.09829189
39	0xbdc894b4	-0.09793988
40	0x3df2e142	0.11859371
41	0x3d443ed8	0.047911495
42	0xbe067880	-0.13131905
43	0x3bd75711	0.0065716584
44	0xbd958a70	-0.073017955
45	0x3dbd0f34	0.092314154
46	0x3d09f3a8	0.033679634
47	0x3de8a131	0.1135887
48	0xbd644d0c	-0.05573754
49	0xbdb40747	-0.087904505
50	0xbdc15c72	-0.09441461
51	0xbd4bf14b	-0.04979066
52	0x3d56d5f0	0.05245012
53	0xbd2bf1e4	-0.04197873
54	0x3ce348d2	0.027744684
55	0xbd630176	-0.055421315
56	0x3dd09692	0.10184969
57	0xbdfc3ecb	-0.12316664
58	0x3daf647e	0.08564089
59	0xbcda367a	-0.026637305
60	0xbd97db3a	-0.07414861
61	0xbdc990a8	-0.09842044
62	0x3d812825	0.06306485
63	0xbbf5f68f	-0.0075061987
64	0x3ded9dbe	0.116023526
65	0x3dabad25	0.08382634
66	0x3d1dac44	0.038494363
67	0xbdf294e4	-0.11844805
68	0x3dacde9c	0.08440897
69	0xbb06279f	-0.0020470393
70	0x3d3aa12a	0.045563854
71	0xbdf88d82	-0.121363655
72	0xbdbc13a2	-0.09183432
73	0xbd47067c	-0.04859017
74	0xbde63f58	-0.112425506
75	0x3d27e688	0.040991336
76	0xbcc5726a	-0.024102408
77	0x3d799318	0.060931295
78	0x3dacc0c8	0.084352076
79	0xbc820960	-0.015873611
80	0x3da9136c	0.082556576
81	0xbdb9b675	-0.09068004
82	0x3d396a97	0.045267668
83	0xbdd6c08a	-0.10485943
84	0x3d6fcffe	0.058547966
85	0x3d851d2c	0.06499705
86	0xbd806df8	-0.06270975
87	0xbdd4f458	-0.10398167
88	0xbde6bb90	-0.112662435
89	0xbdfe9942	-0.12431575
90	0x3df7e570	0.121043086
91	0xbdeb2e6e	-0.11483465
92	0xbdcbc4ff	-0.099496834
93	0x3d06f5b1	0.032949153
94	0xbc921480	-0.01783204
95	0xbd30f634	-0.043203548
96	0x3d4b3ff5	0.04962154
97	0xbd4e0a98	-0.05030307
98	0x3dda9704	0.10673335
99	0xbe0e19ae	-0.13876984
100	0x3c888bd0	0.01666823
101	0x3d919b54	0.071097046
102	0xbdb019f0	-0.08598697
103	0x3c6048b5	0.01368921
104	0x3d00c850	0.031441033
105	0x3bf8efa0	0.007596925
106	0xbce1adf7	-0.027548773
107	0xbe1b9f65	-0.15197523
108	0x3d712b23	0.05887903
109	0x3d0d0044	0.03442408
110	0xbd8e6db6	-0.069545195
111	0x3d5dbda8	0.05413595
112	0xbe171bdd	-0.14756723
113	0xbdaa6ebb	-0.083219014
114	0xbe1a8e57	-0.15093361
115	0xbd857612	-0.06516661
116	0xbd145598	-0.03621444
117	0x3b5d9b80	0.003381461
118	0xbde8a154	-0.11358896
119	0xbdde0c1b	-0.10842153
120	0xbdcca414	-0.09992233
121	0xbd19dd58	-0.037564605
122	0x3d272f6c	0.04081671
123	0xbcb1f5fa	-0.021723736
124	0x3d01b474	0.031666234
125	0x3d4725ec	0.04862015
126	0xbdc181b0	-0.09448564
127	0x3dbf9f54	0.09356561
128	0x3d8c8853	0.06861939
129	0x3d3c8340	0.046023607
130	0x3d09b534	0.033620074
131	0x3c055a04	0.008139137
132	0x3d8be9a2	0.06831671
133	0xbc8a5938	-0.016888246
134	0xbd63ddf0	-0.055631578
135	0xbd94b801	-0.072616585
136	0xbd20f236	-0.03929349
137	0xbda03faa	-0.07824643
138	0xbd807ed6	-0.06274192
139	0xbaee73da	-0.0018192485
140	0x3d81fbd8	0.063468635
141	0x3ce24d29	0.027624683
142	0xbcfac672	-0.030612204
143	0x3dad2acc	0.084554285
144	0x3c986728	0.018603876
145	0xbd89ec6b	-0.06734546
146	0xbdb920ed	-0.09039483
147	0xbddc506a	-0.10757525
148	0x3c1f3354	0.009716827
149	0xbd3253ba	-0.04353688
150	0xbdcab48a	-0.09897716
151	0x3c2c781a	0.010526681
152	0xbd818ee5	-0.06326083
153	0x3da284ce	0.07935487
154	0xbdfb1172	-0.12259187
155	0xbb257b00	-0.0025250316
156	0xbd872898	-0.065995395
157	0xbd968c54	-0.07350984
158	0x3d552264	0.05203475
159	0x3cd6e048	0.026229993
160	0xbccbcf21	-0.02487904
161	0x3d019d00	0.031643867
162	0xbcbdf65e	-0.023188766
163	0xbd67e0fe	-0.056611054
164	0xbcd04fd0	-0.025428683
165	0xbd9b4224	-0.07580975
166	0xbd804e91	-0.06264985
167	0x3cddd7c8	0.027080432
168	0x3da71d2c	0.08159861
169	0xbde032a2	-0.109471574
170	0x3d77c134	0.060486987
171	0x3ddb0c3a	0.106956914
172	0xbd9b7509	-0.07590682
173	0x3ad873f2	0.0016514047
174	0x3cdebb68	0.027188972
175	0x3da63b46	0.08116774
176	0x3bff08ca	0.00778303
177	0xbdb71741	-0.08939982
178	0x3db4d588	0.0882979
179	0xbd345d83	-0.044034492
180	0xbe0f5d89	-0.14000525
181	0xbd7a69e8	-0.061136156
182	0xbdce6b8c	-0.10079107
183	0x3cd76688	0.026294008
184	0x3da09d4f	0.07842504
185	0xbd2a8550	-0.041631043
186	0x3bf66c5c	0.0075202417
187	0xbdb06044	-0.08612111
188	0xbd01c0f2	-0.031678148
189	0xbd41772c	-0.04723279
190	0xbd0fe1a7	-0.03512731
191	0xbdf5441c	-0.119758815
192	0x3dbac30b	0.09119233
193	0xbf046825	-0.5172141
194	0xbd91cb5e	-0.07118867
195	0xbd440f9e	-0.047866456
196	0xbcab6c37	-0.020925624
197	0xbd1dbf98	-0.038512796
198	0xbf657272	-0.89627755
199	0xbc9aed72	-0.01891205
200	0xbeac78d3	-0.33685932
201	0x3eda2796	0.42608327
202	0xbdaafee8	-0.08349401
203	0x3da1c457	0.07898777
204	0xbf4d760f	-0.8025827
205	0x3ddc6d84	0.10763076
206	0x3d192e24	0.03739752
207	0x3e02abbf	0.12760828
208	0xbe91a0d7	-0.28443024
209	0xbccecb68	-0.025243476
210	0xbeef5c18	-0.4674995
211	0xbeb3d278	-0.35121512
212	0x3caa2284	0.020768411
213	0xbe47cdde	-0.19512126
214	0xbee973ea	-0.45596248
215	0x3e435f00	0.19079208
216	0x3e0e5fd1	0.13903739
217	0x3e0cb254	0.13739902
218	0x3e9b9d60	0.30393505
219	0xbd293860	-0.04131353
220	0x3d0575e9	0.03258315
221	0xbf213397	-0.62969345
222	0x3ea82d19	0.32846907
223	0x3dd89be9	0.105766125
224	0xbe432ff5	-0.19061263
225	0x3d7c2e94	0.061567858
226	0xbece40d1	-0.40283826
227	0x3db06964	0.08613852
228	0xbbdb95a0	-0.0067011863
229	0xbcd5d8f0	-0.02610442
230	0x3e983112	0.29724938
231	0xbe1dbb9d	-0.154036
232	0xbddb0a72	-0.10695352
233	0x3dd391e6	0.10330562
234	0xbf9fbabc	-1.2478862
235	0xbe88271f	-0.26592347
236	0xbf8dd095	-1.1079279
237	0xbf1c58a7	-0.6107277
238	0xbe4461f7	-0.19177996
239	0xbea9824e	-0.33107227
240	0x3e6855d3	0.2268899
241	0x3db181b2	0.086673155
242	0xbf48a750	-0.783803
243	0x3f828699	1.0197326
244	0x3e909217	0.28236458
245	0x3df69bbe	0.12041424
246	0x3cecee48	0.028922215
247	0xbd08f881	-0.033440117
248	0xbf7b6b60	-0.98210716
249	0x3cc037d8	0.023464128
250	0x3dd4e031	0.103943236
251	0x3e0b118b	0.13580911
252	0xbeb9b8ff	-0.36273953
253	0xbe57e9e2	-0.21085313
254	0x3e8d3083	0.27576074
255	0xbe487239	-0.19574822

net.2.bias f4 [64]
0	0xbdefdc00	-0.117118835
1	0x3bb3092a	0.005463739
2	0xbd032d1b	-0.032025438
3	0x3ec3f009	0.3826907
4	0x3e167ffb	0.14697258
5	0xbdc23c09	-0.09484107
6	0xbccc4946	-0.024937283
7	0xbdaacad4	-0.08339468
8	0xbd86f3a1	-0.06589437
9	0x3dd66c71	0.10469902
10	0xbdeb0d54	-0.114771515
11	0x3efbceeb	0.49181303
12	0xbd5fa72d	-0.05460279
13	0x3ecd406a	0.40088207
14	0xbd4b028c	-0.049562976
15	0xbd0a90b3	-0.033829402
16	0x3ba91c2c	0.005160829
17	0x3d802b7f	0.06258296
18	0x3e4396c8	0.19100487
19	0xbd63f2f4	-0.05565162
20	0xbe220c2f	-0.1582496
21	0x3dd5319a	0.10409851
22	0x3ab3558a	0.0013682109
23	0x3e299c8e	0.16563627
24	0x3eb4607d	0.35229865
25	0x3e79e5c9	0.24404062
26	0x3eee38cf	0.46527717
27	0x3aa02faa	0.0012221236
28	0x3cfb92d4	0.030709662
29	0x3e3cc981	0.18436243
30	0x3c9acd21	0.018896641
31	0xbddb2190	-0.10699761
32	0xbeb62ddd	-0.35581866
33	0x3c5be3f3	0.013421047
34	0x3bb11249	0.005403791
35	0xbc9ea852	-0.01936737
36	0x3e756b30	0.2396667
37	0x3ea6e29c	0.32594764
38	0xbdbd287a	-0.09236236
39	0x3eb2d536	0.34928292
40	0x3d1958a0	0.037438035
41	0xbd3360ac	-0.043793365
42	0x391916e0	0.00014599739
43	0x3da3189c	0.07963678
44	0xbe6a8b25	-0.22904642
45	0xbe133231	-0.14374615
46	0x3e12cf71	0.14336945
47	0xbda651c3	-0.081210636
48	0xbd79c266	-0.06097641
49	0x3ea772b7	0.32704708
50	0xbdd2186a	-0.10258563
51	0xbe12c106	-0.14331445
52	0x3ed90d33	0.42392883
53	0xbe11496c	-0.14188164
54	0xbdcad768	-0.09904367
55	0x3f00133d	0.50029355
56	0xbdd4185a	-0.10356207
57	0x3ed909bc	0.4239024
58	0x3e56c3f4	0.20973188
59	0xbe0ef746	-0.13961515
60	0xbcde8950	-0.027165085
61	0x3ebcca8c	0.3687328
62	0x3e81e744	0.25371754
63	0x3f07d7fe	0.5306395

net.4.weight f4 [4, 64]
0	0xbc9a2c09	-0.018819826
1	0x3baa41bd	0.005195825
2	0x3d3f805e	0.04675328
3	0x3eeb590d	0.45966378
4	0xbe3a8a3e	-0.18216798
5	0x3d0d5466	0.034504317
6	0x3dae2bc3	0.08504441
7	0x3d46b4ad	0.04851215
8	0x3ceb0f3c	0.028693788
9	0xbbd536bf	-0.0065067704
10	0xbd0603f2	-0.032718606
11	0x3ed29199	0.41126707
12	0x3c0efd9e	0.008727459
13	0x3ef5d485	0.48013702
14	0x3c1302ac	0.008972805
15	0x3e851ab9	0.2599695
16	0x3ec6a9b9	0.38801363
17	0x3c2dd6bd	0.01061028
18	0xbf70f0da	-0.9411751
19	0xbd1698a4	-0.036766663
20	0x3dd44970	0.103655696
21	0x3eb9287d	0.36163703
22	0xbd8ddea6	-0.069272324
23	0x3e24035d	0.16016908
24	0x3e40f979	0.18845166
25	0xbe00204b	-0.12512319
26	0x3eb30bb3	0.34969863
27	0xbbf1d36c	-0.00737994
28	0xbc788392	-0.015168088
29	0xbdcbe747	-0.09956222
30	0x3d36e472	0.044651456
31	0xbdaf1533	-0.08548965
32	0x3cbddde2	0.023177091
33	0xbb5c4fab	-0.0033616822
34	0x3db67cb2	0.089105025
35	0xbf00d051	-0.50317866
36	0x3f87e55d	1.0616871
37	0x3cc6e3a6	0.024278473
38	0xbd154350	-0.036441147
39	0x3e0ac29a	0.13550797
40	0xbd927536	-0.071512625
41	0xbc2bf03b	-0.010494287
42	0xbea8538a	-0.32876235
43	0x3e12fa0e	0.14353201
44	0x3e336bbd	0.17521568
45	0x3d4c778d	0.0499187
46	0x3e8335d4	0.25627005
47	0x3e6180b4	0.22021753
48	0xbd07b316	-0.033129774
49	0x3f0f3fb5	0.55956584
50	0xbe0362f3	-0.12830715
51	0x3e663926	0.22482738
52	0x3dbcaf8f	0.09213173
53	0x3e654b35	0.2239197
54	0xbde4de9f	-0.11175274
55	0x3e973b6c	0.29537523
56	0x3c8b17c0	0.016979098
57	0x3ead7408	0.33877587
58	0x3e0504c1	0.12990095
59	0xbd0243fc	-0.031803116
60	0x3e174bc6	0.14774999
61	0x3e58163c	0.21102232
62	0x3e96dce9	0.29465416
63	0x3ead8270	0.33888578
64	0xbc0e15ef	-0.008672222
65	0xbbca1020	-0.006166473
66	0xbc0eb7db	-0.008710827
67	0x3e7aa47c	0.24476808
68	0x3e93d5be	0.2887401
69	0xbda26528	-0.0792945
70	0xbcdcc714	-0.026950397
71	0x3d34da91	0.044153754
72	0x3ccd8fef	0.025093047
73	0x3fb82d13	1.4388756
74	0x3dda8955	0.10670725
75	0x3e5b2063	0.21399073
76	0x3d495bc8	0.049159795
77	0x3e87d58f	0.2653012
78	0x3ae60a43	0.0017550666
79	0xbedfc55b	-0.43705258
80	0xbf832556	-1.0245769
81	0xbf168931	-0.5880309
82	0x3e128e65	0.14312132
83	0xbd54b9c9	-0.05193499
84	0x3cce545b	0.025186708
85	0xbfef9efd	-1.8720394
86	0xbd8d085e	-0.068863615
87	0x3ef22e59	0.47300985
88	0x3ed09e49	0.40745762
89	0x3eb3430d	0.35012093
90	0x3ead1602	0.33805853
91	0xbd95ff85	-0.07324127
92	0xbdd2b6f0	-0.10288799
93	0x3f2d0a1e	0.6759356
94	0xbc1affac	-0.009460371
95	0xbc4d7efc	-0.012542482
96	0xbf85ae8f	-1.0443896
97	0xbd2fe390	-0.04294163
98	0x3d828990	0.06373894
99	0x3f6a5c61	0.9154721
100	0x3ee76c69	0.45199898
101	0x3e95d69a	0.2926529
102	0x3ce59188	0.028023496
103	0x3f1ca8be	0.6119498
104	0xbce8560b	-0.028361341
105	0x3ed7c25c	0.42140472
106	0x3ea7d9ca	0.32783347
107	0x3d06088e	0.032723002
108	0xc0bb2ffa	-5.8496065
109	0xbdae44bc	-0.08509204
110	0xbcf813e3	-0.03028292
111	0x3f3bb940	0.73329544
112	0x3df27920	0.11839509
113	0x3f129874	0.57263875
114	0xbd16c640	-0.03681016
115	0x3dacda9e	0.084401354
116	0x3e48d7b1	0.1961353
117	0xbfb2d515	-1.3971277
118	0x3c6c3b83	0.014418486
119	0x3e392317	0.18079792
120	0x3d785490	0.06062752
121	0x3e6da460	0.23207235
122	0x3e8db0cd	0.2767395
123	0x3d66f7a8	0.056388527
124	0x3c893a55	0.016751448
125	0xbe1710c8	-0.14752495
126	0xbeaa9b2b	-0.3332151
127	0x3ea1f32c	0.31630838
128	0x3dfa110e	0.12210284
129	0x3b4d5e53	0.003133674
130	0x3d7c8753	0.061652493
131	0x3ea8922b	0.32924017
132	0x3d61657b	0.05502842
133	0x3dfe615e	0.12420915
134	0x3c425ce7	0.01186297
135	0xbcc450a6	-0.023964237
136	0xbd1f2e56	-0.03886255
137	0xc0402626	-3.0023284
138	0x3d9d8a11	0.0769235
139	0x3ec86b11	0.39144185
140	0xbc324139	-0.010879808
141	0x3eff30f6	0.49842042
142	0x3d3fcafa	0.046824433
143	0x3d2880d7	0.041138496
144	0x3dcd253c	0.100168675
145	0x3f6b7c6c	0.9198673
146	0x3f36959a	0.71322024
147	0x3d8f15a7	0.06986552
148	0x3cc09978	0.02351068
149	0x3dd49339	0.10379643
150	0xbd2b49fd	-0.041818608
151	0xbeb237d0	-0.34808207
152	0x3d6bd107	0.05757239
153	0x3de5c56e	0.11219297
154	0x3e82f692	0.25578743
155	0x3d975247	0.0738874
156	0x3dae49d1	0.08510173
157	0x3fa95a8f	1.3230761
158	0xbdc4f080	-0.09616184
159	0x3aa5cebc	0.0012650113
160	0xbf22f7de	-0.63659465
161	0x3dadbf3f	0.08483743
162	0xbda212ea	-0.07913764
163	0xbe204625	-0.15651758
164	0xbf9876a8	-1.1911211
165	0x3bc3d92f	0.005976818
166	0x3d6752a8	0.05647531
167	0xbd74d60a	-0.059774436
168	0x3d4a8c61	0.049450282
169	0x3e22d740	0.15902424
170	0xbd47fcfd	-0.048825253
171	0x3db1f793	0.08689799
172	0x3e28a60b	0.1646959
173	0xbd135a1c	-0.035974607
174	0x3e0bd02f	0.13653634
175	0x3f5ab3a3	0.85430354
176	0x3cb03e7d	0.021514172
177	0x3f2cda4c	0.67520595
178	0x3d26f9ab	0.040765446
179	0xbd422de5	-0.04740705
180	0x3eb03517	0.34415504
181	0x3da259e3	0.07927301
182	0xbc12dec2	-0.008964242
183	0x3ea54da4	0.32285798
184	0xbde7b9b1	-0.11314715
185	0x3e9cc12c	0.30616128
186	0x3e3a4867	0.18191682
187	0x3c2d81c2	0.010590019
188	0xbd9d75e3	-0.07688501
189	0x3c52bdb2	0.01286261
190	0xbef197e3	-0.47186193
191	0x3e1bbb6f	0.15208219
192	0x3d980073	0.07421961
193	0xbce87451	-0.028375776
194	0xbcc832ca	-0.02443828
195	0x3ea2bafb	0.3178328
196	0x3e581ce9	0.21104778
197	0x3d57e9ea	0.052713312
198	0xbc814301	-0.01577902
199	0xbd5fbcd8	-0.054623455
200	0xbd32e6c4	-0.043677106
201	0x3f949807	1.1608895
202	0x3d57d0e3	0.052689444
203	0x3e5a4d3c	0.21318525
204	0x3d89db05	0.06731228
205	0x3ec6c663	0.38823232
206	0xbd041c52	-0.03225357
207	0xbf2293d3	-0.6350681
208	0xbe5177f6	-0.20455918
209	0xbee4e56e	-0.4470629
210	0x3f8a43ef	1.0801982
211	0xbcc193a0	-0.023629963
212	0xbd8523c1	-0.0650096
213	0xbeaf0f35	-0.3419129
214	0x3d2e3b8a	0.04253725
215	0x3ebf0e10	0.37315416
216	0x3ebb2675	0.36552778
217	0x3e850dbf	0.2598705
218	0x3e8045c4	0.25053227
219	0xbd303311	-0.04301745
220	0xbdc48b5b	-0.095968924
221	0xbf7e19bf	-0.99258035
222	0xbc0a8be0	-0.0084562
223	0x3da69c65	0.08135299
224	0xbf0c35c7	-0.5476956
225	0x3dd00c0f	0.1015855
226	0x3c9d4a5a	0.019200493
227	0xbecbf46b	-0.39834914
228	0x3ec70b7d	0.38875952
229	0x3ed293d1	0.411284
230	0xbdae8e36	-0.08523218
231	0x3eec6b60	0.4617567
232	0xbd6d2d56	-0.057904564
233	0x3fac2a8c	1.3450484
234	0xbfd05c2c	-1.6278129
235	0xbf08e017	-0.53466934
236	0x400f2317	2.2365167
237	0x3d0226bf	0.031775232
238	0xbe7baf65	-0.24578626
239	0xbf866c4e	-1.0501802
240	0xbd985b55	-0.07439295
241	0x3f17efa5	0.59350044
242	0x3d2d65b0	0.042333305
243	0xbde5846d	-0.11206899
244	0x3a0a2a6f	0.00052706053
245	0x3e11aca0	0.14226007
246	0xbdbd9383	-0.09256651
247	0x3e25f980	0.16208458
248	0xbd8fa601	-0.070140846
249	0x3e4d9664	0.200769
250	0x3f11b101	0.5691071
251	0xbc675520	-0.0141194165
252	0xbda3ddb5	-0.08001272
253	0x3ead2743	0.33819017
254	0xbeea5daf	-0.457746
255	0x3e7494b6	0.23884854

net.4.bias f4 [4]
0	0x3f0680a6	0.5254005
1	0x3eb1be96	0.34715718
2	0x3f56e740	0.8394661
3	0x3e8baa0f	0.27278182
