qmix_mixer.pth (torch, 51125 bytes, 13 tensors)

hyper_w1.0.weight f4 [64, 15]
-0.47520858 -1.215069 -0.106923394 0.35624245 0.10330361 -0.08673028 0.32800522 -0.025895773
0.5142188 -0.22723848 0.5539465 0.67509204 0.39480203 0.13045473 0.06882319 -0.5705671
0.39467144 -0.31233555 -0.41651243 -0.15628362 0.87948006 0.20610869 0.04275166 0.0034088239
0.18090883 0.11602501 -0.037134122 0.019046616 0.3222513 -0.20744897 0.24315508 -0.5184991
0.04016005 -0.117905125 0.04701367 -1.0651047 0.37328404 -0.10723084 0.14179763 0.00030946732
0.40244082 -0.37925285 0.009355481 -0.19943579 0.16247493 -0.013422528 0.611162 -0.9031857
-0.02599173 0.22298428 0.52422225 0.22237214 0.2830487 -0.36697525 -0.25200963 0.44759047
-0.6202215 -0.00054191565 -0.5573835 -0.20189755 -0.036951464 -0.044244003 -0.9401305 -1.0246896
-0.2567489 -1.0612587 -0.8439203 -1.0086108 -0.36096144 0.21444467 1.0891683 0.9434249
-1.0549959 0.006357502 0.040245056 -0.5581511 -1.1459342 0.21360752 0.25929388 -0.2333298
0.7317699 1.244499 0.10147988 0.1312924 -0.21993384 -0.20483825 0.53261954 -0.09147725
-0.021674164 -0.21413349 0.53672373 -1.4457676 0.28187114 0.10056629 0.23215377 0.072742745
0.15908714 0.07432257 0.0657814 0.16524741 0.10118833 0.57299453 -0.05607265 -0.08347963
0.12537926 -0.43085587 -0.03430947 -0.04145251 0.52545667 0.07294175 -0.8810883 -0.2677358
-0.16393825 -0.8035861 0.01515606 0.9001882 0.115517676 0.054149605 -0.34697583 0.25640586
-0.934578 0.81855106 -0.08522286 -0.5262856 0.16096127 0.9131625 -0.842319 -0.12316717
0.10823065 -0.120816156 -0.027962781 -0.0003087003 0.29484707 -0.03683252 -0.054239348 0.21101809
-0.16267316 -0.44526276 0.07540007 0.25064138 -0.18226832 -2.2656295 -0.6995872 0.26035723
0.15451959 0.24046591 1.0375905 -0.18827549 -0.7928432 -0.20866704 -0.23190089 0.057861704
-0.017582566 0.38265917 0.19011024 -0.34106633 -0.79951686 -0.20620082 0.15376376 -0.14044932
0.48380643 -2.3870215 -0.083793014 -0.27170658 -0.106077984 0.28001687 0.5317575 0.033953477
-0.6215056 -0.15134926 0.37432414 -0.6269088 -0.7175999 -0.59392864 -0.036055937 0.08814003
-0.10559413 0.15386575 0.08037262 -0.056513354 0.004806014 -0.386328 0.11219728 -0.20838818
0.14348182 0.054803193 -1.3096385 0.083753645 -0.17980273 -0.03879237 0.8003306 -2.512235
0.11448986 0.16074647 0.18269569 -1.0604419 0.44852555 0.044210404 0.040393043 0.16517442
0.12750278 -0.2540573 0.005959203 0.015508468 0.1910952 1.041313 -0.17787643 0.026379066
-0.018018505 -0.092612445 0.34327388 0.31879076 -0.07567043 -0.52170914 -0.15547356 0.06001778
0.08731904 0.38380805 -0.50615036 -0.16387439 -0.7820224 0.6222672 -0.7909629 -0.49814275
-0.23968117 0.039587766 -0.06258313 -0.16977519 -0.061893925 0.23892084 -0.24952143 -0.014115707
-0.086100936 0.044476654 0.22130635 -0.14750165 -0.18629023 -0.056483626 0.1550135 0.21558684
0.55866796 0.42638668 0.060390297 0.4805999 -0.06319067 0.254614 0.10556072 -0.4724721
-0.0312851 -0.21411425 -0.84971297 0.55822563 -0.6494254 -0.3003341 0.20977008 1.0537772
00000000: 8a4e f3be 6287 9bbf a7fa dabd 6965 b63e
00000010: d890 d33d a59f b1bd 4df0 a73e 5f23 d4bc
00000020: d8a3 033f 34b1 68be 70cf 0d3f d5d2 2c3f
00000030: 7e23 ca3e ed95 053e 2cf3 8c3d af10 12bf
00000040: 6012 ca3e 72ea 9fbe 1e41 d5be d008 20be
00000050: 9b25 613f 280e 533e 5d1c 2f3d 9366 5f3b
00000060: 2a40 393e 859e ed3d f319 18bd a607 9c3c
00000070: 1ffe a43e 816d 54be a5fd 783e 5bbc 04bf
00000080: dd7e 243d 3e78 f1bd 6891 403d 5a55 88bf
00000090: 161f bf3e d89b dbbd 6633 113e 0040 a239
000000a0: b90c ce3e 6e2d c2be bb47 193c e538 4cbe
000000b0: d45f 263e 2aea 5bbc 1d75 1c3f 2e37 67bf
000000c0: 9cec d4bc fe55 643e 6e33 063f 86b5 633e
000000d0: c2eb 903e 2ee4 bbbe 6807 81be 942a e53e
000000e0: d6c6 1ebf 580f 0eba afb0 0ebf 3bbe 4ebe
000000f0: 6b5a 17bd 3339 35bd 64ac 70bf 0729 83bf
00000100: 9874 83be 53d7 87bf 290b 58bf 291a 81bf
00000110: f0cf b8be 6297 5b3e de69 8b3f 4b84 713f
00000120: 1b0a 87bf 9852 d03b 00d8 243d fee2 0ebf
00000130: f9ad 92bf eebb 5a3e 2bc2 843e 02ee 6ebe
00000140: 4655 3b3f be4b 9f3f afd4 cf3d 8471 063e
00000150: 5636 61be 1ec1 51be c159 083f 6d58 bbbd
00000160: 048e b1bc cf45 5bbe ba66 093f ea0e b9bf
00000170: 6a51 903e b3f5 cd3d b8b9 6d3e 26fa 943d
00000180: bde7 223e 6e36 983d 66b8 863d 9e36 293e
00000190: d43b cf3d c5af 123f 6fac 65bd 5ef7 aabd
000001a0: 6c63 003e 2499 dcbe 1688 0cbd 1bca 29bd
000001b0: 5484 063f 7c62 953d 018f 61bf ab14 89be
000001c0: 6edf 27be d2b7 4dbf 2051 783c bc72 663f
000001d0: 8894 ec3d facb 5d3d d1a6 b1be a147 833e
000001e0: 8140 6fbf 908c 513f 5389 aebd a7ba 06bf
000001f0: 08d3 243e 05c5 693f 38a2 57bf 123f fcbd
00000200: 08a8 dd3d 766e f7bd 3412 e5bc 0ed9 a1b9
00000210: 32f6 963e b2dd 16bd 142a 5ebd 2015 583e
00000220: cb93 26be 7bf9 e3be 5a6b 9a3d 1154 803e
00000230: 8ca4 3abe 1300 11c0 2618 33bf 8b4d 853e
00000240: 623a 1e3e b23c 763e c4cf 843f 4acb 40be
00000250: c6f7 4abf d0ac 55be 6d77 6dbe 6500 6d3d
00000260: 5009 90bc e7eb c33e 42ac 423e 3fa0 aebe
00000270: 23ad 4cbf 4f26 53be 3f74 1d3e f2d1 0fbe
00000280: 7ab5 f73e f6c4 18c0 ac9b abbd 201d 8bbe
00000290: 6a3f d9bd 5f5e 8f3e 4221 083f cd12 0b3d
000002a0: fe1a 1fbf 4dfb 1abe 6aa7 bf3e 187d 20bf
000002b0: a1b4 37bf b50b 18bf 64af 13bd c382 b43d
000002c0: bc41 d8bd fc8e 1d3e 669a a43d 8c7a 67bd
000002d0: c47b 9d3b c9cc c5be b0c7 e53d b663 55be
000002e0: e6ec 123e 5079 603d 3ca2 a7bf 0887 ab3d
000002f0: 351e 38be c0e4 1ebd 77e2 4c3f 75c8 20c0
00000300: a979 ea3d b99a 243e 9414 3b3e 8fbc 87bf
00000310: 24a5 e53e f815 353d 2d73 253d 7c23 293e
00000320: 1790 023e cc13 82be 6b45 c33b 3b17 7e3c
00000330: 76ae 433e bf49 853f 3d25 36be e918 d83c
00000340: 8b9b 93bc 98ab bdbd 98c1 af3e 8b38 a33e
00000350: 19f9 9abd bb8e 05bf 7634 1fbe 34d5 753d
00000360: 53d4 b23d 7d82 c43e 1293 01bf b0ce 27be
00000370: 9f32 48bf e74c 1f3f 8b7c 4abf 910c ffbe
00000380: fb6e 75be c826 223d 962b 80bd 8cd9 2dbe
00000390: 7c84 7dbd aaa7 743e 8c82 7fbe 9145 67bc
000003a0: b055 b0bd 272d 363d 229e 623e ac0a 17be
000003b0: dec2 3ebe 605b 67bd dcbb 1e3e ccc2 5c3e
000003c0: dd04 0f3f 5b4f da3e d15b 773d 3111 f63e
000003d0: 1c6a 81bd c45c 823e 3830 d83d dde7 f1be
000003e0: ce24 00bd c440 5bbe ca86 59bf e0e7 0e3f
000003f0: be40 26bf 64c5 99be f8cd 563e 2ce2 863f

hyper_w1.0.bias f4 [64]
-0.31419444 -0.016304506 0.21167146 -0.38497204 -0.05756097 -0.12987949 -0.02825463 -0.019054756
-0.039330155 -0.12643622 0.25289288 -0.030775674 -0.078787506 -0.05273296 -0.49424663 -0.216901
-0.016431727 -0.057332706 0.06755322 -0.0058688186 -0.121848926 -0.00046692928 -0.08295893 -0.12883759
0.026548898 0.0953517 -0.7271893 -0.086310916 -0.026343858 -0.026537579 -0.020953776 0.07677038
0.111692876 0.13510859 0.051154938 0.13807535 -0.16516483 -0.037327573 0.027257262 -0.28195226
-0.00026101235 -0.11402071 0.021047603 -0.3471391 -0.042681403 -0.010797468 0.17034698 0.1392005
0.032280475 -0.5311696 -0.0036440555 -0.23407605 -0.19887587 0.040388573 -0.332054 -0.057556476
0.02174905 -0.07229583 -0.28111196 -0.24621235 0.22330986 0.1113498 -0.10805633 -0.15929024
00000000: 18de a0be 0791 85bc 67c0 583e 0e1b c5be
00000010: 0dc5 6bbd 21ff 04be 4176 e7bc b818 9cbc
00000020: a818 21bd 7f78 01be 2d7b 813e 441d fcbc
00000030: 585b a1bd 84fe 57bd e50d fdbe 4c1b 5ebe
00000040: d49b 86bc b3d5 6abd 5859 8a3d 384f c0bb
00000050: ee8b f9bd 30ce f4b9 5fe6 a9bd 00ee 03be
00000060: 137d d93c c147 c33d 1429 3abf c7c3 b0bd
00000070: 13cf d7bc 5665 d9bc 41a7 abbc ca39 9d3d
00000080: 3cbf e43d e859 0a3e d787 513d a063 0d3e
00000090: f820 29be cce4 18bd 9f4a df3c 0c5c 90be
000000a0: 7cd8 88b9 b183 e9bd 066c ac3c 37bc b1be
000000b0: b2d2 2ebd dde7 30bc 706f 2e3e 938a 0e3e
000000c0: 8838 043d bbfa 07bf 1bd1 6ebb a2b1 6fbe
000000d0: 1ea6 4bbe 7d6e 253d fb02 aabe 57c0 6bbd
000000e0: 102b b23c d60f 94bd e8ed 8fbe 171f 7cbe
000000f0: 57ab 643e 5d0b e43d a34c ddbd fb1c 23be

hyper_w1.2.weight f4 [96, 64]
-0.68612045 0.4338829 -0.25674954 0.18174407 0.94643897 -0.6743118 0.72652185 -0.6608938
0.4559364 0.25318906 -0.03043251 0.19291738 -0.37035483 0.4636263 0.064254746 0.026600622
-0.28450316 2.3443687 -0.019672472 0.16511437 -0.10011373 -0.864778 0.18168476 0.7547827
-0.38276446 -0.13837619 -0.7072913 -0.05099305 -0.44149682 0.15911265 -0.32187113 -0.38038072
-0.25072315 0.14542194 0.4484693 0.079518914 0.036724016 -0.08961575 0.07785992 0.39894158
0.9215076 0.15115608 0.18879868 0.002587481 1.6283178 -0.52216357 -0.0012749347 0.060385264
0.3864629 1.7951788 0.1829203 -0.13409856 0.06728555 0.7808674 -0.57027406 -0.23341846
-0.34676698 0.18443607 0.25672436 0.049956426 0.3039852 -0.7398818 0.11888135 0.60938555
-0.52378374 0.16364391 -0.16577192 0.44426268 -0.6686313 -1.0986362 -0.7621966 -0.11628452
-0.018099833 0.46132708 1.3509116 -0.2330704 -0.061506957 0.09660386 -0.08093365 0.04887537
-0.29481354 0.19360925 0.20216304 -0.3785115 -0.21813074 0.5584029 -0.8874199 -0.6039056
0.0670114 -0.3032575 0.3160093 0.113647155 0.047863655 -0.05841531 0.4401373 -0.053200223
0.4643825 0.22771606 0.1747235 -0.5681675 0.97585744 0.9307997 -0.38567695 0.2711999
-0.011695375 0.055344995 0.23426884 -0.47098592 -0.33405745 0.27574742 0.53257036 -0.117942095
0.31698397 1.9026307 -0.5573883 -0.16679583 0.026392883 0.050471924 0.8325673 -0.38971788
0.42209145 -0.7432809 -0.1708569 -0.033062965 0.64332855 -0.30133155 0.26276445 -0.4063318
0.7047281 -0.41432726 -0.79740393 0.023637982 0.7161354 0.34671164 0.061558228 0.22550094
0.8061901 -0.84057957 -0.42596057 -0.05215583 -0.40569773 -0.24427275 0.35463774 -0.029847443
-0.24243394 0.9320652 -0.52848035 0.3879352 0.14562969 0.12368263 0.0729977 0.22852185
1.3134582 0.7228467 0.28300214 0.14853378 0.1854933 0.2516253 -0.88513285 -1.0118676
-0.11640246 0.17044261 -0.07718364 0.54119444 0.18171045 0.16676642 -1.8002591 0.75716466
0.24573044 0.08943575 0.7291706 -0.8653631 0.25208148 -1.6650265 0.60017514 0.5692634
-0.0052560223 -0.09305894 -0.033710606 0.052612755 0.095801294 0.64336663 -0.6849022 -0.6008424
-0.4176058 -0.32464078 -0.22010662 0.045445338 0.32087883 0.002285217 -0.15395848 0.15628943
-0.6338272 0.06850597 -0.5107633 -0.33741763 -0.6268329 -0.27929386 0.27783415 -0.12693317
-0.58100307 -0.10638841 0.27408063 -0.37342712 -0.4975677 -0.10440728 -0.2400707 0.021665998
0.5126556 -1.412877 -0.108564354 -0.17852888 -0.29900327 1.3166579 0.112241715 -0.09025928
0.2795339 0.26086536 0.053946834 1.1831644 0.35756022 0.024855291 -0.026798854 0.32192123
-0.33927718 -0.24829705 0.13261081 -0.6933429 -0.25625545 -0.75566185 -0.2791287 0.011088315
0.052594416 0.1941802 0.15751942 0.20926377 -0.28403148 0.65119493 0.15204176 0.21918854
-0.09525617 -0.9727547 -0.3819672 0.56438273 -0.09562705 -0.57978946 0.1905584 0.16444215
0.10485143 -0.2449744 0.10982356 -0.022745684 -0.59250146 0.39829504 -0.0147416685 0.1925068
00000000: 97a5 2fbf e625 de3e ad74 83be 1e1b 3a3e
00000010: d349 723f b39f 2cbf 56fd 393f 5630 29bf
00000020: 7f70 e93e ffa1 813e 994d f9bc 228c 453e
00000030: 269f bdbe 6d60 ed3e fe97 833d 8ce9 d93c
00000040: 66aa 91be 230a 1640 2a28 a1bc be13 293e
00000050: 6d08 cdbd 1762 5dbf 920b 3a3e 7039 413f
00000060: b4f9 c3be 7db2 0dbe 0b11 35bf 17de 50bd
00000070: df0b e2be 6dee 223e 4bcc a4be 43c1 c2be
00000080: c95e 80be 7de9 143e c59d e53e d0da a23d
00000090: ec6b 163d 7688 b7bd 0675 9f3d 1242 cc3e
000000a0: ece7 6b3f a9c8 1a3e 7154 413e ba92 293b
000000b0: b86c d03f 83ac 05bf b61b a7ba 8a56 773d
000000c0: 77de c53e 6bc8 e53f 764f 3b3e 2251 09be
000000d0: 02cd 893d ede6 473f 7bfd 11bf 4005 6fbe
000000e0: 718b b1be cfdc 3c3e 6071 833e 1c9f 4c3d
000000f0: f3a3 9b3e e568 3dbf 1178 f33d b100 1c3f
00000100: b116 06bf 4592 273e 1dc0 29be 6676 e33e
00000110: 6c2b 2bbf 1ca0 8cbf 511f 43bf 9426 eebd
00000120: 1a46 94bc 1033 ec3e acea ac3f 02aa 6ebe
00000130: b8ee 7bbd 3fd8 c53d 8bc0 a5bd 8a31 483d
00000140: cdf1 96be 8141 463e d403 4f3e 42cc c1be
00000150: aa5d 5fbe 7ef3 0e3f f32d 63bf 8f99 1abf
00000160: 463d 893d 9144 9bbe f9cb a13e d7bf e83d
00000170: ae0c 443d e444 6fbd ad59 e13e 7ae8 59bd
00000180: 8bc3 ed3e 662e 693e b8ea 323e 6d73 11bf
00000190: cbd1 793f e448 6e3f 7377 c5be b7da 8a3e
000001a0: f59d 3fbc 6fb1 623d 2ce4 6f3e 1125 f1be
000001b0: 9409 abbe c42e 8d3e 8856 083f a08b f1bd
000001c0: b94b a23e 6789 f33f 00b1 0ebf 87cc 2abe
000001d0: e335 d83c a6bb 4e3d 2123 553f 1a89 c7be
000001e0: 5f1c d83e a847 3ebf 1cf5 2ebe 086d 07bd
000001f0: 2eb1 243f 2148 9abe 1089 863e b90a d0be
00000200: 1069 343f b422 d4be aa22 4cbf 71a4 c13c
00000210: a654 373f 3084 b13e 7b24 7c3d b8e9 663e
00000220: 7962 4e3f 3930 57bf 8117 dabe 5aa1 55bd
00000230: 9db7 cfbe a322 7abe 1493 b53e a082 f4bc
00000240: 9a40 78be d39b 6e3f 7d4a 07bf 719f c63e
00000250: f31f 153e 524d fd3d d17f 953d a201 6a3e
00000260: 661f a83f 7b0c 393f a8e5 903e 3d19 183e
00000270: f5f1 3d3e 08d5 803e 1198 62bf e184 81bf
00000280: 6a64 eebd 8288 2e3e 7512 9ebd b88b 0a3f
00000290: 4e12 3a3e d1c4 2a3e e46e e6bf 8bd5 413f
000002a0: c3a0 7b3e 172a b73d edaa 3a3f 7088 5dbf
000002b0: d310 813e 971f d5bf 14a5 193f 3fbb 113f
000002c0: b63a acbb af95 bebd 2214 0abd 7980 573d
000002d0: 7833 c43d adb3 243f c055 2fbf cfd0 19bf
000002e0: 6dd0 d5be 5137 a6be a163 61be e424 3a3d
000002f0: 3b4a a43e 94c3 153b 4ba7 1dbe 560a 203e
00000300: 8042 22bf dc4c 8c3d 62c1 02bf 01c2 acbe
00000310: 1f78 20bf 9bff 8ebe 4740 8e3e c5fa 01be
00000320: 9ebc 14bf 2be2 d9bd 4c54 8c3e d731 bfbe
00000330: 32c1 febe 7cd3 d5bd 18d5 75be e47c b13c
00000340: 663d 033f 27d9 b4bf fd56 debd 46d0 36be
00000350: f516 99be 3f88 a83f fcde e53d dbd9 b8bd
00000360: 111f 8f3e 2590 853e 5bf7 5c3d ee71 973f
00000370: 2212 b73e 539d cb3c 4589 dbbc dcd2 a43e
00000380: bdb5 adbe 9541 7ebe 21cb 073e ec7e 31bf
00000390: ea33 83be 0e73 41bf f5e9 8ebe c4ab 353c
000003a0: 3e6d 573d 2dd7 463e c54c 213e 3e49 563e
000003b0: 936c 91be b6b4 263f d6b0 1b3e f672 603e
000003c0: ab15 c3bd 7406 79bf 3491 c3be 637b 103f
000003d0: 1dd8 c3bd 156d 14bf be21 433e 8663 283e
000003e0: 59bc d63d 92da 7abe 2deb e03d 2855 babc
000003f0: 2dae 17bf 54ed cb3e 0a87 71bc 8120 453e

hyper_w1.2.bias f4 [96]
-0.18380891 -0.27903354 0.08336109 0.27511024 -0.28564823 -0.53235483 -0.035479438 -0.3168272
0.26766634 0.55580264 -0.27432698 -0.18482253 0.06918826 0.49110252 -0.3273175 -0.5505213
0.4046423 -0.31804848 -0.3984755 0.41291952 -0.35792634 -0.36367673 -0.14038308 -0.3403955
0.38843653 0.20539469 0.23333429 -0.27883002 0.3176948 -0.3265694 -0.53854746 0.005872095
0.25892514 0.34133223 0.07208766 0.14613938 -0.26933318 0.06513018 0.32529378 -0.09510827
-0.36604258 0.39584884 -0.25850537 0.35891938 0.34920168 0.1394713 0.32881945 0.5204139
0.31749478 -0.39058584 0.30585453 0.39211744 -0.18716376 -0.2120172 0.37491184 0.14108828
0.4772782 -0.37040848 -0.4009279 0.17298928 0.4590284 -0.26515496 -0.49809736 0.09334429
0.021032391 0.23322856 0.22349966 0.2510957 0.28840128 -0.3401189 0.04452572 0.09782179
-0.087880366 -0.2363465 0.009501117 0.06610688 -0.23873544 0.23965998 0.17790797 0.011530642
0.032543678 -0.18105091 -0.23353224 -0.37119803 0.24898733 0.13446914 0.16442803 -0.10713493
-0.026713898 -0.22134323 -0.22732796 -0.04327842 -0.20401427 -0.24779075 0.011818816 -0.017544882
00000000: 6738 3cbe 7cdd 8ebe 38b9 aa3d 40db 8c3e
00000010: 7c40 92be 6848 08bf e352 11bd 2d37 a2be
00000020: 900b 893e 1549 0e3f 9674 8cbe 1e42 3dbe
00000030: 93b2 8d3d ca71 fb3e 2996 a7be f7ee 0cbf
00000040: 472d cf3e 40d7 a2be fb04 ccbe 306a d33e
00000050: 1f42 b7be d633 babe 95c0 0fbe 5248 aebe
00000060: 27e1 c63e fc52 523e 2fef 6e3e cfc2 8ebe
00000070: e5a8 a23e 1b34 a7be 3fde 09bf b46a c03b
00000080: d691 843e 19c3 ae3e b2a2 933d 90a5 153e
00000090: 0ae6 89be f962 853d e88c a63e 20c8 c2bd
000000a0: ef69 bbbe b3ac ca3e d15a 84be 48c4 b73e
000000b0: 90ca b23e 91d1 0e3e 065b a83e d839 053f
000000c0: ad8e a23e defa c7be f798 9c3e 9ec3 c83e
000000d0: dba7 3fbe 091b 59be 72f4 bf3e 7279 103e
000000e0: cf5d f43e 2ea6 bdbe 6c46 cdbe 1a24 313e
000000f0: c505 eb3e 64c2 87be 9e06 ffbe 4b2b bf3d
00000100: 1f4c ac3c 78d3 6e3e 18dd 643e 9e8f 803e
00000110: 55a9 933e 1124 aebe 9a60 363d ca56 c83d
00000120: 9ffa b3bd d104 72be 93aa 1b3c 0b63 873d
00000130: 1077 74be 6d69 753e 822d 363e 05eb 3c3c
00000140: 854c 053d 6965 39be 1323 6fbe ab0d bebe
00000150: 89f6 7e3e 47b2 093e d25f 283e 8f69 dbbd
00000160: 1bd7 dabc cda7 62be a9c8 68be b644 31bd
00000170: 1ee9 50be dcbc 7dbe b5a3 413c 49ba 8fbc

hyper_b1.weight f4 [32, 15]
-0.59516525 -0.5604088 0.31300405 -0.1325138 0.19676787 -0.6759272 -0.44738698 0.070268765
0.37865612 -0.0417877 -0.3067 -0.651102 0.30497086 -0.15402307 0.053666472 -0.59592575
0.25124872 0.14567511 0.02793207 0.17396444 -0.46806088 -0.24460313 0.65793276 0.55870533
-0.020477429 -0.48640668 -0.56518114 0.4911686 0.08785013 0.20617983 -0.4581031 -0.51916224
0.26971126 0.092265174 0.20780814 -0.26827386 -0.47653314 0.18033643 0.2470596 0.14905751
0.16976427 -0.46652368 0.07596723 -0.13514806 0.09341872 -0.45206514 -0.5013092 -0.037736118
-0.0014678409 -0.25576457 -1.0522054 -0.40238082 0.22678964 0.6349938 -0.009165496 -0.622032
-0.45921698 0.011310918 -0.2844922 0.008814275 -0.39922062 0.035479374 0.5199364 0.1236854
-0.037542075 -0.3171172 0.08904702 0.19999632 0.23747422 0.14730647 0.13243799 -0.473152
0.4723197 0.17438516 -0.076471046 -0.30220222 -0.95250744 0.5096103 0.27302682 0.1650534
-0.20804796 -0.5694467 0.4933865 0.20903683 0.118529856 0.28968948 -1.5333371 0.50977427
0.22388296 -0.20542967 -0.27298966 -0.44424942 0.15819117 0.018374436 -0.10243416 -0.5314674
0.0053103836 0.46414682 0.36639357 0.032497197 -0.10089015 -0.08157187 -0.012253691 -0.21503372
-0.051026717 -0.45077538 -0.062112503 0.36202854 -0.32033607 -0.13114719 -0.6665858 0.0045920834
0.54778934 0.26249614 0.1967592 -0.30979234 -0.60114276 0.3745511 -0.09460437 -0.17385335
-0.66407824 -0.38888404 0.084650256 0.22417392 0.23098525 -0.25728396 -0.44962317 0.58551806
0.43650064 0.13410506 0.2994685 -0.41762212 0.49384132 -0.14166152 -0.18744218 -0.25385588
-0.9958356 0.20065399 0.32293782 -0.15990141 -0.36875814 -0.078069486 0.5440154 0.45293456
0.053526938 0.0188646 -0.34388497 0.50639325 0.021203207 0.016821295 -0.40352884 -0.7030308
0.37661082 -0.019224746 0.24643233 -0.42083663 -0.055605445 0.60189265 0.037339628 0.04438728
0.05785485 -1.020076 0.74542046 -0.06792181 -0.015205294 -0.6248348 -0.417799 0.084784634
0.15517397 -0.24748127 -1.0444742 -0.48645878 -0.07607312 0.41293553 -0.23490813 -0.078864515
-0.5003502 -0.45690826 0.036539868 -0.025246039 -0.830438 -0.75665766 0.24802285 0.25896513
-0.19547415 -0.7511039 -0.8549265 0.07921859 0.43987998 -0.20693375 -0.31773522 -0.6849386
0.34238243 0.2597315 0.1559028 -0.5147969 0.09256032 0.12311773 -0.011318676 0.1471582
-0.45546648 -0.07588458 0.7581589 1.0250273 -0.23970509 -0.39043075 -0.585575 0.4331514
-0.10706812 0.091947496 -0.39279446 -0.7726243 0.35705322 0.095982 -0.08458918 -0.28620958
-0.7767636 0.30394927 -0.032505296 0.14932427 -0.18741189 -0.062051024 0.32134232 0.13832884
-0.08040705 -0.10960718 0.07085338 -0.468462 0.003057359 0.011297852 -0.0436058 -0.5402843
0.006160979 0.2920662 -0.099613816 -0.70650554 -0.2564708 0.35518125 -0.45314673 -0.22915564
-0.47778773 -0.4995986 0.49315846 -0.065074414 -0.11347465 -0.22410615 -0.6347841 0.4515074
0.30842867 -0.050528675 0.08349205 -0.84200853 0.45138627 -0.083869964 -0.13476214 -0.286039
00000000: c05c 18bf f376 0fbf 1142 a03e b3b1 07be
00000010: 847d 493e 9109 2dbf e80f e5be 12e9 8f3d
00000020: 37df c13e 9429 2bbd c807 9dbe 9fae 26bf
00000030: 2425 9c3e 39b8 1dbe 60d1 5b3d 978e 18bf
00000040: aca3 803e db2b 153e ccd1 e43c bc23 323e
00000050: ada5 efbe 3e79 7abe 486e 283f 5007 0f3f
00000060: 48c0 a7bc 4c0a f9be b6af 10bf 737a fb3e
00000070: c5ea b33d ce20 533e 7d8c eabe d1e7 04bf
00000080: 9817 8a3e 86f5 bc3d a8cb 543e 315b 89be
00000090: 27fc f3be 1daa 383e 31fd 7c3e 88a2 183e
000000a0: afd6 2d3e 31dc eebe b594 9b3d 4164 0abe
000000b0: 5052 bf3d 1575 e7be cd55 00bf 3091 1abd
000000c0: 9164 c0ba 93f3 82be abae 86bf dc04 cebe
000000d0: 8b3b 683e f48e 223f e02a 16bc 7d3d 1fbf
000000e0: 7d1e ebbe 6e51 393c f6a8 91be c069 103c
000000f0: a566 ccbe d252 113d 8d1a 053f c54e fd3d
00000100: b8c5 19bd 305d a2be 495e b63d d6cb 4c3e
00000110: 712c 733e 82d7 163e d39d 073e fb40 f2be
00000120: e3d3 f13e 0692 323e da9c 9cbd 40ba 9abe
00000130: 87d7 73bf d275 023f 2cca 8b3e c203 293e
00000140: 860a 55be 42c7 11bf 289d fc3e c00d 563e
00000150: c8bf f23d 2e52 943e 6444 c4bf 9180 023f
00000160: 9341 653e 285c 52be 4dc5 8bbe a974 e3be
00000170: defc 213e fc85 963c 00c9 d1bd 3f0e 08bf
00000180: ba02 ae3b a7a4 ed3e f097 bb3e c81b 053d
00000190: 7f9f cebd 270f a7bd b5c3 48bc cd31 5cbe
000001a0: 6401 51bd 08cc e6be ae69 7ebd ce5b b93e
000001b0: 1703 a4be 734b 06be 5ea5 2abf 3079 963b
000001c0: ec3b 0c3f e565 863e 3e7b 493e 1a9d 9ebe
000001d0: 7ee4 19bf 29c5 bf3e f0bf c1bd 9d06 32be
000001e0: 0801 2abf cf1b c7be 1d5d ad3d d98d 653e
000001f0: 6687 6c3e b9ba 83be 0235 e6be 83e4 153f
00000200: 037d df3e d652 093e ef53 993e 91d2 d5be
00000210: c5d8 fc3e b80f 11be d8f0 3fbe 66f9 81be
00000220: 15ef 7ebf 3d78 4d3e 1b58 a53e 32bd 23be
00000230: decd bcbe e5e2 9fbd 9844 0b3f 0ae7 e73e
00000240: 103f 5b3d ef89 9a3c b111 b0be fda2 013f
00000250: 59b2 ad3c d0cc 893c 559b cebe d4f9 33bf
00000260: 22d3 c03e 377d 9dbc c258 7c3e e677 d7be
00000270: 89c2 63bd a315 1a3f 70f1 183d 70cf 353d
00000280: 35f9 6c3d da91 82bf e0d3 3e3f 971a 8bbd
00000290: a01f 79bc 2cf5 1fbf c0e9 d5be 91a3 ad3d
000002a0: ede5 1e3e bb6b 7dbe 55b1 85bf 2011 f9be
000002b0: 39cc 9bbd 496c d33e c28b 70be b883 a1bd
000002c0: f316 00bf e1ef e9be d4aa 153d c8d0 cebc
000002d0: 9697 54bf 51b4 41bf b4f9 7d3e 1497 843e
000002e0: 602a 48be 5848 40bf 77dc 5abf 5b3d a23d
000002f0: f337 e13e 71e6 53be 31ae a2be 2358 2fbf
00000300: c04c af3e 87fb 843e fca4 1f3e bbc9 03bf
00000310: 4490 bd3d 2625 fc3d f871 39bc a4b0 163e
00000320: e732 e9be 6069 9bbd b416 423f 1834 833f
00000330: 4075 75be 8ae6 c7be 3ee8 15bf 05c6 dd3e
00000340: 8846 dbbd f84e bc3d 5b1c c9be b5ca 45bf
00000350: aecf b63e 3692 c43d 183d adbd 108a 92be
00000360: fbd9 46bf 3d9f 9b3e 4624 05bd 76e8 183e
00000370: e7e8 3fbe 3729 7ebd fb86 a43e 13a6 0d3e
00000380: 74ac a4bd bb79 e0bd 941b 913d 40da efbe
00000390: f95d 483b a01a 393c ff9b 32bd 1250 0abf
000003a0: 0ae2 c93b b389 953e 5402 ccbd 8cdd 34bf
000003b0: 2450 83be 51da b53e d902 e8be c7a7 6abe
000003c0: 98a0 f4be 63cb ffbe 447f fc3e bc45 85bd
000003d0: 6665 e8bd 157c 65be 3681 22bf fa2b e73e
000003e0: 5dea 9d3e 28f7 4ebd e1fd aa3d df8d 57bf
000003f0: 1a1c e73e 04c4 abbd 16ff 09be b473 92be

hyper_b1.bias f4 [32]
-0.21720888 -0.36776096 -0.38059038 -0.2778621 -0.21476698 0.17679518 -0.39904413 -0.15899257
-0.43532065 -0.18705516 -0.1955201 -0.5470555 -0.11660834 -0.33245972 -0.19659805 -0.45328414
-0.34346986 0.02614609 -0.518253 -0.019102214 -0.18432672 0.036625355 0.031998545 -0.4235878
-0.21218528 -0.090059936 -0.47981486 -0.37877008 -0.49760512 -0.14567804 -0.5278613 0.012999561
00000000: 016c 5ebe 2a4b bcbe bedc c2be f143 8ebe
00000010: e0eb 5bbe cc09 353e 834f ccbe f3ce 22be
00000020: 59e2 debe 638b 3fbe 6c36 48be d40b 0cbf
00000030: 5ad0 eebd 2938 aabe 0051 49be dc14 e8be
00000040: 48db afbe 5330 d63c 3bac 04bf 3f7c 9cbc
00000050: 25c0 3cbe 7804 163d e810 033d 80e0 d8be
00000060: 1947 59be 5871 b8bd 4baa f5be 27ee c1be
00000070: 19c6 febe a02c 15be eb21 07bf 1cfc 543c

hyper_w2.0.weight f4 [64, 15]
0.009222424 0.031118104 -0.0070635527 -0.15911801 0.17820823 -1.0709183 1.2141988 -0.1278007
-0.31230038 -0.2451979 1.0165492 -1.5185504 0.06745389 0.06328479 -0.1390029 0.22180302
0.13269822 -0.04959337 0.24852702 0.04714334 -0.88158894 -1.5688734 0.33358815 -0.7727704
0.24778274 -1.0372618 0.8215387 0.2645374 0.3281979 -0.031108707 -0.093489476 -0.33371288
0.09545608 0.736028 -0.1737561 -0.6779939 -0.09817558 0.4143903 0.008629041 0.16775963
-0.25778368 0.16772278 0.33873206 0.568849 -0.15219444 0.17698099 0.4121461 -0.18045025
-0.16510674 -0.10366005 0.14466202 -0.19086099 -0.1624753 -0.1478121 0.0780198 0.1052976
-0.17959985 0.010227548 -0.03377647 0.19398251 -0.83610255 -0.26421347 0.05811171 -0.96250165
-0.24515952 0.1509475 -0.06437312 -0.023416953 -0.091025375 0.24120992 0.60890305 -1.0010899
0.06682504 0.11750402 -0.2469627 0.4213841 0.07514253 0.26909482 -0.21034037 0.06055063
0.16476181 0.2696955 0.14215137 -0.34750444 0.056988806 0.0039689126 -0.16667351 0.09549454
0.16935897 0.21445674 -0.3302875 -0.7890872 0.27748585 0.15503006 0.018695533 0.052304935
-0.043185547 0.31156465 0.32080755 -0.028042719 -0.28618705 -0.24098454 0.11826245 0.24603148
-0.18666534 -0.66673756 -1.0397835 0.09064318 0.38203934 -0.2261787 -0.17939183 0.5465234
-0.08086401 -0.8214842 -0.011781767 0.47662574 0.6700258 -0.003626266 0.087562315 0.1069392
-0.46088246 0.7739249 -0.6843986 0.07517942 -0.01610431 -0.07927225 0.22675695 0.11673985
0.53328305 0.008471042 0.72627157 -1.2045815 0.11686787 -0.37065724 -0.1429357 -0.41321307
0.5929269 -0.24194402 -0.36333746 -0.19186494 -1.038997 -0.20424858 0.07743796 0.12351126
-0.11888307 -0.06899911 -0.4132901 -0.0021089797 -0.1339906 0.12683079 0.10218702 0.23432419
0.24755608 0.27608114 0.17115769 -0.18275791 0.4118426 -0.032751966 -0.054327812 -0.064298525
-0.7288068 0.43014938 0.645697 0.2679848 -0.13135979 1.2476432 -0.18309681 0.15239848
0.20435525 0.20368746 0.5326253 0.15561803 -0.111258045 0.20173125 -0.13588381 -0.38284552
0.047657344 -0.048630614 -0.31314158 0.019845843 0.60902995 0.19538766 -0.41527295 -0.3536653
0.062779546 -0.8069802 -1.1973658 0.12353286 0.12703452 0.16124108 0.23796298 0.71673673
0.317299 0.12562633 0.1413751 0.17606871 0.40043378 -1.0184138 0.3246677 -0.23304589
-1.1851431 -0.34375978 -0.024124445 0.4004985 -0.12880023 -0.80253667 -1.283481 0.57672644
0.013522266 -0.071991175 -0.20689574 -0.259426 -0.06588636 -0.4322231 -0.018345907 0.7178035
-1.2833275 0.039640233 -0.7968932 0.07675406 -0.2101648 -1.0056355 0.62186235 0.36789596
0.06723392 -0.21214247 0.23721889 -0.22503869 -0.36784658 -0.039165333 -0.06841652 0.23550722
0.10960738 -0.41399696 -0.25147688 0.074644126 -0.3608526 0.2602654 -0.049402285 -0.12542413
-0.04440644 -0.59927243 -0.4403563 -0.30148003 0.08622238 0.63602203 -0.22644573 -0.44298804
0.7148452 -0.0044493377 -0.052682977 0.23957112 -0.951378 -0.41333565 -0.03166437 0.40708822
00000000: a619 173c 65eb fe3c 6075 e7bb d5ef 22be
00000010: 387c 363e da13 89bf de6a 9b3f 30de 02be
00000020: d6e5 9fbe 2915 7bbe 491e 823f dc5f c2bf
00000030: 4425 8a3d 759b 813d c756 0ebe 5520 633e
00000040: 0be2 073e 6b22 4bbd de7d 7e3e 6019 413d
00000050: d0af 61bf d8d0 c8bf 11cc aa3e 48d4 45bf
00000060: c2ba 7d3e ffc4 84bf 5c50 523f 7271 873e
00000070: 8e09 a83e b0d7 febc 6977 bfbd 6adc aabe
00000080: 7a7e c33d 556c 3c3f 1eed 31be 0291 2dbf
00000090: 4710 c9bd f72a d43e d260 0d3c 2ec9 2b3e
000000a0: 39fc 83be 85bf 2b3e 4a6e ad3e 17a0 113f
000000b0: dcd8 1bbe 813a 353e d004 d33e f3c7 38be
000000c0: be11 29be b84b d4bd 4822 143e 1071 43be
000000d0: ed5f 26be 0e5c 17be d8c8 9f3d 45a6 d73d
000000e0: 06e9 37be 7291 273c 3259 0abd 5aa3 463e
000000f0: d10a 56bf fd46 87be 8b06 6e3d 8266 76bf
00000100: 190b 7bbe fb91 1a3e 0ed6 83bd e9d4 bfbc
00000110: 836b babd bcff 763e 12e1 1b3f b723 80bf
00000120: 91db 883d f3a5 f03d cae3 7cbe a8bf d73e
00000130: 54e4 993d ccc6 893e 7763 57be f003 783d
00000140: 52b7 283e 8715 8a3e 2190 113e 1aec b1be
00000150: 186d 693d a70d 823b 76ac 2abe a492 c33d
00000160: 706c 2d3e 8c9a 5b3e 711b a9be 9e01 4abf
00000170: a012 8e3e 33c0 1e3e 6027 993c b33d 563d
00000180: 54e3 30bd 6785 9f3e e340 a43e d8b9 e5bc
00000190: 1c87 92be a7c4 76be 9533 f23d adef 7b3e
000001a0: 3325 3fbe 50af 2abf a017 85bf 22a3 b93d
000001b0: a99a c33e 649b 67be 7eb2 37be f5e8 0b3f
000001c0: 089c a5bd ca4c 52bf 5008 41bc 4a08 f43e
000001d0: d086 2b3f a6a6 6dbb df53 b33d f002 db3d
000001e0: c9f8 ebbe f11f 463f bf34 2fbf abf7 993d
000001f0: 30ed 83bc 7d59 a2bd f932 683e 4d15 ef3d
00000200: 3d85 083f 20ca 0a3c efec 393f ba2f 9abf
00000210: 6c58 ef3d c9c6 bdbe bc5d 12be aa90 d3be
00000220: 0fca 173f 2cc0 77be 5e07 babe 3e78 44be
00000230: dbfd 84bf 8a26 51be cb97 9e3d 79f3 fc3d
00000240: f878 f3bd 684f 8dbd c39a d3be cf36 0abb
00000250: d534 09be eedf 013e 6e47 d13d aef2 6f3e
00000260: 577f 7d3e 825a 8d3e f643 2f3e e424 3bbe
00000270: 09dd d23e ed26 06bd d786 5ebd f2ae 83bd
00000280: 1593 3abf 8a3c dc3e 664c 253f 4e35 893e
00000290: 2e83 06be c6b2 9f3f bb7d 3bbe 590e 1c3e
000002a0: 8142 513e 7293 503e 225a 083f 555a 1f3e
000002b0: 42db e3bd a392 4e3e 2025 0bbe 5404 c4be
000002c0: 5934 433d e530 47bd 1854 a0be c093 a23c
000002d0: 63e9 1b3f b413 483e a89e d4be 9e13 b5be
000002e0: 9092 803d 4196 4ebf 4843 99bf ccfe fc3d
000002f0: 5615 023e 621c 253e 91ac 733e 0f7c 373f
00000300: 0475 a23e 30a4 003e a2c4 103e 5b4b 343e
00000310: a805 cd3e 625b 82bf d83a a63e 95a3 6ebe
00000320: c5b2 97bf 4801 b0be a1a0 c5bc 240e cd3e
00000330: 35e4 03be 0b73 4dbf 1b49 a4bf 58a4 133f
00000340: 7f8c 5d3c 1c70 93bd 7adc 53be 7cd3 84be
00000350: 6eef 86bd 594c ddbe 284a 96bc f8c1 373f
00000360: 1344 a4bf cc5d 223d 3101 4cbf 3c31 9d3d
00000370: 7135 57be aab8 80bf 5f32 1f3f dc5c bc3e
00000380: f0b1 893d e03b 59be 82e9 723e 8b70 66be
00000390: 6356 bcbe d46b 20bd f61d 8cbd ce28 713e
000003a0: d679 e03d 69f7 d3be 94c1 80be 05df 983d
000003b0: acc1 b8be 8241 853e 0d5a 4abd 2f6f 00be
000003c0: 87e3 35bd eb69 19bf 6276 e1be 975b 9abe
000003d0: 5c95 b03d 57d2 223f 64e1 67be 54cf e2be
000003e0: 1800 373f c0cb 91bb 1bca 57bd 2252 753e
000003f0: 828d 73bf bba0 d3be 80b2 01bd de6d d03e

hyper_w2.0.bias f4 [64]
-0.044925705 -0.15954055 -0.3214498 0.08104164 0.33128157 0.43987128 0.17076121 0.025434809
-0.3179645 -0.56870896 -0.16103868 -0.0869809 0.013929526 -0.20088533 -0.2808104 0.57864714
-0.33376083 -0.45926106 0.12063461 -0.4533037 0.5391068 -0.13213384 0.23648976 -0.01960099
0.3305706 0.12218574 0.4667518 0.039167304 0.6679965 0.12458645 0.33799067 0.33878127
-0.47331208 -0.61542135 0.28229758 0.012754278 0.025847439 -0.18520506 0.24675915 -0.14681438
-0.4455084 -0.10040254 -0.2915087 -0.13652466 0.26987952 -0.6396856 -0.004887748 -0.2211284
-0.6620956 -0.45042193 0.50648725 -0.10692409 0.28622118 0.82326096 0.050795037 0.099151455
0.24128598 0.30103377 0.01460257 0.19205222 -0.07682418 -0.3019266 -0.12867703 0.49016497
00000000: 0404 38bd 995e 23be 1195 a4be 29f9 a53d
00000010: bd9d a93e cf36 e13e 07dc 2e3e a95c d03c
00000020: 3ecc a2be e996 11bf 53e7 24be 0b23 b2bd
00000030: ab38 643c e2b4 4dbe 61c6 8fbe 3822 143f
00000040: b3e2 aabe 4424 ebbe 470f f73d 6c17 e8be
00000050: e702 0a3f 184e 07be 5f2a 723e 4192 a0bc
00000060: 8d40 a93e 843c fa3d 18fa ee3e e56d 203d
00000070: d201 2b3f 2e27 ff3d 1d0d ad3e bd74 ad3e
00000080: f655 f2be 418c 1dbf 4f89 903e 52f7 503c
00000090: 02be d33c 65a6 3dbe 6eae 7c3e 8256 16be
000000a0: ad19 e4be d99f cdbd a140 95be 1fcd 0bbe
000000b0: a62d 8a3e 6fc2 23bf 6729 a0bb 7c6f 62be
000000c0: 197f 29bf b49d e6be 26a9 013f 04fb dabd
000000d0: 958b 923e 3bc1 523f 750e 503d eb0f cb3d
000000e0: ac13 773e 1921 9a3e 9e3f 6f3c 56a9 443e
000000f0: ff55 9dbd 2096 9abe e9c3 03be e7f6 fa3e

hyper_w2.2.weight f4 [32, 64]
0.43589067 0.5840736 0.093868256 0.23891206 -0.269241 -0.22739206 0.24028315 0.62125784
0.42610708 1.3663034 -0.11765113 -0.31652546 0.41839543 -0.59575605 0.38214982 -0.39161068
0.3658526 0.8919506 -0.3097532 -0.20615108 -0.35980117 0.03869976 -0.3472482 0.3406555
-0.06565273 -0.19061916 -0.31640455 0.3970174 -0.4634797 -0.011875592 -0.40898305 -0.1691867
0.85449004 1.027184 -0.40097624 -0.08242125 0.15763775 0.27834547 -0.4222258 1.0276852
0.3972205 0.44318587 1.0716357 0.85140514 -0.39139175 0.25658122 0.5838553 0.025313133
0.15729645 -1.2977464 -0.17185515 -0.07876154 0.29036325 -0.50498974 0.47243845 1.178346
-0.02945642 -0.11486143 0.56286424 -0.1483439 1.1963125 0.6795573 -1.1066114 -0.24246049
0.58 -0.24904408 0.14406624 0.097367175 0.364799 -0.23344937 -0.3846628 -0.87518215
0.3066825 0.46237445 0.14693588 -0.38602784 -0.6325981 0.5601025 0.01729961 0.12925342
-0.32584456 0.16967732 0.6552234 0.9119064 0.1383961 0.16299751 0.119695455 0.4185231
0.07741595 -0.19145116 0.23429556 -0.601531 0.023339517 -0.50444204 0.08140386 -0.42309985
0.10749399 1.1514173 0.15516683 0.62804425 0.46096787 -0.07014995 -0.32164297 0.07643463
0.2785099 0.17306572 0.5138272 1.113244 -0.35848764 0.7653355 1.0452639 -0.15961772
-0.61947596 0.61104167 -0.36903507 -0.2165197 -0.079810075 0.07495249 -0.43699628 0.81436414
-0.033468567 -0.19929017 1.2185662 0.09038364 0.5354876 -0.6134591 -0.5793177 -0.3315176
-0.9661478 -0.7276379 -0.40474215 0.20970456 0.1756146 0.4018087 -0.39765185 -0.10988737
-0.7018069 -0.44928893 0.31162578 -0.1782903 -0.5405204 0.7370098 0.094669774 0.5585247
-0.50139946 -1.2056768 0.06404262 -0.29896224 0.8440998 -0.03306892 0.18645379 -0.6281727
0.19784956 0.116186045 0.5948859 0.11979345 1.449853 -0.20881656 -0.026679963 0.43415648
-0.0019620233 0.43963313 0.22372542 -0.2592377 -0.38950318 -0.3337331 -0.49990997 -1.1662375
-0.23785482 -0.64134496 -0.21559484 0.014193899 0.36365402 -0.51478237 -1.1840549 -0.18798119
-1.4623106 1.2741171 0.3291929 -0.16093355 0.25069723 1.4981419 -0.24756968 -0.2760569
-0.03768642 0.32037005 -1.1912946 0.86168253 -1.2396305 0.6460977 0.6279648 0.42803106
0.31032032 0.5296386 0.30570808 0.11918852 -0.55596465 -0.27803546 0.1640691 0.36725047
-0.21989779 0.8409574 -0.18264312 0.7033066 0.45758694 -0.061828185 -0.007327022 -0.2040346
-0.9476205 -0.282294 -0.8181294 0.117652886 -0.10403475 -0.30124405 -0.07894061 0.56762516
-0.0970884 -0.13716759 -0.37000188 0.05863071 0.11494226 0.2768782 -0.5369913 0.03495091
-0.72211283 0.7254468 -0.28278852 -0.44697413 0.22898473 0.10353216 0.0604087 0.6417908
-0.3179029 -0.16591583 -0.48838645 -0.7742552 -0.09850668 0.52952707 0.5011523 0.6137
1.662443 -0.63557285 -0.17767309 -0.06453132 0.3681651 -0.5541738 0.45896992 1.2217956
-0.090817764 -0.22982524 -0.23337954 -0.118814416 0.59825873 -0.18343127 -0.21555087 -0.015152002
00000000: 102d df3e d985 153f 003e c03d 5da5 743e
00000010: f5d9 89be 77d9 68be c90c 763e c10a 1f3f
00000020: b52a da3e 08e3 ae3f 13f3 f0bd a00f a2be
00000030: ed37 d63e 7883 18bf 24a9 c33e 3281 c8be
00000040: 0851 bb3e e056 643f f997 9ebe 4519 53be
00000050: dc37 b8be a483 1e3d 84ca b1be 666a ae3e
00000060: f074 86bd ab31 43be c7ff a1be dd45 cb3e
00000070: 364d edbe d891 42bc 3a66 d1be 473f 2dbe
00000080: dcbf 5a3f c47a 833f c24c cdbe 79cc a8bd
00000090: ca6b 213e 4c83 8e3e fb2d d8be 308b 833f
000000a0: 7c60 cb3e 42e9 e23e 5c2b 893f b0f5 593f
000000b0: 8064 c8be 9d5e 833e 8a77 153f 7d5d cf3c
000000c0: 5212 213e 8e1c a6bf ccfa 2fbe bb4d a1bd
000000d0: 7eaa 943e 0247 01bf 74e3 f13e 0bd4 963f
000000e0: 974e f1bc 783c ebbd df17 103f 77e7 17be
000000f0: c520 993f 78f7 2d3f 71a5 8dbf 9047 78be
00000100: e17a 143f 6905 7fbe 1a86 133e 7168 c73d
00000110: efc6 ba3e 5a0d 6fbe 86f2 c4be f00b 60bf
00000120: 7d05 9d3e 58bc ec3e 5c76 163e 71a5 c5be
00000130: f3f1 21bf e162 0f3f e9b7 8d3c 025b 043e
00000140: 19d5 a6be e4bf 2d3e b9bc 273f b372 693f
00000150: b5b7 0d3e d2e8 263e e422 f53d a948 d63e
00000160: 418c 9e3d c60b 44be 2deb 6f3e f0fd 19bf
00000170: 8432 bf3c 1d23 01bf 11b7 a63d 8ba0 d8be
00000180: cf25 dc3d a461 933f 0ee4 1e3e 82c7 203f
00000190: fb03 ec3e c7aa 8fbd 63ae a4be c289 9c3d
000001a0: da98 8e3e 2438 313e 2e8a 033f c87e 8e3f
000001b0: b18b b7be 07ed 433f 35cb 853f d472 23be
000001c0: fa95 1ebf 3a6d 1c3f 2af2 bcbe 57b7 5dbe
000001d0: 7773 a3bd b180 993d fabd dfbe 2b7a 503f
000001e0: 5616 09bd b912 4cbe faf9 9b3f 0f1b b93d
000001f0: b715 093f a80b 1dbf 2a4e 14bf adbc a9be
00000200: 7655 77bf 7a46 3abf 5d3a cfbe cbbc 563e
00000210: 50d4 333e dfb9 cd3e 0699 cbbe a10c e1bd
00000220: 9ea9 33bf 3309 e6be 6a8d 9f3e bb91 36be
00000230: 8c5f 0abf adac 3c3f 3ae2 c13d 7afb 0e3f
00000240: b75b 00bf 9e53 9abf c728 833d 9411 99be
00000250: ed16 583f 4773 07bd beed 3e3e edcf 20bf
00000260: 1399 4a3e f3f2 ed3d 714a 183f 4556 f53d
00000270: c894 b93f 02d4 55be f08f dabc c249 de3e
00000280: 4a95 00bb 9817 e13e 4718 653e ceba 84be
00000290: f66c c7be 11df aabe 33f4 ffbe 4547 95bf
000002a0: 3790 73be 2f2f 24bf e5c4 5cbe 878d 683c
000002b0: dc30 ba3e c7c8 03bf 1c8f 97bf 247e 40be
000002c0: fe2c bbbf 4516 a33f f98b a83e c4cb 24be
000002d0: 635b 803e 1dc3 bf3f e882 7dbe 5457 8dbe
000002e0: 135d 1abd 8b07 a43e 577c 98bf 3a97 5c3f
000002f0: 36ac 9ebf a966 253f 4dc2 203f e326 db3e
00000300: 4ee2 9e3e 6596 073f c585 9c3e 1c19 f43d
00000310: b353 0ebf aa5a 8ebe bb01 283e 4108 bc3e
00000320: e32c 61be fc48 573f cc06 3bbe e70b 343f
00000330: d648 ea3e 8d3f 7dbd 8417 f0bb 72ee 50be
00000340: 4297 72bf d788 90be ee70 51bf fff3 f03d
00000350: 2c10 d5bd a93c 9abe 9dab a1bd e24f 113f
00000360: 48d6 c6bd a975 0cbe e370 bdbe c126 703d
00000370: d966 eb3d fbc2 8d3e 4378 09bf af28 0f3d
00000380: 63dc 38bf e2b6 393f a8c9 90be cbd9 e4be
00000390: f97a 6a3e ab08 d43d 1d6f 773d 674c 243f
000003a0: 2bc4 a2be d7e5 29be ca0d fabe 9735 46bf
000003b0: dfbd c9bd 168f 073f 844b 003f 711b 1d3f
000003c0: efca d43f e7b4 22bf efef 35be ff28 84bd
000003d0: 2380 bc3e 56de 0dbf 1bfe ea3e cc63 9c3f
000003e0: aafe b9bd 4f57 6bbe 0cfb 6ebe f954 f3bd
000003f0: 7c27 193f 68d5 3bbe 5eb9 5cbe 1a40 78bc

hyper_w2.2.bias f4 [32]
-0.8638161 -0.58547044 0.74879134 -0.7381431 0.43623596 0.46068078 0.73608387 0.5862557
-0.45768228 0.5554133 -0.70833284 -0.62457204 0.46804568 0.4664361 0.68740165 -0.22233191
0.89426935 -0.48990673 -0.68689346 0.41289505 0.5876015 0.652702 0.60691476 0.7305799
-0.34706712 -0.81888753 0.9816712 0.94975424 -0.5765034 -0.535236 0.4081018 0.5610374
00000000: 0d23 5dbf 64e1 15bf cab0 3f3f f2f6 3cbf
00000010: 525a df3e 5ade eb3e fe6f 3c3f db14 163f
00000020: 5555 eabe 912f 0e3f 4d55 35bf f4e3 1fbf
00000030: afa3 ef3e b6d0 ee3e 8ef9 2f3f faaa 63be
00000040: d6ee 643f 0ed5 fabe 40d8 2fbf fb66 d33e
00000050: 0d6d 163f 7a17 273f c45e 1b3f 4907 3b3f
00000060: c8b2 b1be 9da2 51bf ce4e 7b3f 1823 733f
00000070: ba95 13bf 3a05 09bf b8f2 d03e 26a0 0f3f

hyper_b2.0.weight f4 [32, 15]
0.49658856 0.8628759 -0.5255615 -0.3909236 0.11230078 0.7789576 0.08808078 1.1181113
1.4032338 -0.15323563 0.5918438 -0.10322218 0.9851457 1.1912403 -0.15099931 0.83043617
1.7007335 0.46974853 1.2209764 -0.09045306 1.3524787 0.5909481 1.1542094 1.2806438
0.19001487 0.68751067 0.8486841 1.0767542 1.3321208 -0.03336419 1.012964 1.0390016
1.0904953 0.79484624 -0.15915158 1.3189632 0.9099469 1.1936111 1.0364494 0.25124332
0.6858569 1.3351675 0.6882911 1.3803182 -0.18089208 -1.1703542 -1.8849698 -0.6057955
0.31334916 0.05257985 -0.06495049 1.1542828 0.115716 -0.6578078 -0.16909254 0.5202497
-1.1177026 -0.6340511 -0.7101436 0.029098392 0.9900712 -2.4260068 0.16079709 0.5234411
0.037344456 -0.3929062 -0.9219437 -0.096767336 -0.050052375 -0.24729644 1.0405568 -3.3364875
0.0996757 1.2040086 -0.1283266 -0.24222474 0.09863429 -0.07045373 -0.7108719 0.19106269
-0.25119892 0.7045824 -0.51194614 -0.54887396 -0.2366768 0.17351729 -0.04216366 -0.27584165
-0.45535082 -0.048039526 -2.2827914 -0.0683901 0.2238526 -0.087617084 0.046055615 -0.68855244
-4.970993 -0.25604782 -0.8036172 0.25274095 0.38966307 -3.5984251 -0.30656236 -0.12407444
0.18913868 0.81226075 -0.56082493 1.3887802 1.7683477 0.19838679 -0.7941114 -0.38805082
-2.006511 -0.57318455 -0.08309744 0.12313236 0.712384 -1.998275 -1.5973561 -0.18213587
-1.9163069 0.75876874 -0.2543105 -0.5052671 0.10272622 -0.4040872 0.32693544 -0.13304222
-0.6579944 -0.23252751 -0.44082364 -1.5203302 -0.3882855 -0.6394065 -0.11384681 0.24608059
-0.11727215 -1.1274656 -0.5102598 0.13753617 -0.65534526 0.018738719 -0.18267547 -0.23572306
-0.07343899 -1.5570507 1.5351921 0.043352686 0.021890279 0.2098473 -0.9335518 -2.6958532
-0.01980672 0.4323524 0.023082435 0.67759895 -6.746908 0.07282931 0.006872732 -0.072326735
0.7831369 -1.6745859 0.15668347 0.5367804 -0.115516335 1.0482334 0.48613638 0.39907503
0.5577474 0.001414448 1.3043092 0.7412291 0.8762749 0.13108285 0.18110567 0.89123076
0.79838884 0.76166594 0.5706767 -0.18182218 -1.2354484 0.64316267 0.5287286 1.789117
0.23400363 -0.32962596 1.0369983 -0.37574595 0.535537 -0.24322115 -1.1727526 0.5290735
0.43219775 -1.5875522 -0.054026023 -0.143073 -5.460284 -0.07977696 0.12434268 0.19618174
-1.0050398 -5.2139316 -0.09614773 0.36340842 -0.16303846 0.81548136 -3.8450835 -0.18212953
0.3557634 0.14610296 -3.6585672 0.2929748 -0.23780781 0.42944792 -0.2574163 -0.5828423
-1.2449561 0.55672526 0.61829615 0.042924672 0.18597908 0.2626555 -1.1582084 0.6641127
0.085041285 -0.42994 -0.56008303 -0.7021196 0.017517284 -0.16634282 0.13436782 0.486699
-0.63839585 -0.36047092 -0.084449634 0.63854116 -0.5646704 -0.4557733 -0.8632859 0.08876845
-2.2556372 -0.4632104 -1.21924 0.6259465 -0.20521154 0.8128735 0.8824179 0.32504794
-0.1629748 -0.13670123 -0.45430654 0.41218045 -0.33184698 -0.7539995 0.21585119 -1.1213094
00000000: db40 fe3e 6fe5 5c3f 338b 06bf 2327 c8be
00000010: f4fd e53d c469 473f b263 b43d 451e 8f3f
00000020: 2a9d b33f cde9 1cbe 1383 173f 2666 d3bd
00000030: 8232 7c3f 907a 983f 909f 1abe 7797 543f
00000040: a3b1 d93f e182 f03e f448 9c3f 743f b9bd
00000050: 061e ad3f 6048 173f 22bd 933f 23ec a33f
00000060: 4293 423e b300 303f 5c43 593f 15d3 893f
00000070: ef82 aa3f e4a8 08bd cea8 813f 01fe 843f
00000080: 5a95 8b3f 0b7b 4b3f a2f8 22be c9d3 a83f
00000090: 48f2 683f 40c8 983f 60aa 843f f7a2 803e
000000a0: 5194 2f3f c5e6 aa3f d833 303f 44ae b03f
000000b0: c63b 39be 2bce 95bf b146 f1bf 6a15 1bbf
000000c0: 4d6f a03e f85d 573d c304 85bd 8abf 933f
000000d0: 83fc ec3d 1866 28bf 9826 2dbe 162f 053f
000000e0: e110 8fbf 2c51 22bf f9cb 35bf c05f ee3c
000000f0: 4e75 7d3f b243 1bc0 fea7 243e 3c00 063f
00000100: 80f6 183d 002b c9be 8104 6cbf f42d c6bd
00000110: b803 4dbd 473b 7dbe f730 853f 0389 55c0
00000120: c622 cc3d f41c 9a3f 0c68 03be c309 78be
00000130: c600 ca3d 0c4a 90bd b3fb 35bf f0a5 433e
00000140: 259d 80be 835f 343f e70e 03bf 0183 0cbf
00000150: 675b 72be 84ae 313e cdb3 2cbd 1e3b 8dbe
00000160: be23 e9be 18c5 44bd 4119 12c0 1c10 8cbd
00000170: 9e39 653e 9670 b3bd d0a4 3c3d f944 30bf
00000180: 6012 9fc0 b318 83be dbb9 4dbf 4367 813e
00000190: eb81 c73e 994c 66c0 bef5 9cbe bd1a febd
000001a0: 92ad 413e 52f0 4f3f 3992 0fbf 8dc3 b13f
000001b0: 3859 e23f e825 4b3e e24a 4bbf 99ae c6be
000001c0: ad6a 00c0 39bc 12bf fe2e aabd d22c fc3d
000001d0: cc5e 363f 7ac7 ffbf 2a76 ccbf d381 3abe
000001e0: 8b49 f5bf ab3e 423f fc34 82be 2f59 01bf
000001f0: 2062 d23d 84e4 cebe 1564 a73e 383c 08be
00000200: 5272 28bf b11b 6ebe a3b3 e1be 2e9a c2bf
00000210: 5bcd c6be 25b0 23bf 8428 e9bd 8dfc 7b3e
00000220: 622c f0bd cb50 90bf 63a0 02bf 48d6 0c3e
00000230: b5c4 27bf f181 993c 470f 3bbe 6361 71be
00000240: 2e67 96bd 704d c7bf 2d81 c43f 9692 313d
00000250: 3e53 b33c 36e2 563e 40fd 6ebf dc88 2cc0
00000260: b441 a2bc 4b5d dd3e 6017 bd3c 2077 2d3f
00000270: ace6 d7c0 8927 953d a834 e13b 0a20 94bd
00000280: a97b 483f d558 d6bf a271 203e 716a 093f
00000290: d493 ecbd 832c 863f dee6 f83e 9053 cc3e
000002a0: 89c8 0e3f 0065 b93a 9bf3 a63f 31c1 3d3f
000002b0: 8d53 603f 953a 063e c473 393e b327 643f
000002c0: 3663 4c3f 8afc 423f de17 123f 982f 3abe
000002d0: 2c23 9ebf 4fa6 243f c25a 073f c901 e53f
000002e0: a69e 6f3e bcc4 a8be 5cbc 843f c661 c0be
000002f0: f418 093f f70e 79be c21c 96bf 5c71 073f
00000300: 0649 dd3e e934 cbbf 644a 5dbd ba81 12be
00000310: a6ba aec0 1a62 a3bd 60a7 fe3d dee3 483e
00000320: 25a5 80bf 87d8 a6c0 1ae9 c4bd ab10 ba3e
00000330: 8ef3 26be 63c3 503f d915 76c0 2a80 3abe
00000340: 9f26 b63e 049c 153e f725 6ac0 cb00 963e
00000350: e483 73be 99e0 db3e 12cc 83be 2735 15bf
00000360: b95a 9fbf 8c85 0e3f a848 1e3f c8d1 2f3d
00000370: 4d71 3e3e c87a 863e 2c40 94bf 4a03 2a3f
00000380: 202a ae3d 1821 dcbe 9a61 0fbf 1cbe 33bf
00000390: 6880 8f3c c655 2abe b897 093e 9c30 f93e
000003a0: e96d 23bf a58f b8be eef3 acbd 6f77 233f
000003b0: 3d8e 10bf 1e5b e9be 4e00 5dbf 3ccc b53d
000003c0: 5c5c 10c0 ea29 edbe 0e10 9cbf 083e 203f
000003d0: f922 52be 7a18 503f 24e6 613f af6c a63e
000003e0: dee2 26be 68fb 0bbe de9a e8be 5109 d33e
000003f0: d9e7 a9be 1c06 41bf 1808 5d3e 1187 8fbf

hyper_b2.0.bias f4 [32]
1.749257 2.3469653 2.24474 0.13258803 -0.04888635 0.021790838 0.4395807 0.5446277
0.3039237 -0.17716032 -0.04829713 1.4707255 -0.11026314 0.31033555 -0.3409424 -0.047234386
0.1946278 -0.2143346 0.8713378 2.328301 -0.36353248 -0.28267288 1.5745342 0.00535868
2.2561073 0.148395 0.6975936 2.4792626 -0.025488932 0.13479233 -0.18028359 2.174037
00000000: a7e7 df3f ae34 1640 d2a9 0f40 28c5 073e
00000010: 0e3d 48bd b382 b23c b910 e13e b96c 0b3f
00000020: e39b 9b3e 8469 35be 36d3 45bd bc40 bc3f
00000030: a4d1 e1bd 4de4 9e3e 0190 aebe d878 41bd
00000040: 834c 473e 887a 5bbe fe0f 5f3f e202 1540
00000050: ee20 babe 80ba 90be 568a c93f de97 af3b
00000060: 1064 1040 dcf4 173e 7f95 323f 3dac 1e40
00000070: 2ace d0bc 0007 0a3e 439c 38be 6c23 0b40

hyper_b2.2.weight f4 [1, 32]
-2.5535574 -2.8165734 -2.6786191 -1.3859112 2.9585457 0.22946386 3.2658865 -3.350161
1.5402848 2.066254 3.799119 -1.7373511 -2.5691583 4.6615357 5.0449886 0.63184315
-2.0570524 1.6658953 -2.0032315 -2.795265 3.401053 1.079494 -2.4494848 -2.3934019
-2.043085 1.5870703 -4.255421 -2.6977792 -2.828306 3.8018236 -1.9367725 -2.0359678
00000000: 7c6d 23c0 bd42 34c0 7f6e 2bc0 8a65 b1bf
00000010: d058 3d40 93f8 6a3e 4904 5140 0a69 56c0
00000020: 0d28 c53f 813d 0440 c424 7340 8561 debf
00000030: 176d 24c0 4d2b 9540 8c70 a140 79c0 213f
00000040: bfa6 03c0 0f3c d53f f234 00c0 9fe5 32c0
00000050: daaa 5940 dc2c 8a3f 5cc4 1cc0 7f2d 19c0
00000060: e8c1 02c0 1f25 cb3f 692c 88c0 6aa8 2cc0
00000070: f702 35c0 1451 7340 29e8 f7bf 4c4d 02c0
