qmix_mixer.pth (torch, 51125 bytes, 13 tensors)

hyper_w1.0.weight f4 [64, 15]
0	0x3dde7016	0.108612224
1	0xbeb444a7	-0.35208628
2	0x3ecfc7e0	0.4058218
3	0x3dd94179	0.10608191
4	0xbc8ff000	-0.017570496
5	0xbe0624aa	-0.13099924
6	0xbfa5615b	-1.2920336
7	0xbe92c1f4	-0.286636
8	0x3c252f9a	0.01008215
9	0xbbf0c280	-0.007347405
10	0xbe12db74	-0.14341527
11	0x3e3384eb	0.17531173
12	0x3eaa3d11	0.33249715
13	0x3dee1fe5	0.11627177
14	0x3e2e663e	0.1703119
15	0xbebff0b7	-0.37488338
16	0x39310230	0.0001688085
17	0x3e91901d	0.28430262
18	0xbf124fbc	-0.57152915
19	0xbe4f41ca	-0.2023994
20	0x3dffd0b0	0.12490976
21	0xbdb661cd	-0.08905373
22	0xbdf9b550	-0.12192786
23	0xbe7fd5f1	-0.24983956
24	0xbdeb6966	-0.114947125
25	0xbccec8b6	-0.02524219
26	0xbf54c716	-0.8311628
27	0xbdfb437f	-0.12268733
28	0x3eb67e09	0.35643032
29	0x3e7d7726	0.24752483
30	0x3e7c86a5	0.24660738
31	0xbfea55b5	-1.8307406
32	0x3c3f40a8	0.01167313
33	0x3ea55514	0.32291472
34	0x3e1872d0	0.14887547
35	0x3d89db24	0.06731251
36	0x3e0f2b1b	0.13981287
37	0x3e2619b3	0.16220741
38	0x3e8db185	0.276745
39	0x3e1e4538	0.15456092
40	0x3dcf8d6b	0.10134395
41	0xbe6455b8	-0.22298324
42	0x3dd58f48	0.10427719
43	0x3e103e40	0.14086246
44	0x3e4b0062	0.19824365
45	0x3ef57473	0.47940406
46	0x3e6c7f79	0.23095502
47	0x3ecfca1a	0.4058388
48	0x3eaf5713	0.3424612
49	0xbdf6073e	-0.120131
50	0x3cfec21d	0.03109842
51	0x3f04d164	0.51882005
52	0xbe6a5682	-0.22884563
53	0xbe5972f0	-0.21235251
54	0x3bb503c0	0.0055241287
55	0xbeae47c8	-0.3403914
56	0xbe8abbce	-0.2709641
57	0x3ec84da2	0.3912173
58	0x3e73f350	0.23823285
59	0x3db578a0	0.08860898
60	0x3e9f9e04	0.31175244
61	0x3d9787a3	0.073989175
62	0x3e9ac77d	0.30230322
63	0x3dbe425b	0.0929
64	0x3ca0a4d0	0.019609839
65	0x3dc76d09	0.09737594
66	0xbd2b23ae	-0.041782074
67	0x3e298732	0.16555479
68	0xbda37b15	-0.079824604
69	0xbe7d4b5e	-0.24735782
70	0xbd16b003	-0.03678895
71	0xbf05dcb8	-0.52289915
72	0x3e28a1b4	0.16467935
73	0x3dc39625	0.09550122
74	0x3decfba0	0.11571431
75	0xbe6ac17d	-0.22925372
76	0xbe794b42	-0.24345115
77	0x3e10974d	0.14120217
78	0xbd5de998	-0.05417785
79	0xbe63d563	-0.2224937
80	0xbda82446	-0.082100436
81	0xbf90c245	-1.1309286
82	0x3dcd4d01	0.10024453
83	0x3bfb0c0f	0.0076613496
84	0x3c791220	0.015202075
85	0xbc895af6	-0.016767006
86	0x3dfd7598	0.12375945
87	0x3e9efa1c	0.31050193
88	0x3ed2b2ff	0.41152188
89	0x3e0c2c20	0.13688707
90	0xbe12634c	-0.14295691
91	0x3eaf77c9	0.34271076
92	0x3e800a51	0.2500787
93	0xbe0a0638	-0.13478935
94	0xbe686651	-0.2269528
95	0x3de1c173	0.11023226
96	0x3e1cf94b	0.15329473
97	0xbdc23602	-0.094829574
98	0xbe83a1af	-0.25709292
99	0xbd2895b8	-0.041158408
100	0xbe68be3c	-0.22728819
101	0xbb9b61b5	-0.004741872
102	0xbd853c83	-0.06505682
103	0x3e3b4cbf	0.18290995
104	0xbd5b37e4	-0.0535201
105	0xbe8e512e	-0.2779631
106	0x3e16a1ab	0.14710109
107	0xbdb48f3d	-0.08816383
108	0x3e8a8879	0.27057245
109	0xbda0ae2e	-0.07845722
110	0xbd18cf30	-0.037306964
111	0xbe4a929e	-0.19782493
112	0x3a9afb37	0.0011824135
113	0xbeb2fc91	-0.34958318
114	0xbd96816c	-0.07348904
115	0x3e140d0c	0.14458102
116	0x3ea6c060	0.32568645
117	0xbe29dfdb	-0.165893
118	0x3c417353	0.011807281
119	0xbda22fda	-0.07919283
120	0xbd76e52c	-0.06027715
121	0x3ed6220a	0.41822845
122	0xbc29aa31	-0.010355518
123	0xbd0fab04	-0.035075203
124	0xbbd13180	-0.0063840747
125	0x3da79573	0.08182802
126	0xbe9a6c11	-0.30160573
127	0xbdda11dc	-0.10647938
128	0x3db56599	0.08857269
129	0xbe161040	-0.14654636
130	0xbc3a2816	-0.011362096
131	0xbbfb10c4	-0.0076619107
132	0x3d24dd1a	0.04024992
133	0x3c3c1825	0.011480366
134	0xbd92c616	-0.07166688
135	0xbe0e98bf	-0.13925456
136	0xbe0661f2	-0.131233
137	0xbe3156a2	-0.17318204
138	0x3e4f44f6	0.2024115
139	0xbd86d424	-0.06583431
140	0x3eaa5ba4	0.3327304
141	0xbec22dec	-0.3792566
142	0xbe648a96	-0.22318491
143	0xbe979d8c	-0.29612386
144	0x3e5f6d1a	0.21818963
145	0x3d241c43	0.040066015
146	0x3e99b0ee	0.300178
147	0xbe002423	-0.12513785
148	0x3e811bf0	0.25216627
149	0xbd836b62	-0.06416966
150	0x3e7a963d	0.24471374
151	0xbe9dc38a	-0.30813247
152	0x3d55af02	0.052168854
153	0xbe3d23e7	-0.18470727
154	0xbe0d6ab4	-0.13810235
155	0x3ded36e3	0.115827344
156	0x3e1bfd71	0.15233399
157	0x3bdce240	0.0067408383
158	0x3ec7b30f	0.39003798
159	0xbded2044	-0.1157842
160	0xbe3faa4e	-0.1871731
161	0x3e7cc14b	0.2468311
162	0x3c50cb82	0.012743833
163	0xbe8d8590	-0.27640963
164	0xbe6c2332	-0.23060301
165	0x3e892d2b	0.26792273
166	0x3e9c88e6	0.30573195
167	0x3e9eec92	0.31039864
168	0xbe3a9e56	-0.18224463
169	0xbdb0df4a	-0.08636339
170	0x3e6c8b12	0.23099926
171	0xbf07edfe	-0.5309752
172	0xbc81178b	-0.015758296
173	0xbdd5603b	-0.10418745
174	0xbe8053e5	-0.25064006
175	0xbec8d97e	-0.39228433
176	0x3e387435	0.1801308
177	0x3e994e6e	0.2994265
178	0xbe8bd745	-0.27312675
179	0xbdefdbcc	-0.11711845
180	0xbe66786f	-0.2250688
181	0x3c50d9ae	0.012747211
182	0x3ddb7cb9	0.10717148
183	0xbda95c50	-0.0826956
184	0xbc5781c0	-0.013153493
185	0xbd4eb92c	-0.050469562
186	0xbcbf4faa	-0.023353416
187	0x3dab1df7	0.08355325
188	0xbd72d4ff	-0.05928516
189	0x3e319dba	0.17345324
190	0x3df0557d	0.117350556
191	0x3d497246	0.049181245
192	0xbdf1f773	-0.11814775
193	0xbd0f3658	-0.034963936
194	0x3e513860	0.20431662
195	0xbf315139	-0.6926456
196	0xbe5b0177	-0.21387278
197	0x3c9c6d4c	0.019095086
198	0xbc9ecaca	-0.019383807
199	0x3e4c6e1e	0.19963881
200	0x3f05a3aa	0.52202857
201	0x3e0bef3c	0.1366548
202	0xbf052a65	-0.52017814
203	0xbe7393ea	-0.23786893
204	0xbd1a1e98	-0.037626833
205	0xbd9ba861	-0.07600475
206	0x3ddd61cd	0.1080967
207	0xbefcef82	-0.4940148
208	0xbdf4901b	-0.119415484
209	0xbe63e10a	-0.22253814
210	0x3d19bb9c	0.037532434
211	0xbde3e1f2	-0.1112708
212	0xbd9ec161	-0.07751728
213	0xbad00cd1	-0.001587296
214	0x3e685a14	0.22690612
215	0xbe0085f5	-0.125511
216	0xbeac3978	-0.33637595
217	0x3d70b8ee	0.058770113
218	0x3e5578ed	0.20846911
219	0xbe054bfa	-0.13017264
220	0x3d744832	0.059639163
221	0x3e40317b	0.18768875
222	0xbe0066a6	-0.12539157
223	0xbd0ebfce	-0.034850888
224	0xbe1a9049	-0.15094103
225	0xbeae5327	-0.34047815
226	0x3e8c513b	0.27405724
227	0x3e5c7636	0.21529469
228	0xbe478c73	-0.19487171
229	0x3e6c10c0	0.23053265
230	0x3d8f3f86	0.06994538
231	0xbe49442f	-0.19654916
232	0xbde7cad7	-0.113179855
233	0xbe07aa22	-0.13248494
234	0xbe292063	-0.16516261
235	0x3e10944f	0.14119075
236	0xbea137b4	-0.3148781
237	0x3e44a677	0.19204126
238	0x3e2b1276	0.16706261
239	0x3e559e52	0.20861176
240	0x3d977614	0.073955685
241	0x3e8803d8	0.26565433
242	0xbd0f2d17	-0.03495511
243	0xbdff573e	-0.12467812
244	0xbd7f5d28	-0.0623447
245	0x3d4e1f8d	0.050323058
246	0xbe0c863d	-0.13723083
247	0x3e63d266	0.2224823
248	0x3e922e03	0.2855073
249	0xbdf9814a	-0.12182863
250	0xbd77300d	-0.06034856
251	0xbeb99fed	-0.36254826
252	0xbe236d74	-0.15959722
253	0x3e337e34	0.17528611
254	0x3e7093cc	0.2349388
255	0xbe1eb8ed	-0.15500231

hyper_w1.0.bias f4 [64]
0	0xbe0ab8aa	-0.13547006
1	0xbdfb96e2	-0.12284638
2	0x3dcf0314	0.10108009
3	0x3c5b7c2d	0.013396305
4	0xbed1175f	-0.40838143
5	0xbd0a2e74	-0.033735707
6	0xbebe7747	-0.37200376
7	0x3c9bf182	0.019036058
8	0x3cbb78b1	0.022884699
9	0x3e1a7c94	0.15086585
10	0x3c241ee1	0.010017128
11	0xbea49740	-0.32146645
12	0x3de095e4	0.10966089
13	0xbd61ba5c	-0.055109367
14	0x3db93e16	0.09045045
15	0x3e6cc194	0.23120719
16	0x3dcecfaa	0.100982025
17	0x3e9930aa	0.2991994
18	0xbe8ae79c	-0.2712983
19	0xbb8bb48d	-0.0042634667
20	0xbe47257d	-0.19447894
21	0xbec246a1	-0.3794451
22	0x3e99c3d9	0.30032232
23	0xbe7bbf78	-0.24584758
24	0x3d940f0f	0.07229435
25	0xbeb2b4be	-0.3490352
26	0x3e14629c	0.14490741
27	0xbd35d468	-0.04439202
28	0x3e13460e	0.14382192
29	0xbdff6330	-0.124700904
30	0x3e8cda09	0.27510098
31	0x3b716bb3	0.0036837875
32	0xbdba1f21	-0.090879686
33	0xbc3494df	-0.011021822
34	0x3c797006	0.015224462
35	0xbd81cec0	-0.063382626
36	0xbb60c756	-0.00342985
37	0x3da81b4c	0.082083315
38	0x3eb57a09	0.35444668
39	0x3e935228	0.28773618
40	0xbc428fa0	-0.011875063
41	0xbe977c3d	-0.29586974
42	0xbe0ca08a	-0.13733116
43	0x3db30dda	0.08742876
44	0xbdc55fe6	-0.09637432
45	0x3e606ace	0.21915743
46	0xbdceb5a2	-0.100932375
47	0x3e21616f	0.15759824
48	0x3cf3aec0	0.029746413
49	0xbeb79868	-0.35858464
50	0x3d25af35	0.040450294
51	0xbd281eb0	-0.04104489
52	0xbbf70810	-0.007538803
53	0xbe9948a8	-0.29938245
54	0xbc9d6509	-0.019213216
55	0x3e2340b4	0.15942651
56	0xbe845b93	-0.25851116
57	0xbd99481d	-0.07484458
58	0x3eb1ce7e	0.34727854
59	0xbd9127c0	-0.0708766
60	0x3d32a3d4	0.04361327
61	0xbebbf78c	-0.367123
62	0x3e92c87b	0.2866858
63	0x3dc1c80b	0.09461983

hyper_w1.2.weight f4 [96, 64]
0	0xbf19116c	-0.5979221
1	0xbebbc1c7	-0.36671278
2	0x3eeea19b	0.4660767
3	0x3e7451df	0.23859356
4	0xbd60f011	-0.054916445
5	0x3ef83661	0.48478988
6	0xbec217fd	-0.37908927
7	0xbce459b1	-0.0278748
8	0xbd1afba3	-0.037837636
9	0xbd90ee3a	-0.07076688
10	0x3b44cfc0	0.0030031055
11	0xbe26997d	-0.16269489
12	0xbcbfbfbf	-0.023406861
13	0xbf2d6a0c	-0.6773994
14	0xbc6cfb5b	-0.014464225
15	0x3ce6d7ad	0.028179014
16	0xbd9a31cc	-0.07529029
17	0x3e071720	0.13192415
18	0x3f5051ca	0.813748
19	0x3e0c46e7	0.13698922
20	0x3b1191a7	0.002221206
21	0x3ec0cab5	0.37654653
22	0x3dda0c1e	0.106468424
23	0xbda3064e	-0.07960187
24	0x3ed89eda	0.42308694
25	0x3eebff1d	0.46093073
26	0xbd91df51	-0.07122672
27	0xbe490dca	-0.19634166
28	0x3e4f3d29	0.20238174
29	0x3e219815	0.15780671
30	0xbd40e0e9	-0.04708949
31	0xbe01b70f	-0.12667488
32	0x3f18ccf8	0.5968776
33	0x3f32c6b0	0.69834423
34	0xbec012bf	-0.37514302
35	0x3c196e3a	0.009364659
36	0x3ce52036	0.027969461
37	0x3dfc3bfa	0.12316127
38	0xbd08847e	-0.03332948
39	0x3d2ee443	0.042698156
40	0x3d5e9d94	0.054349497
41	0x3dc6691c	0.09688017
42	0xbe4a8a00	-0.19779205
43	0xbeb258db	-0.34833416
44	0xbe885f01	-0.26634982
45	0xbe4a653a	-0.19765177
46	0xbe946183	-0.28980646
47	0x3df53f0a	0.11974914
48	0x3e58def9	0.21178807
49	0xbd39fb49	-0.04540566
50	0xbe23d2a0	-0.15998316
51	0xbde14ff0	-0.11001575
52	0x3e69d554	0.22835284
53	0xbe9bb660	-0.3041258
54	0x3e14ba6f	0.14524244
55	0xbe0bc496	-0.1364921
56	0x3d2aafb9	0.04167149
57	0x3e04c003	0.12963872
58	0x3e6b1669	0.22957768
59	0xbed047b9	-0.4067972
60	0x3d58a820	0.05289471
61	0xbeee95a6	-0.46598548
62	0x3ad25efe	0.0016050038
63	0x3da17e30	0.078853965
64	0xbf44b379	-0.76836354
65	0xbed3abbd	-0.41341963
66	0x3ee6c868	0.45074773
67	0x3dcabe9c	0.09899637
68	0xbe8abc34	-0.27096713
69	0x3d1087c0	0.03528571
70	0x3dbdf48a	0.09275158
71	0xbe27989a	-0.16366807
72	0xbe800f26	-0.25011557
73	0xbd3527c7	-0.044227388
74	0x3daabc38	0.08336681
75	0xbdb93d24	-0.09044865
76	0x3e3b9a6b	0.18320625
77	0xbefbdcd1	-0.49191907
78	0xbe0eb198	-0.13934934
79	0x3e09eeb8	0.1346997
80	0xbd8ee864	-0.06977919
81	0x3e766000	0.24060059
82	0x3f54e5b2	0.8316299
83	0x3de8867e	0.11353777
84	0x3d086708	0.033301383
85	0x3e4d9928	0.20077956
86	0x3d89dcf6	0.06731598
87	0x3c889430	0.016672224
88	0x3e801ed7	0.2502353
89	0xbda9e843	-0.082962535
90	0xbdfa0cbf	-0.122094624
91	0xbe96eed3	-0.29479083
92	0x3ea2dc46	0.3180868
93	0xbe188d48	-0.14897645
94	0x3e1a42b1	0.15064503
95	0x3b304932	0.0026899097
96	0x3f013273	0.50467604
97	0x3efe2a97	0.49641868
98	0xbeaf2642	-0.34208876
99	0xbe871c4d	-0.2638878
100	0x3dfb0c0d	0.12258158
101	0xbe49a68e	-0.19692442
102	0x3e15a3e6	0.14613304
103	0x3df4f40e	0.11960612
104	0x3e20f924	0.1572004
105	0xbcbcfcd7	-0.023069782
106	0xbeb428bd	-0.3518733
107	0xbe560488	-0.20900166
108	0xbd36a5f7	-0.04459187
109	0x3cf7050d	0.030153776
110	0xbe920efb	-0.28527054
111	0x3dbfaabd	0.093587376
112	0x3d33e45d	0.043918956
113	0x3ddfcbf0	0.1092757
114	0x3caad33c	0.020852678
115	0xbe28b4c4	-0.16475207
116	0x3d753793	0.059867453
117	0xbebe6fdd	-0.3719472
118	0xbe83d5dd	-0.25749102
119	0xbe960ade	-0.29305166
120	0xbdcae83d	-0.09907577
121	0x3e02c65a	0.12770978
122	0x3e4a7754	0.19772083
123	0xbf047a06	-0.51748693
124	0xbd651894	-0.055931643
125	0xbeef6177	-0.46754047
126	0xbe39fc94	-0.18162757
127	0x3e7a0b3c	0.24418348
128	0x3f34a2bf	0.7056083
129	0x3f111605	0.56674224
130	0xbef9bc5b	-0.48776516
131	0xbe2c2654	-0.16811496
132	0x3e1e8e73	0.15484028
133	0xbc17e4c2	-0.009270849
134	0x3e7b7a65	0.24558409
135	0xbcbbf79f	-0.022945223
136	0xba9868ca	-0.0011627909
137	0x3d644662	0.055731185
138	0xbe5f1187	-0.2178403
139	0x3d1cc33d	0.03827213
140	0xbbcd8740	-0.0062722266
141	0x3f16549b	0.5872285
142	0x3cbb0101	0.022827627
143	0xbdf6087e	-0.120133385
144	0xbc21fb6c	-0.009886604
145	0xbd50d011	-0.050979678
146	0xbf4643d7	-0.77447265
147	0x3dae7494	0.08518329
148	0xbe13ba77	-0.144266
149	0xbecbf0a5	-0.39832035
150	0xbd7bf6e7	-0.06151476
151	0xbc8677d0	-0.016414553
152	0xbe83d238	-0.25746322
153	0xbdcd849e	-0.1003506
154	0x3c1aab49	0.009440252
155	0x3eaa4782	0.3325768
156	0xbe25299c	-0.16129154
157	0x3e67e5b6	0.22646222
158	0x3c9c78ab	0.019100508
159	0x3e8d3520	0.27579594
160	0xbed2e2c2	-0.41188627
161	0xbf3e5a8f	-0.7435693
162	0x3ed0f8a9	0.40814713
163	0x3de2ff1e	0.11083816
164	0xbcc250fe	-0.02372026
165	0xbb524ca0	-0.003208913
166	0x3e188387	0.14893924
167	0xbe102650	-0.14077115
168	0xbe10ad96	-0.14128718
169	0xbebb3f01	-0.36571506
170	0x3cc64e94	0.02420739
171	0x3ed2489a	0.41071016
172	0x3d3746b3	0.04474516
173	0x3e7213c4	0.23640352
174	0xbc82a1a2	-0.015946213
175	0xbdfbc95c	-0.12294266
176	0xbe11d2d3	-0.1424058
177	0x3da4b865	0.08042983
178	0x3da9baab	0.08287557
179	0x3e26de43	0.16295724
180	0x3d02e12e	0.03195303
181	0x3e2c0da4	0.16802078
182	0xbd94f698	-0.072735965
183	0x3e2f145d	0.17097612
184	0xbe14f4db	-0.1454653
185	0xbe27fbf2	-0.16404703
186	0xbe5bdf63	-0.21471934
187	0x3f003ec2	0.5009576
188	0x3cf5709d	0.029960925
189	0x3ee6244f	0.44949576
190	0x3e1c29a3	0.15250258
191	0xbd28c518	-0.04120359
192	0xbf81a107	-1.0127267
193	0xbeb3d339	-0.35122088
194	0x3e7afe47	0.24511062
195	0x3eb4cbc6	0.35311717
196	0x3f03ce18	0.5148635
197	0x3edfebd9	0.43734625
198	0xbe20398c	-0.15646952
199	0xbd158502	-0.0365038
200	0x3da8ea41	0.082478054
201	0xbe047c59	-0.1293806
202	0xbda08c78	-0.07839292
203	0x3db0cacb	0.0863243
204	0xbe0ad4c6	-0.13557729
205	0xbf075ec9	-0.52879006
206	0x3c410191	0.011780159
207	0x3e090fbc	0.13384908
208	0x3e082a02	0.13297275
209	0xbd20d249	-0.039263044
210	0x3f690c29	0.9103418
211	0x3a103da8	0.00055023516
212	0x3e3e22db	0.18567984
213	0x3e9ec39f	0.31008622
214	0x3bdf72b5	0.006819094
215	0xbd50eee8	-0.05100909
216	0x3e5de179	0.21668042
217	0x3eaf3b25	0.3422481
218	0xbd946886	-0.07246499
219	0xbe228bb0	-0.15873599
220	0x3e47e28f	0.19520019
221	0x3db7d10f	0.08975422
222	0xbdc1e025	-0.0946658
223	0xbe5eb927	-0.21750318
224	0x3f09e3e6	0.5386337
225	0x3f92bb1d	1.1463352
226	0xbeb4a6c3	-0.3528348
227	0xbe05fd0f	-0.13084815
228	0x3dcb1752	0.09916557
229	0x3e31866c	0.17336434
230	0x3c81b755	0.01583449
231	0x3df08b63	0.11745336
232	0x3e07522a	0.13214937
233	0x3e8447b9	0.2583597
234	0x3d601115	0.05470379
235	0xbe91f443	-0.2850667
236	0xbeac4175	-0.3364369
237	0xbe4f6654	-0.20253879
238	0x3dbdb4e3	0.09263017
239	0x3dbad755	0.091231026
240	0xbd586a41	-0.052835707
241	0x3c3a5076	0.011371722
242	0xbd5ca29d	-0.053866018
243	0xbddc4640	-0.107555866
244	0x3e373094	0.17889625
245	0xbea086f9	-0.31352976
246	0x3da45edf	0.08025908
247	0xbdd64407	-0.10462194
248	0x3d8b3f72	0.067992106
249	0x3cbeafd7	0.023277206
250	0x3d97ec01	0.07418061
251	0xbe12f34c	-0.14350623
252	0x3e521b6b	0.20518272
253	0xbe95206a	-0.29126292
254	0x3d45cc34	0.048290446
255	0x3e802f8e	0.2503628

hyper_w1.2.bias f4 [96]
0	0x3e880083	0.2656289
1	0x3ea48237	0.32130596
2	0xbe903093	-0.2816206
3	0x3e6c1030	0.2305305
4	0xbe60c83e	-0.21951386
5	0x3e85a182	0.26099783
6	0x3e393014	0.18084747
7	0xbe549d6a	-0.20763174
8	0xbe898701	-0.26860812
9	0x3e925121	0.2857752
10	0x3e0a5e70	0.13512588
11	0xbe45445b	-0.19264357
12	0x3e835dd0	0.2565751
13	0x3e4faf46	0.20281705
14	0x3e6069ed	0.21915407
15	0xbe7efd25	-0.24901254
16	0x3e5f877a	0.21829024
17	0x3e8892cf	0.26674506
18	0xbe2ef974	-0.17087346
19	0xbe48d725	-0.19613321
20	0x3eb2003e	0.3476581
21	0xbe80bd68	-0.25144506
22	0xbe252938	-0.16129005
23	0xbe65174d	-0.2237217
24	0x3e38a509	0.18031706
25	0xbe43ed8f	-0.1913359
26	0x3e6614a0	0.22468805
27	0xbe95333c	-0.2914065
28	0xbd95d59a	-0.07316132
29	0xbe5072ba	-0.20356265
30	0xbe8a3abd	-0.2699794
31	0xbe5fd5c7	-0.21858893
32	0xbe8eafb3	-0.27868423
33	0x3e920cf5	0.2852551
34	0x3e17632f	0.1478393
35	0x3e583078	0.2111224
36	0xbe5b551d	-0.21419187
37	0x3e8b2a87	0.27180883
38	0x3e5de4a4	0.2166925
39	0xbe36d666	-0.17855224
40	0xbe6d1b78	-0.2315501
41	0x3e84afd9	0.2591541
42	0xbdc8f7a7	-0.09812861
43	0x3e510db5	0.20415385
44	0x3e236c0d	0.15959187
45	0x3e68b419	0.22724952
46	0xbe8ab108	-0.2708819
47	0x3e4ccb3b	0.19999401
48	0xbdf95982	-0.121752754
49	0xbe11942a	-0.14216676
50	0xbe56e619	-0.20986213
51	0x3df80f13	0.1211225
52	0x3e8b4aa8	0.27205396
53	0x3ea737e0	0.32659817
54	0xbe38cd7e	-0.18047139
55	0xbe62b856	-0.22140631
56	0x3e1b0190	0.15137315
57	0x3e7915ed	0.2432477
58	0x3dd8fd37	0.10595172
59	0xbe8237a8	-0.25433087
60	0xbe8bc9d2	-0.27302414
61	0x3e87a0de	0.2648992
62	0xbd9c3e1f	-0.07629036
63	0x3eab87ef	0.33502147
64	0xbe292267	-0.1651703
65	0x3e39193e	0.18076035
66	0xbe0735ff	-0.13204192
67	0xbe50350a	-0.20332733
68	0xbe6863e1	-0.22694351
69	0x3e50a64e	0.2037594
70	0xbe3723fe	-0.17884824
71	0x3e686b3b	0.22697155
72	0x3e32d9e0	0.17465925
73	0xbe199a64	-0.15000302
74	0xbe0e7395	-0.13911279
75	0xbe60deb6	-0.21959957
76	0xbe3e57ba	-0.18588153
77	0x3dffcacc	0.12489852
78	0x3e0d1447	0.13777266
79	0xbe0f2ef8	-0.13982761
80	0xbe4eb461	-0.20185997
81	0xbdec4e50	-0.115383744
82	0xbdd3036a	-0.103033856
83	0x3e2dc231	0.1696861
84	0xbe38d94b	-0.1805164
85	0x3e021a52	0.12705353
86	0xbe030320	-0.12794161
87	0x3e61fc30	0.22068858
88	0xbde5044a	-0.11182459
89	0xbdc1c741	-0.09461833
90	0xbc314617	-0.010819933
91	0xbdd144df	-0.10218214
92	0x3e44e4a6	0.19227847
93	0x3de996bd	0.11405704
94	0x3e827a3a	0.25483876
95	0xbe915828	-0.2838757

hyper_b1.weight f4 [32, 15]
0	0xbdcd5821	-0.10026575
1	0xbe78ba04	-0.2428971
2	0x3dab5152	0.0836512
3	0xbe5142fe	-0.20435712
4	0xbe2bb0dc	-0.16766685
5	0x3e98acb2	0.29819256
6	0xbe28cde7	-0.16484796
7	0x3e28ec8b	0.16496484
8	0x3e53a93a	0.20670024
9	0xbe0ad7af	-0.1355884
10	0x3e246e85	0.16057785
11	0x3e6ee964	0.23331219
12	0x3e915a39	0.28389147
13	0xbd220571	-0.03955597
14	0x3e7326ce	0.23745272
15	0xbde3c8ea	-0.11122306
16	0xbe79b1fd	-0.24384303
17	0x3ddcdc8c	0.107842535
18	0x3e499dfa	0.1968917
19	0x3e02d8f6	0.12778077
20	0xbe86e2de	-0.2634496
21	0xbda5c737	-0.08094638
22	0x3d64aaa7	0.05582681
23	0x3e03e103	0.12878804
24	0xbe5a9e4c	-0.21349448
25	0x3e8f277a	0.27959806
26	0xbdf063f5	-0.11737815
27	0xbd697b88	-0.057002574
28	0xbde1ce18	-0.110256374
29	0x3d34fd10	0.04418665
30	0xbe1a0803	-0.15042119
31	0x3e082915	0.13296922
32	0xbdd98dfc	-0.106227845
33	0x3cb89e14	0.022536315
34	0xbd029824	-0.031883374
35	0xbe2620b2	-0.1622341
36	0xbe287448	-0.16450608
37	0x3e004401	0.12525941
38	0x3dec5fae	0.11541687
39	0xbc5ca940	-0.013468087
40	0x3dd23fa2	0.10266043
41	0x3e9ed4d8	0.31021762
42	0x3ea26fe3	0.31725988
43	0xbcc2be7f	-0.023772476
44	0x3e1789ba	0.14798632
45	0x3e929e53	0.28636417
46	0xbd546e15	-0.051862795
47	0x3e90c5fc	0.2827605
48	0xbdd01ff5	-0.10162345
49	0xbe39a750	-0.18130231
50	0x3ec88dbb	0.39170632
51	0xbe21ce04	-0.15801245
52	0x3e5bd7e6	0.21469077
53	0xbd48cfac	-0.049026176
54	0xbe5d8283	-0.21631818
55	0x3f60db24	0.8783438
56	0x3dc05866	0.09391861
57	0x3eb8dc74	0.36105692
58	0x3d886206	0.066593215
59	0xbe5e697a	-0.21719924
60	0xbe78695b	-0.2425894
61	0x3d91cdda	0.07119341
62	0xbd529e9f	-0.051420804
63	0x3d8443d7	0.06458252
64	0x3e6e7c8a	0.23289695
65	0xbd855569	-0.06510431
66	0xbe2f2107	-0.17102443
67	0x3d65c7df	0.056098815
68	0x3dde4125	0.10852269
69	0xbe80f959	-0.25190237
70	0x3ec9a1d1	0.3938127
71	0xbc2204e9	-0.009888866
72	0x3dd318ca	0.103074625
73	0xbe921818	-0.28534007
74	0x3b48c580	0.0030635297
75	0xbe9f13ad	-0.310697
76	0x3cf24d24	0.0295778
77	0x3dcf9f2e	0.10137783
78	0xbe7b5b67	-0.24546586
79	0xbe3877da	-0.1801447
80	0xbdeb7314	-0.11496559
81	0xbe471c77	-0.19444452
82	0x3e28f8c6	0.1650115
83	0x3cc5db6b	0.024152478
84	0xbe814edb	-0.25255474
85	0x3da2a36b	0.07941326
86	0x3cfc3b36	0.030789953
87	0x3e320643	0.17385201
88	0xbd9b7fc4	-0.07592729
89	0xbe6cdbd0	-0.23130727
90	0xbe88e2e3	-0.267356
91	0x3d9c9283	0.076451324
92	0x3e3ee1d6	0.18640837
93	0xbe45d9a5	-0.19321306
94	0xbdfff24a	-0.12497385
95	0x3e8028c7	0.2503111
96	0xbe92b1cb	-0.2865127
97	0x3ec0090c	0.37506902
98	0xbdc5fb9d	-0.09667132
99	0x3e6ba792	0.23013142
100	0x3f02807b	0.50977296
101	0x3e0b368e	0.1359503
102	0x3e4bcd24	0.19902474
103	0xbe56a48e	-0.2096121
104	0x3e0059e0	0.12534285
105	0xbe935c97	-0.28781578
106	0xbe2ba51e	-0.16762206
107	0xbd9d43d5	-0.076789536
108	0xbd87be59	-0.06628103
109	0x3e670d34	0.2256363
110	0xbe4540b7	-0.19262968
111	0x3cc3443c	0.023836248
112	0x3cc4d23b	0.024026027
113	0xbe0489db	-0.12943213
114	0x3e17227c	0.14759248
115	0x3e062595	0.13100274
116	0x3eadbbbc	0.33932292
117	0xbdee9b2c	-0.116506904
118	0xbd5c53ea	-0.053790964
119	0xbdca7644	-0.09885839
120	0xbf278af4	-0.654464
121	0xbdbee0ff	-0.09320258
122	0x3c88f1a9	0.016716795
123	0x3d503083	0.050827514
124	0x3dc03a38	0.09386104
125	0xbd9d0439	-0.07666821
126	0xbeb722df	-0.35768792
127	0xbc81d19b	-0.015847018
128	0xbd37912f	-0.044816192
129	0x3e008b16	0.12553057
130	0x3eb531cb	0.35389552
131	0x3e16b555	0.1471761
132	0x3df6dda7	0.120539956
133	0xbe76a96a	-0.24088064
134	0x3e0b3250	0.13593411
135	0xbeb82ada	-0.35970193
136	0xbe8af211	-0.27137807
137	0x3e2080e0	0.15674162
138	0xbe0d2bd2	-0.13786247
139	0x3d03c5a8	0.03217092
140	0xbe11054c	-0.14162177
141	0xbd6762fa	-0.056490876
142	0x3e6eb12a	0.2330977
143	0x3e2575d9	0.16158237
144	0xbe7b2719	-0.24526633
145	0x3ebec155	0.37256876
146	0x3d84cfa1	0.064849146
147	0x3e442456	0.19154486
148	0xbe91256d	-0.28348866
149	0xbde22e26	-0.11043958
150	0x3e54db40	0.20786762
151	0x3eabcb85	0.3355371
152	0x3e8a0bb7	0.26962063
153	0x3de69e7c	0.11260697
154	0xbe795d75	-0.24352057
155	0x3eebb8ed	0.46039525
156	0x3e2055d7	0.15657745
157	0x3e78dc66	0.24302825
158	0xbe717306	-0.23579034
159	0xbe48c4ab	-0.19606273
160	0x3f34d829	0.70642334
161	0x3ec694a9	0.38785294
162	0x3ddab3c6	0.1067882
163	0x3cdd5c88	0.027021661
164	0xbe52e278	-0.20594203
165	0xbef86c2a	-0.48520023
166	0xbe2a2ce9	-0.16618694
167	0xbd1bda94	-0.03805025
168	0xbcadd3d8	-0.021219179
169	0xbce216e8	-0.027598813
170	0xbd437a43	-0.04772402
171	0xbed39203	-0.41322336
172	0xbe16a1ef	-0.1471021
173	0xbddf6915	-0.10908715
174	0xbc9abec0	-0.018889785
175	0x3e55e246	0.20887098
176	0xbe018200	-0.12647247
177	0xbd9c8e7d	-0.07644365
178	0x3ddc9b47	0.10771804
179	0xbe2e04ca	-0.16994014
180	0x3e3c4d66	0.183889
181	0x3e77e53c	0.2420854
182	0x3e90cfa8	0.2828343
183	0xbd5d8326	-0.05408015
184	0xbda8c608	-0.082408965
185	0x3e4ac638	0.19802177
186	0x3e9366d4	0.2878939
187	0x3e09552f	0.13411401
188	0x3e8d2d77	0.2757375
189	0x3e5e1690	0.21688294
190	0x3f1613d4	0.58624005
191	0x3d9579b2	0.07298602
192	0x3e900b88	0.28133798
193	0xbd80f322	-0.06296374
194	0x3e3469e4	0.17618519
195	0xbf0a36d4	-0.5398991
196	0xbeac12a7	-0.3360798
197	0x3e175d99	0.14781798
198	0xbe2255b7	-0.1585301
199	0x3c3b9680	0.011449456
200	0xbdbb91a5	-0.09158639
201	0xbe8484a2	-0.2588244
202	0xbd174a59	-0.036936138
203	0xbd2cece5	-0.042218108
204	0xbe806c5d	-0.25082675
205	0x3e9ea6ae	0.30986542
206	0x3e9e7488	0.3094828
207	0x3d1beac1	0.038065676
208	0xbda48923	-0.08033969
209	0xbe445550	-0.19173169
210	0xbe1f79f4	-0.15573865
211	0x3e8420e6	0.2580635
212	0x3e6f089f	0.23343132
213	0xbdd92b20	-0.106039286
214	0x3e531480	0.20613289
215	0xbe09d3c8	-0.13459694
216	0x3e968ccb	0.29404292
217	0x3e8d836f	0.27639338
218	0xbc0a3867	-0.008436299
219	0x3d943cdc	0.072381705
220	0x3e8e4d28	0.2779324
221	0x3efd8748	0.49517274
222	0x3d2ef8ad	0.042717624
223	0xbdd96d00	-0.10616493
224	0x3e16589c	0.1468224
225	0x3e96854d	0.29398575
226	0x3e431d0b	0.19054048
227	0x3eca55a5	0.39518467
228	0x3e576495	0.21034463
229	0x3e817787	0.25286505
230	0x3dd60d2a	0.104517296
231	0x3e3b2245	0.18274792
232	0xbd091191	-0.03346402
233	0xbdacef75	-0.0844411
234	0x3e4803bc	0.19532675
235	0x3f1619d6	0.5863317
236	0x3f033f36	0.5126833
237	0x3ecf15d4	0.4044634
238	0xbe9dbbbe	-0.30807298
239	0x3e71f55e	0.23628756
240	0xbf0bc193	-0.54592246
241	0x3e099d7a	0.13438979
242	0x3d5dc844	0.054146066
243	0x3d09ac87	0.0336118
244	0xbc94b7d0	-0.018154055
245	0xbd621be1	-0.05520237
246	0xbed2870e	-0.41118664
247	0x3e8afb69	0.27144936
248	0x3d4a76b1	0.0494296
249	0xbb3f1e80	-0.0029162467
250	0x3ee130b1	0.4398246
251	0x3e1480f3	0.14502315
252	0x3e148311	0.14503123
253	0xbe454c23	-0.19267325
254	0x3e1344e0	0.14381742
255	0xbecab2c1	-0.39589503

hyper_b1.bias f4 [32]
0	0x3e09e7f8	0.13467395
1	0x3e5636c2	0.20919326
2	0x3e86f3a7	0.26357767
3	0x3e1df3b3	0.15424995
4	0x3ed900e3	0.4238349
5	0x3ef6080f	0.48053023
6	0x3e86a78e	0.2629971
7	0x3e3518cb	0.17685239
8	0x3eb9552b	0.3619779
9	0x3e45c411	0.19313075
10	0x3eb4fdf0	0.3534999
11	0x3ee7dfcd	0.45287934
12	0x3ee068d9	0.43829992
13	0x3ece3833	0.40277252
14	0x3e5c4678	0.21511257
15	0x3df8dba9	0.12151272
16	0x3ea48640	0.32133675
17	0x3ed34c29	0.41269043
18	0x3e851997	0.25996086
19	0x3e813ace	0.25240177
20	0x3ed1cc95	0.40976396
21	0x3ecc371b	0.39885792
22	0x3f03219c	0.5122316
23	0x3e265a90	0.16245484
24	0x3e88efd5	0.26745477
25	0x3ec37842	0.38177687
26	0x3eb4480f	0.35211226
27	0x3e9db404	0.30801404
28	0x3e4b8187	0.1987363
29	0x3e94ad99	0.29038695
30	0x3ede09a4	0.4336673
31	0x3ebf46a4	0.37358582

hyper_w2.0.weight f4 [64, 15]
0	0xbe647a66	-0.22312316
1	0xbd92981a	-0.07157917
2	0xbe8aef59	-0.27135733
3	0xbefecdbe	-0.49766344
4	0x3da01a6c	0.078175396
5	0x3e85c5e4	0.2612754
6	0xbe031d0d	-0.1280405
7	0xbe079cfd	-0.1324348
8	0xbda2156d	-0.07914243
9	0xbe47ff3c	-0.19530958
10	0xbd8d1e4f	-0.068905465
11	0x3df91657	0.12162464
12	0xbd970368	-0.073736966
13	0x3e602438	0.21888816
14	0x3c5e29c0	0.013559759
15	0x3c9bc12f	0.019013016
16	0x3ed3cf8e	0.4136929
17	0xbda46705	-0.08027462
18	0x3e85aae1	0.26106933
19	0xbe03b022	-0.12860158
20	0x3ec2003b	0.378908
21	0x3d2be88b	0.041969817
22	0x3e62f86b	0.22165076
23	0x3ddafa7b	0.106923066
24	0x3e39bcbc	0.18138403
25	0xbe9a5e2c	-0.30149972
26	0xbdd84e53	-0.10561814
27	0x3e2d022a	0.16895357
28	0x3d2e6457	0.04257616
29	0xbddf90a8	-0.10916263
30	0x3c20f7fb	0.009824748
31	0xbe55ce70	-0.20879531
32	0x3ec5cdee	0.38633674
33	0x3ea5df1c	0.3239678
34	0xbdcb18a8	-0.09916812
35	0xbea61724	-0.3243953
36	0x3da740f8	0.08166689
37	0x3eac5f66	0.33666533
38	0xbd6d1527	-0.0578815
39	0xbe10d6eb	-0.14144485
40	0xbe38085f	-0.17971943
41	0xbe0be52d	-0.13661642
42	0xbe608ee0	-0.21929502
43	0xbd0b0756	-0.033942543
44	0x3e6955d6	0.2278665
45	0x3d234f8e	0.03987079
46	0xbe4f4507	-0.20241176
47	0xbd052e7c	-0.032515034
48	0x3e2cf3e3	0.1688991
49	0xbe11f49e	-0.1425347
50	0xbeb10c15	-0.3457953
51	0x3e636e79	0.2221011
52	0x3d8d9d9d	0.06914828
53	0x3e72dfb6	0.23718151
54	0xbe1f9e84	-0.15587813
55	0x3d4bcabc	0.04975389
56	0xbe6298cf	-0.22128604
57	0xbecabf68	-0.39599156
58	0x3d5c68ea	0.05381099
59	0xbe5fc53d	-0.21852584
60	0x3d537e3b	0.051634055
61	0x3d72205a	0.059112884
62	0xbe7cca41	-0.24686529
63	0xbd74c46e	-0.059757642
64	0x3e7e41ba	0.2482976
65	0xbe94a32b	-0.29030737
66	0x3e1957fb	0.14974968
67	0x3d316c3b	0.043316107
68	0x3e659b3d	0.224225
69	0xbe6e3472	-0.23262194
70	0x3e705061	0.23468162
71	0x3e338c0a	0.1753389
72	0xbe8325e0	-0.25614834
73	0x3ba54692	0.005043813
74	0x3e82c0cd	0.2553772
75	0xbe638fcf	-0.22222827
76	0x3e7d9447	0.24763595
77	0xbe008ac7	-0.1255294
78	0x3e6d178d	0.23153515
79	0x3deb6fa4	0.11495903
80	0xbe693060	-0.2277236
81	0xbeab61ab	-0.33472952
82	0x3e8c0435	0.2734696
83	0x3d6e13b1	0.058124248
84	0x3dd288ec	0.10280022
85	0xbd0b09c4	-0.03394486
86	0x3ea810b1	0.32825235
87	0x3e5034d7	0.20332657
88	0x3de8fdd1	0.11376537
89	0x3dba4ec8	0.090970576
90	0x3e9442e6	0.2895729
91	0xbc50de8e	-0.012748374
92	0xbe038731	-0.1284454
93	0x3c1e8e03	0.009677413
94	0x3dafa0d4	0.085755974
95	0x3e90abb3	0.28255996
96	0xbd6b2532	-0.05740852
97	0x3e2c89c0	0.16849422
98	0xbd83d6ac	-0.0643743
99	0x3e611bd4	0.21983272
100	0x3e8ff69f	0.28117844
101	0xbcfb1677	-0.03065036
102	0xbdd03880	-0.101670265
103	0x3daeacc9	0.0852905
104	0xbe503571	-0.20332886
105	0xbda9e068	-0.08294755
106	0x3e9ce34f	0.30642173
107	0x3ccd74c6	0.025080096
108	0x3cc1077d	0.023563141
109	0xbe81f81a	-0.253846
110	0x3e0de320	0.13856173
111	0x3e8d7b67	0.2763321
112	0x3bc6ab65	0.0060629123
113	0x3d88d1f5	0.06680671
114	0xbe6231a7	-0.22089253
115	0x3e089a9e	0.13340232
116	0x3d5af98e	0.05346065
117	0x3de50199	0.11181945
118	0xbe75f4bf	-0.24019144
119	0x3c6885e0	0.014192075
120	0xbe629520	-0.22127199
121	0xbebe0dab	-0.37119803
122	0x3e227555	0.15865071
123	0xbce70443	-0.028200274
124	0x3d3d4798	0.046210855
125	0x3e024a19	0.12723579
126	0x3e8eb7ac	0.27874506
127	0x3e8c126a	0.273578
128	0x3e2c5431	0.16828991
129	0x3db87308	0.090063155
130	0x3e545de5	0.20738943
131	0x3e626506	0.2210885
132	0x3e6892dd	0.22712274
133	0xbe0d7baa	-0.13816705
134	0xbc95fb98	-0.018308446
135	0x3ec03afc	0.37545002
136	0xbea32c5a	-0.31869775
137	0xbd766990	-0.060159266
138	0xbe1ea519	-0.15492667
139	0x3e3cb1e4	0.18427235
140	0xbdad49ed	-0.08461366
141	0xbe1d2b3c	-0.15348524
142	0xbe4566d6	-0.1927751
143	0x3dd34419	0.10315723
144	0xbe5cc7be	-0.2156057
145	0x3e7ad4f7	0.24495302
146	0xbd9f8609	-0.07789237
147	0xbccb74cf	-0.024835972
148	0x3e817855	0.2528712
149	0x3d957b6c	0.072989315
150	0x3e91707e	0.28406137
151	0x3e3362fe	0.17518231
152	0xbe6356b6	-0.22201046
153	0xbebcf7da	-0.36907846
154	0x3e349e3c	0.17638487
155	0x3e6f0dd4	0.23345119
156	0x3cb8176f	0.022472112
157	0xbd52e2e9	-0.05148593
158	0xbe49c10b	-0.19702546
159	0xbe7834c7	-0.24238883
160	0xbec84c5f	-0.39120767
161	0xbea9c13e	-0.33155245
162	0xbe3f5871	-0.18686081
163	0x3e4f6e2f	0.20256875
164	0x3de942e8	0.113897145
165	0x3eb8375d	0.3597974
166	0xbef93387	-0.48672125
167	0x3ecabafa	0.39595777
168	0x3ea5b2bd	0.3236293
169	0x3e157e92	0.14599064
170	0x3e9393c9	0.2882369
171	0xbe1a8a6d	-0.15091868
172	0x3e039fda	0.12853947
173	0x3d47de28	0.04879585
174	0x3dd66f04	0.10470393
175	0x3ec57240	0.38563728
176	0x3e7b258b	0.2452604
177	0x3e3218af	0.17392229
178	0xbd98b564	-0.074564725
179	0x3de27a0c	0.11058435
180	0x3dbb05c8	0.09131962
181	0x3d012129	0.031525765
182	0x3d51b040	0.051193476
183	0xbd83f0be	-0.06442402
184	0xbd845066	-0.06460647
185	0xbd4f9e02	-0.050687797
186	0x3d8f6573	0.07001772
187	0xbe76094e	-0.24026987
188	0x3d3c84b8	0.046025008
189	0x3da3a1bc	0.07989833
190	0xbe2470ff	-0.1605873
191	0xbe23f003	-0.16009526
192	0xbd2758e0	-0.040856242
193	0xbe35e126	-0.17761669
194	0xbd8c6e80	-0.06857014
195	0xbe30c2c2	-0.17261794
196	0xbd2059ee	-0.039148264
197	0x3b25ff69	0.0025329238
198	0xbe42e42e	-0.19032356
199	0xbc3662c0	-0.011131942
200	0xbde507a6	-0.111830994
201	0x3d35c722	0.04437936
202	0xbd2e85b6	-0.042607985
203	0x3e632765	0.22182997
204	0x3c20dd80	0.009818435
205	0xbcb3e40c	-0.021959327
206	0x3e8a217a	0.26978666
207	0x3d6a137a	0.05714748
208	0xbe06702c	-0.13128728
209	0x3c772fc0	0.015087068
210	0x3c32d71b	0.010915543
211	0xbe1ac66a	-0.15114751
212	0x3e6ee7bd	0.23330589
213	0x3e937066	0.2879669
214	0xbdd61650	-0.104534745
215	0x3e104813	0.14089994
216	0x3c5da0c5	0.0135271
217	0xbe0cf54d	-0.1376545
218	0x3e716fb1	0.23577763
219	0x3d8ea170	0.069643855
220	0xbe08e919	-0.1337017
221	0xbdfc76b4	-0.12327328
222	0x3da27450	0.07932341
223	0xbdc38672	-0.09547128
224	0x3d9f879c	0.07789537
225	0x3cd4d1ac	0.025978886
226	0xbbc30f34	-0.00595274
227	0xbc951b1b	-0.018201401
228	0x3e0aaf2b	0.13543384
229	0x3d1b8690	0.037970126
230	0xbd68195b	-0.056664806
231	0xbd84ec5c	-0.064903945
232	0xbbb3cdbd	-0.0054871724
233	0x3d73254e	0.05936175
234	0xbe079fbb	-0.13244526
235	0x3dd4a622	0.1038325
236	0x3e0b5740	0.13607502
237	0x3df03dfc	0.117305726
238	0x3e383220	0.17987871
239	0x3e24d35c	0.16096252
240	0xbeb6bce0	-0.35690975
241	0x3ec6ad54	0.38804114
242	0x3e1929af	0.14957307
243	0xbe209fd0	-0.15685964
244	0xbe0d5baa	-0.13804498
245	0xbe1063d6	-0.14100584
246	0xbea57ee7	-0.3232338
247	0x3eb8bee8	0.3608315
248	0xbc523142	-0.012829127
249	0x3e5b9358	0.21442926
250	0xbe310bc4	-0.17289644
251	0xbf3ddb24	-0.7416251
252	0xbf038152	-0.513692
253	0x3e919442	0.28433424
254	0x3e7bdf62	0.24596933
255	0x3dc79bd9	0.097465225

hyper_w2.0.bias f4 [64]
0	0x3e99982f	0.2999892
1	0xbe1340e3	-0.14380221
2	0xba3eb1af	-0.0007274402
3	0x3e7d666b	0.247461
4	0x3e9f94e3	0.3116828
5	0x3e9c8e9c	0.30577552
6	0x3e6ec802	0.23318484
7	0xbede9ce7	-0.43479082
8	0x3cd46f16	0.025931876
9	0x3e407ee9	0.18798412
10	0xbd906da0	-0.07052159
11	0x3d0425d3	0.032262634
12	0xbe42f2ca	-0.19037929
13	0x3ee578a5	0.44818607
14	0x3ec6360f	0.38713118
15	0x3edd72e5	0.4325172
16	0xbe630621	-0.22170307
17	0xbe492681	-0.19643594
18	0x3d4c1a8b	0.04983
19	0xbe51a161	-0.20471717
20	0x3ebb2142	0.3654881
21	0x3eccc70d	0.39995614
22	0xbe1796f3	-0.14803676
23	0xbd4880b6	-0.048950873
24	0xbe8304e0	-0.25589657
25	0x3ec9919e	0.3936891
26	0x3e847bc1	0.25875667
27	0xbe4cbe60	-0.19994497
28	0xbeec6161	-0.46168044
29	0x3cf51dc4	0.02992142
30	0x3edeff9b	0.43554386
31	0xbe1a9b69	-0.15098347
32	0x3e0f7be8	0.1401211
33	0xbde8061c	-0.1132929
34	0x3eb26944	0.34845936
35	0x3e7aa75b	0.24477904
36	0xbe729333	-0.23688965
37	0xbeb66515	-0.35623994
38	0x3c9b8178	0.018982634
39	0xbdde87ca	-0.108657435
40	0xbc0e198a	-0.008673081
41	0xbc69a16d	-0.014259678
42	0x3e957e53	0.2919794
43	0xbe8133c5	-0.2523481
44	0x3e99d723	0.3004695
45	0x3ed8e6c7	0.4236357
46	0x3ecec8d9	0.4038761
47	0x3eefb250	0.4681573
48	0xbe88a3f9	-0.266876
49	0xbb20acc8	-0.0024517048
50	0xbe723ee1	-0.23656799
51	0x3eaa80a7	0.3330128
52	0x3e016593	0.12636404
53	0x3da46617	0.080272846
54	0xbe21985a	-0.15780774
55	0x3e8bbe4b	0.2729362
56	0xbc8ae207	-0.016953481
57	0x3cc248cd	0.023716355
58	0xbe26d069	-0.1629044
59	0xbebb81b1	-0.36622384
60	0x3ea6005f	0.32422158
61	0xbe937388	-0.2879908
62	0x3e4ebb76	0.20188698
63	0xbe08bb18	-0.1335262

hyper_w2.2.weight f4 [32, 64]
0	0xbe13d0c4	-0.14435107
1	0x3e8d2222	0.27565104
2	0xbe8cca6c	-0.27498186
3	0xbd87803c	-0.06616256
4	0xbd859875	-0.065232195
5	0xbe3a7d78	-0.18211925
6	0x3e1196b1	0.1421764
7	0x3f2f5ad9	0.68498
8	0x3b92e70e	0.0044831103
9	0x3e190ca5	0.1494623
10	0x3e2b62e6	0.16736946
11	0x3e057204	0.13031775
12	0x3c7e98ca	0.015539357
13	0xbd1bfb50	-0.038081467
14	0xbe273e5c	-0.16332382
15	0xbdc6319b	-0.0967743
16	0x3e614e43	0.2200251
17	0x3ea30410	0.31839037
18	0x3e41af35	0.18914492
19	0xbe09872c	-0.1343047
20	0x3a1b23c4	0.000591811
21	0xbda6a17a	-0.08136268
22	0x3e9166f8	0.2839887
23	0x3d177006	0.03697207
24	0x3e8307b7	0.25591823
25	0xbd8c7b8b	-0.068595015
26	0x3e23518c	0.15949076
27	0xbed21931	-0.41034845
28	0x3f08fb0f	0.53508085
29	0x3d5470d8	0.05186543
30	0xbe109ce8	-0.14122355
31	0x3ec6bb64	0.38814843
32	0xbe813ceb	-0.2524179
33	0x3ef64bb6	0.48104638
34	0x3db008ca	0.085954264
35	0x3cac87df	0.021060882
36	0x3e96cf94	0.29455245
37	0x3ee6d73b	0.45086083
38	0x3e8cd28c	0.27504385
39	0xbea270ab	-0.31726584
40	0xbd448c86	-0.047985576
41	0x3e021f81	0.1270733
42	0xbe42520c	-0.18976611
43	0x3f15bdc0	0.5849266
44	0x3d125350	0.035723984
45	0xbe98db35	-0.29854742
46	0xbdd32c89	-0.10311229
47	0x3d068ab3	0.032847118
48	0x3e08c326	0.13355693
49	0xbe9d7b30	-0.30758047
50	0x3c8eddb8	0.017439708
51	0xbe4cb89e	-0.19992301
52	0xbcda31a4	-0.026634999
53	0xbe57c96c	-0.2107293
54	0xbe38d775	-0.1805094
55	0x3c9f2d1c	0.01943069
56	0x3db52e4c	0.08846721
57	0x3e9f5826	0.3112194
58	0x3e924bf5	0.28573576
59	0x3ec4caa9	0.38435867
60	0xbe84662d	-0.25859204
61	0x3eb5d35c	0.35512817
62	0x3c5b13d7	0.013371429
63	0x3e86df6d	0.26342335
64	0x3c740bc4	0.014895383
65	0x3e14750c	0.14497775
66	0xbe8ca5d7	-0.27470276
67	0xbdcfbd78	-0.1014356
68	0xbe5c3324	-0.21503884
69	0xbdd4b587	-0.10386186
70	0xbd8a1929	-0.0674308
71	0x3e7eb208	0.24872601
72	0xbe521a49	-0.2051784
73	0xbe2116cd	-0.15731354
74	0x3e871560	0.26383495
75	0xbe615bee	-0.22007725
76	0xbd7ab49d	-0.061207402
77	0xbe6613d6	-0.22468504
78	0xbe557d6c	-0.20848626
79	0xbe671405	-0.2256623
80	0x3edea669	0.43486336
81	0x3e1b3957	0.15158592
82	0x3e93523c	0.28773677
83	0x3d38340f	0.044971522
84	0xbd80b9de	-0.06285451
85	0xbe2562b9	-0.16150941
86	0x3f0df269	0.55448014
87	0xbc864147	-0.016388549
88	0x3ec64e54	0.38731635
89	0xbde84ffe	-0.11343382
90	0xbe192167	-0.14954148
91	0xbe3e082e	-0.18557808
92	0x3dc3f6a0	0.09568524
93	0xbe4fc9b7	-0.20291792
94	0xbe25602b	-0.16149966
95	0xbc64572a	-0.013936797
96	0xbd8ce60c	-0.068798155
97	0x3e1ae72a	0.15127245
98	0xbcdb9a8a	-0.026807088
99	0xbe54b4a1	-0.2077203
100	0x3e83d1a8	0.25745893
101	0x3ea6d54d	0.3258461
102	0x3e732da1	0.23747875
103	0x3d6ffdef	0.05859178
104	0xbe753287	-0.23945056
105	0xbe360a8c	-0.17777461
106	0xbe219b66	-0.15781936
107	0xbd4bcb0d	-0.04975419
108	0xbe648f7e	-0.22320363
109	0xbdfc99cc	-0.12334022
110	0xbe786c62	-0.24260095
111	0xbe8aa19a	-0.27076417
112	0xbd45b55b	-0.048268657
113	0xbea13a67	-0.3148987
114	0x3d8635ea	0.06553252
115	0xbd85102e	-0.06497227
116	0xbda2074d	-0.07911549
117	0xbd04503d	-0.032303084
118	0xbe2f02e9	-0.17090954
119	0xbe304f93	-0.17217855
120	0xbd7e93e6	-0.062152766
121	0x3e3cad4a	0.1842548
122	0x3cdd1582	0.026987795
123	0x3ef0a287	0.46999
124	0xbebcfb1d	-0.36910334
125	0x3e85bb24	0.2611934
126	0xbea982e1	-0.33107665
127	0x3e59d55b	0.21272795
128	0xbd9120f2	-0.07086362
129	0x3e7e0f62	0.24810556
130	0xbe1a0e5e	-0.15044543
131	0xbca8fb17	-0.020627541
132	0xbd035dd2	-0.032071896
133	0x3dce379d	0.10069201
134	0xbe07951b	-0.13240473
135	0x3f0a94aa	0.54133093
136	0xbe01b4c7	-0.12666617
137	0xbd6adb83	-0.05733825
138	0x3e3a80a9	0.18213142
139	0xbe1393c2	-0.14411834
140	0x3dcf289c	0.101151675
141	0x3d731565	0.059346575
142	0xbdf7a1a4	-0.120913774
143	0xbe05498c	-0.13016337
144	0x3ea6e016	0.3259284
145	0x3e106b25	0.14103372
146	0x3eae9ff1	0.341064
147	0xbd9237c0	-0.0713954
148	0x3cc75556	0.024332684
149	0xbcac2441	-0.021013381
150	0x3eb91f0c	0.361565
151	0x3dd87364	0.10568884
152	0x3ec6bdab	0.3881658
153	0xbcd584d6	-0.026064318
154	0xbde22011	-0.110412724
155	0xbf061d1a	-0.52388155
156	0x3eda596f	0.42646357
157	0x3dcef4b7	0.101052694
158	0xbe2d4963	-0.16922526
159	0x3e927e4a	0.28611976
160	0xbe199385	-0.1499768
161	0x3eab21c8	0.3342421
162	0x3dbfa9fb	0.09358593
163	0xbdb00a56	-0.085957214
164	0x3e238701	0.15969469
165	0x3ef89bb8	0.48556304
166	0x3eae994d	0.34101334
167	0xbe3f49f3	-0.18680553
168	0x3da8e378	0.08246511
169	0x3d31063c	0.043218836
170	0xbc01cbae	-0.007922096
171	0x3e99012c	0.29883707
172	0xbd17af88	-0.037032634
173	0xbe3491e8	-0.17633784
174	0xbe2cf595	-0.16890557
175	0xbda036cc	-0.07822952
176	0x3eab0553	0.334025
177	0xbe476949	-0.19473757
178	0x3da87d30	0.082270026
179	0xbe406b75	-0.18790992
180	0x3d86dbba	0.06584878
181	0xbe31813b	-0.17334454
182	0xbdb1dd13	-0.08684745
183	0x3dfa6770	0.122267604
184	0x3a5f6609	0.00085219793
185	0x3e9d933f	0.30776402
186	0x3ea86c22	0.32895
187	0x3eaf7796	0.34270924
188	0xbe5a239a	-0.21302643
189	0x3f025ddf	0.50924486
190	0xbe6de121	-0.23230411
191	0x3ea3a24d	0.31959763
192	0xbea7bdcc	-0.3276199
193	0x3e04f405	0.12983711
194	0xbed7c6b4	-0.42143786
195	0xbe7227fa	-0.23648062
196	0xbe66351e	-0.224812
197	0xbe824a8d	-0.25447503
198	0x3da6b8b4	0.08140698
199	0x3ebcffe1	0.3691397
200	0x3d3020c1	0.042999987
201	0x3d82a22a	0.063785866
202	0x3d3f85cc	0.046758458
203	0x3c18b48e	0.009320391
204	0xbdc37c3d	-0.09545181
205	0xbea06307	-0.31325552
206	0xbe0544d2	-0.13014534
207	0xbdc469fc	-0.095905274
208	0x3e0eb15e	0.13934848
209	0x3ed33960	0.4125471
210	0x3e718aad	0.23588057
211	0xbcc27feb	-0.023742637
212	0x3d87f35f	0.06638216
213	0xbe1335a7	-0.14375935
214	0x3eae197d	0.3400382
215	0x3dcbde8b	0.09954556
216	0x3e0da8bf	0.13833903
217	0xbcd14f98	-0.025550649
218	0xbdcb30eb	-0.0992144
219	0xbe98a971	-0.29816774
220	0x3f05f38b	0.5232474
221	0x3e91d506	0.28482836
222	0xbe70dc9a	-0.23521653
223	0x3e4ed11e	0.2019696
224	0xbcde2457	-0.027116938
225	0x3e79c699	0.24392165
226	0xbdfe945d	-0.12430642
227	0xbe32b6d8	-0.17452562
228	0x3d8de868	0.069290936
229	0x3f03d9c5	0.51504165
230	0x3e5b0a2c	0.21390599
231	0xbee70fa4	-0.4512912
232	0x3e8c17e4	0.27361977
233	0x3e2b17b9	0.16708268
234	0xbee553a3	-0.44790372
235	0x3f00e8d5	0.50355273
236	0xbdfe28c5	-0.1241012
237	0xbe981612	-0.29704338
238	0xbcec154c	-0.028818749
239	0xbe800459	-0.25003317
240	0x3ed00987	0.4063227
241	0x3c85c7e4	0.016330667
242	0x3dd4f214	0.10397735
243	0xbca5dc22	-0.020246569
244	0xbcebe783	-0.028796917
245	0xbe90c6d0	-0.28276682
246	0xbe8abd5d	-0.27097598
247	0x3d1d0c6a	0.038341917
248	0x3de781a9	0.113040276
249	0x3dc65ef8	0.096860826
250	0x3e945a01	0.28974918
251	0x3e8cbc02	0.2748719
252	0xbe88f710	-0.26750994
253	0x3ec0a881	0.37628558
254	0x3e381ba6	0.17979297
255	0x3eb55020	0.35412693

hyper_w2.2.bias f4 [32]
0	0xbeafc989	-0.34333447
1	0xbea1de49	-0.31614903
2	0xbeaba6fe	-0.33525842
3	0xbeb1b13d	-0.34705535
4	0x3ea47080	0.3211708
5	0x3ed05ca5	0.40695682
6	0x3e92e903	0.286934
7	0x3e98fb26	0.2987911
8	0xbe8eda50	-0.27900934
9	0x3eb38858	0.3506496
10	0xbec22961	-0.37922195
11	0x3e706e97	0.23479687
12	0xbe8c9d25	-0.27463642
13	0x3ea3795d	0.3192853
14	0xbe907887	-0.28216955
15	0x3ea97738	0.3309877
16	0xbea022cb	-0.31276545
17	0x3e935a06	0.2877962
18	0xbe72b933	-0.2370346
19	0xbee76193	-0.4519163
20	0xbeb50006	-0.3535158
21	0xbf00f643	-0.50375766
22	0x3e968043	0.2939473
23	0xbe8084ec	-0.2510141
24	0xbe802ddd	-0.2503499
25	0xbeb91a37	-0.36152813
26	0x3e625510	0.22102761
27	0xbe8d97d4	-0.27654898
28	0xbeb3b36a	-0.3509782
29	0x3ece9eb0	0.40355444
30	0xbebe092d	-0.37116376
31	0x3e9b2e8b	0.30308947

hyper_b2.0.weight f4 [32, 15]
0	0xbf23fdbb	-0.64059037
1	0x3da218d5	0.079148926
2	0xbe005b9a	-0.12534943
3	0xbe31f226	-0.17377529
4	0x3c537de0	0.012908429
5	0x3e0ccb72	0.13749483
6	0xbe97ca97	-0.2964675
7	0xbe10d093	-0.14142065
8	0xbd9d4626	-0.076793954
9	0xbda60206	-0.08105855
10	0x3efe3bf4	0.49655116
11	0xbe596d7e	-0.21233174
12	0xbe84beea	-0.25926906
13	0xbd421bad	-0.047389675
14	0xbd3feb50	-0.04685527
15	0xbeedd404	-0.46450818
16	0xbed10e45	-0.408312
17	0xbe8f5614	-0.2799536
18	0xbe975b0a	-0.29561645
19	0x3e324dc0	0.17412472
20	0x3ddae2c1	0.10687781
21	0xbec65e4b	-0.38743815
22	0xbe871532	-0.26383358
23	0xbcfaeef4	-0.03063152
24	0x3d64a6b8	0.055823058
25	0x3ecda1af	0.40162417
26	0xbd13a090	-0.036041796
27	0xbe7c2995	-0.24625237
28	0xbe81fca0	-0.2538805
29	0xbe3fff50	-0.18749738
30	0xbf18aa54	-0.596349
31	0xbf3d93df	-0.7405376
32	0xbe682bc6	-0.22672948
33	0x3e1499e4	0.1451183
34	0x3decc104	0.11560252
35	0x3e045b47	0.12925445
36	0xbdaf5db7	-0.085627966
37	0xbe0e2a5a	-0.13883343
38	0xbdb9c7e1	-0.09071327
39	0x3dfe71d0	0.12424052
40	0x3ee84041	0.45361522
41	0xbefe70bb	-0.49695382
42	0xbe872507	-0.26395437
43	0xbe5500c7	-0.20801078
44	0x3df60708	0.1201306
45	0xbf08e193	-0.534692
46	0x3dcd3e1a	0.100216106
47	0xbdc48477	-0.09595578
48	0xbe94d4ca	-0.29068595
49	0x3e7cbfd6	0.24682555
50	0x3f030fd4	0.51196027
51	0xbf26c94a	-0.6515089
52	0xbe574c41	-0.21025182
53	0xbd67bfa0	-0.056579232
54	0x3e7fd702	0.24984363
55	0x3dfc4f36	0.12319796
56	0x3c0a8dc3	0.00845665
57	0xbe463d5e	-0.19359347
58	0xbde41569	-0.11136896
59	0x3e784ca6	0.24247989
60	0xbef4a408	-0.47781396
61	0xbe5c0e6b	-0.21489875
62	0x3e6ad9be	0.22934625
63	0x3cc78f63	0.024360364
64	0x3e32c47a	0.17457762
65	0xbdbcefc0	-0.09225416
66	0xbeee0d62	-0.46494585
67	0x3e4a1b23	0.19736914
68	0x3e5cc102	0.21558002
69	0x3e5d0d3c	0.2158708
70	0x3f590651	0.84775263
71	0x3f56b227	0.8386559
72	0xbf81a22a	-1.0127614
73	0xbef489aa	-0.4776128
74	0x3d6b0ca8	0.057385117
75	0x3ee688ee	0.45026344
76	0xbf10e00d	-0.56591874
77	0x3f061495	0.52375156
78	0x3dcdd7bb	0.10050913
79	0x3dc4f50c	0.096170515
80	0x3f214872	0.6300117
81	0x3e6f0a2e	0.23343727
82	0x3e0a7c39	0.1352395
83	0x3eab569b	0.33464512
84	0x3cb72830	0.02235803
85	0x3ebc5cba	0.36789495
86	0xbf2d7352	-0.6775409
87	0x3f42a62f	0.76034826
88	0x3f09c431	0.5381499
89	0xbe3c1056	-0.18365607
90	0x3f28725d	0.65799505
91	0x3e8d7f50	0.27636194
92	0x3f878e5d	1.0590321
93	0x3f6de348	0.9292493
94	0x3e47bf78	0.19506633
95	0x3ee21cae	0.44162506
96	0x3f3e6a3e	0.7438086
97	0x3f888c43	1.0667804
98	0x3f14fc4f	0.5819749
99	0xbe82d5bf	-0.255537
100	0x3e893dc8	0.26804948
101	0xbd6e538a	-0.058185138
102	0x3f2d5749	0.6771131
103	0x3edc7175	0.4305531
104	0xbdedce1a	-0.116115764
105	0x3e38aa8a	0.18033805
106	0xbf97eb42	-1.186867
107	0x3f97e7fb	1.186767
108	0xbec9ff86	-0.3945276
109	0x3e596c76	0.21232781
110	0xbdf3088e	-0.11866866
111	0xbdc96acb	-0.09834822
112	0xbeacabcc	-0.3372482
113	0x3e513ad2	0.20432594
114	0xbdff9f76	-0.12481587
115	0xbddbc0a8	-0.10730106
116	0x3e12bb51	0.14329268
117	0x3e6d9550	0.2320149
118	0x3e1465e9	0.14492
119	0xbda3a128	-0.079897225
120	0xbe72851a	-0.23683587
121	0x3b828fe2	0.0039844373
122	0xbe61de6d	-0.22057505
123	0x3e0dd635	0.13851245
124	0xbe3d7bd5	-0.1850427
125	0x3ddd1c4b	0.10796412
126	0xbedd57e3	-0.43231115
127	0xbe03976f	-0.12850736
128	0xbe00447e	-0.12526128
129	0x3e1fcbe0	0.15605116
130	0xbebf58b7	-0.37372372
131	0xbeb02323	-0.34401807
132	0x3e4a8c2f	0.19780038
133	0xb88b7000	-6.648898e-05
134	0xbc606370	-0.013695583
135	0xbf647690	-0.8924341
136	0x3f0a1056	0.53931177
137	0x3fa69137	1.3013066
138	0x3f319051	0.69360834
139	0x3d30ab78	0.043132275
140	0xbeba30da	-0.36365396
141	0x3defd929	0.11711342
142	0x3f19fe3c	0.60153556
143	0x3f26f376	0.6521524
144	0x3e3cbdec	0.18431824
145	0xbfbd1c8f	-1.477434
146	0x3eb6fbcb	0.35738978
147	0x3f953cb5	1.1659151
148	0xbe20b2da	-0.15693226
149	0x3e5b7c08	0.21434033
150	0xbebbf758	-0.36712146
151	0xbf535063	-0.82544535
152	0xbe161f57	-0.14660393
153	0xbd9e04d4	-0.07715765
154	0x3d430648	0.047613412
155	0x3b9ef1a0	0.0048505813
156	0xbf0e8525	-0.5567191
157	0xbb286eb5	-0.0025700752
158	0xbe2fd959	-0.17172755
159	0x3d8dd7a0	0.06925893
160	0x3eb24aa9	0.34822586
161	0xbe9efd6b	-0.31052718
162	0xbdcce411	-0.10004438
163	0xbe6ccc92	-0.23124912
164	0xbe490b70	-0.1963327
165	0xbf37c60c	-0.7178657
166	0x3e969f16	0.29418248
167	0x3f8ae345	1.0850607
168	0x3f6a8756	0.91612756
169	0x3e227ffc	0.15869135
170	0xbf09cb77	-0.5382609
171	0x3f03f90b	0.51551884
172	0x3ee57d48	0.44822145
173	0x3e9291e1	0.28626922
174	0x3e7150ac	0.2356593
175	0xbfaca6d6	-1.3488414
176	0x3f01c824	0.50696015
177	0x3f25f035	0.6481965
178	0x3ec1aeec	0.37828767
179	0xbd64b604	-0.055837646
180	0xbe97d5c7	-0.29655287
181	0xbdc68489	-0.09693248
182	0xbeb47104	-0.35242474
183	0x3dac4d97	0.084132366
184	0x3e3c6eb2	0.18401602
185	0xbe25b871	-0.1618364
186	0x3e835c9e	0.256566
187	0xbe0b05b6	-0.13576397
188	0xbe8469a7	-0.25861856
189	0x3cdb1bb0	0.0267466
190	0x3efb21b4	0.4904915
191	0x3ebdee7e	0.37096018
192	0xbe6ef24d	-0.23334618
193	0xbe802a2f	-0.25032184
194	0xbe660f31	-0.22466733
195	0xbeb38fb2	-0.35070568
196	0x3e197d85	0.14989288
197	0xbe85fea9	-0.26170853
198	0xbea3907a	-0.31946164
199	0xbe7d70db	-0.24750082
200	0x3d51cd23	0.051221024
201	0x3dd15995	0.102221645
202	0xbd67d3d8	-0.056598514
203	0xbeb078de	-0.34467214
204	0xbe4411b8	-0.19147384
205	0x3ed611ec	0.41810548
206	0xbd0880d0	-0.03332597
207	0xbe9841c1	-0.29737666
208	0x3d86d606	0.065837905
209	0x3e7f751a	0.24947014
210	0x3e5bc0b3	0.21460228
211	0x3f2f4a28	0.6847253
212	0x3fa26cb0	1.2689419
213	0x3f43921b	0.76394814
214	0xbe12aadf	-0.14322995
215	0xbe17cf30	-0.1482513
216	0x3f6907bc	0.91027427
217	0x3f6abcd8	0.916944
218	0x3f7056bf	0.93882364
219	0xbe2420d4	-0.16028148
220	0xbf55b73a	-0.83482707
221	0x3e14d46a	0.14534155
222	0x3f87b07c	1.0600734
223	0x3f6b3216	0.918733
224	0xbd6ac8b4	-0.05732031
225	0x3ead870d	0.33892098
226	0xbf3a28f2	-0.7271873
227	0xbf805145	-1.0024801
228	0x3dd8e1ed	0.10589967
229	0x3e82cd37	0.25547192
230	0xbf64639f	-0.8921451
231	0xbf606ce8	-0.8766618
232	0x3e017507	0.12642299
233	0xbe1f3990	-0.15549302
234	0xbe4efe4e	-0.20214197
235	0x3e99c152	0.30030304
236	0x3ec75ba1	0.38937095
237	0x3ec7fb5d	0.39058962
238	0xbf1302ba	-0.57426035
239	0xbda56786	-0.08076386
240	0x3eb4ac27	0.35287592
241	0xbf33c398	-0.7022033
242	0xbf1a8d22	-0.603716
243	0x3beccd77	0.0072266418
244	0x3e0b947a	0.13630858
245	0x3e1bed7a	0.15227309
246	0x3e2f9195	0.17145379
247	0xbd5ce0a2	-0.053925164
248	0xbd7257cb	-0.059165757
249	0xbe543eea	-0.20727125
250	0xbeb2ffb7	-0.3496072
251	0x3f1fafdc	0.62377715
252	0xbdfb1160	-0.122591734
253	0xbc2ad3d5	-0.010426481
254	0xbddefa1c	-0.10887548
255	0xbf3265c2	-0.6968652

hyper_b2.0.bias f4 [32]
0	0x3e2834f7	0.16426454
1	0x3ea6a83e	0.32550234
2	0x3eb62d20	0.35581303
3	0x3e399119	0.18121757
4	0xbec3498f	-0.38142058
5	0xbefe826d	-0.49708882
6	0x3f672fc4	0.9030726
7	0xbd85eae1	-0.0653894
8	0xbea1a719	-0.31572798
9	0x3f28f9c0	0.6600609
10	0x3e9a5093	0.30139598
11	0x3f235999	0.6380859
12	0x3e36b1bf	0.17841242
13	0x3e5c8a38	0.21537101
14	0x3f9b5964	1.2136655
15	0xbdd48af6	-0.10378067
16	0x3b0f6a86	0.0021883561
17	0x3e8e642e	0.27810806
18	0x3d9f8eee	0.077909335
19	0xbe1e861f	-0.1548085
20	0x3e5c712b	0.21527545
21	0x3e4a303c	0.19744962
22	0x3e0bade4	0.13640553
23	0x3f513f26	0.8173698
24	0x3f1dd314	0.61650205
25	0x3e9678f5	0.29389158
26	0x3e3fb438	0.18721092
27	0x3e39f43b	0.18159573
28	0xbd4d2acb	-0.05008964
29	0x3f0f0719	0.55870205
30	0x3dba7092	0.09103502
31	0xbe88a333	-0.2668701

hyper_b2.2.weight f4 [1, 32]
0	0x3efbbae0	0.49166012
1	0x3f1516b9	0.582378
2	0x3f974b01	1.1819764
3	0x3f16ed6b	0.5895602
4	0x402634dd	2.5969765
5	0xbffb7189	-1.9644023
6	0xbf9e3eee	-1.2362955
7	0xc00ba4c1	-2.1819308
8	0xbeb57ecc	-0.354483
9	0xc04e2bf5	-3.221433
10	0x3f496b5e	0.78679454
11	0xc010f944	-2.265214
12	0x3eda9836	0.42694253
13	0x3ed6cb4b	0.41951975
14	0xc03cf2c7	-2.952318
15	0x3fefece4	1.8744168
16	0x3f5d0dcf	0.86349195
17	0x3f5f6718	0.87266684
18	0xbfdeb360	-1.7398491
19	0x3f94c8b8	1.1623755
20	0x3e9a1c76	0.3009984
21	0x3efdff2b	0.4960874
22	0x3ed192b0	0.40932226
23	0xbfc12aa8	-1.5091143
24	0xbfc0d0b7	-1.5063695
25	0x3f2a7b68	0.66594553
26	0x3e9c64aa	0.3054555
27	0x3e9c0fa2	0.30480677
28	0x3f9b5dc7	1.2137994
29	0xc00183d9	-2.0236723
30	0x3f1c1e1a	0.6098343
31	0xc007ec22	-2.1237874
